models/ABBV_model.onnx (onnx, 40199 bytes, 5 tensors)

fc.weight f4 [5, 10]
00000000: 3046 113e 424a 3abe f0b4 ec3e 35cd c9be
00000010: c80c 74be a9cc 863d 0944 903d cbb9 8ebd
00000020: de06 f73c d333 c0bd 95df a13e beff 0fbe
00000030: 18af 2f3c 0d98 dfbe 0456 29be f83d 933c
00000040: b7dd d83e eaab 91be 73df 213e c518 e53d
00000050: 960e b33e 07c8 c9bd 795e e53e 46df 74be
00000060: 6ee4 bdbe e8d9 50be ed0b ba3e 7a16 0b3e
00000070: d42b 1e3e 69da 82bd 2d98 c73d 6846 9e3e
00000080: 0311 9d3e 7430 f43d e0c6 603e bbbc 0e3e
00000090: c75d 70be c73d c8bd 5466 e6bc 5229 b2be
000000a0: 9d23 6f3e 3f43 89be e36e 023f 422d 91bb
000000b0: da00 b0be 171e 99be bea4 41bd 0c45 61bd
000000c0: 98f9 cd3e dab5 be3b
0.1418693 -0.1819239 0.46231794 -0.39414373 -0.23833 0.065820046 0.07044227 -0.06969031
0.030154642 -0.09384885 0.31615892 -0.14062402 0.010722898 -0.43670693 -0.16536719 0.017973885
0.42356655 -0.28451473 0.15807895 0.11186365 0.34972066 -0.09852605 0.4479864 -0.23913297
-0.3708834 -0.20395625 0.36337224 0.13582793 0.15446407 -0.06389315 0.09745822 0.3091309
0.3067704 0.11923304 0.21950865 0.13939182 -0.23473273 -0.09777408 -0.028124966 -0.3479715
0.23353429 -0.26809117 0.5095045 -0.004430444 -0.3437565 -0.2990577 -0.04727625 -0.05499749
0.40229487 0.0058200182

fc.bias f4 [5]
00000000: 5d36 263e cd61 9b3e aeee 683e ad44 9fbd
00000010: c32e 003e
0.16231675 0.30348054 0.22747299 -0.07776771 0.12517838

onnx::LSTM_118 f4 [1, 40, 5]
00000000: b5f1 613d fcb6 893e 9a07 e63e fd01 f03e
00000010: 64c3 333e 9334 8d3e 6d31 883e 8b0f c73e
00000020: 1bf8 58be c865 1f3e 3808 6ebd cc3c 5a3d
00000030: 5665 8b3e 8c09 d63e d304 703e 2df7 293f
00000040: aa3f cc3e 8d1f 893e ded4 563e 202e 523e
00000050: be7f 9b3d f43f 41be 53ea 6abe 8b68 823f
00000060: 35a4 09bf a3e3 17be b886 83be f07a b63d
00000070: 98ab a43e 4e1e ecbe 821a 9dbd 146f 1bbe
00000080: 9da8 d4bb 7f48 993d f77a d9be e951 993d
00000090: 3816 70be 372f a0be 641f 233f be7d 60bc
000000a0: 0c71 f73d fb9f f23d a788 673e 386b cd3d
000000b0: a9c2 5d3e ef9c df3d c8ad abbe 49ad a63d
000000c0: d776 2abf bf7d 83be 6aef e03e 3aff ea3d
000000d0: d45c 2c3f 4523 863d a63c 7b3e c68b c53e
000000e0: bd3e e23e 81ed 8a3d 232a cebe 9ba8 16be
000000f0: c919 b13e 2821 233d fef3 053f 1b69 d53e
00000100: 5509 eb3e 8b39 0d3f 95a4 243f b946 403f
00000110: ac4c 663d 05ac f43e a555 4ebd 45f4 8bbd
00000120: ea9b bfbe 018f a83f 722c d9be 2eb1 5fbe
00000130: 26a0 55be efd5 b7be a530 3d3f 55c1 d2be
00000140: 6084 d8be c40f db3d f1ad bdbe 726f 8c3e
00000150: 5e33 f5be 7f96 6ebc 742c eb3b 55c6 a1bd
00000160: f845 6f3f 370f 38be 925b b93d 14a6 5d3e
00000170: 0b9a 173f aad0 873e 4e9d 193f 0694 1dbe
00000180: ceb0 bfbe 56ed 8cbe 38d4 83bf 125d 293e
00000190: 3e5c 873e 8f99 9e3e bdca 9abc 861f a03d
000001a0: a065 db3e fa23 98be d7d9 f43c eec4 2ebd
000001b0: f618 3cbf 4952 683e b2a7 043f efa0 0d3e
000001c0: e469 f23d 9acc ba3e bbd7 65bd 63d3 d73e
000001d0: c8e7 de3e 485a 343e 2ebe 923d 60e2 003e
000001e0: 4ee5 0dbe 92f8 0dbf ac06 b3be 342f 233f
000001f0: bae1 febe 2ef0 b7be 842d b5be e111 ca3c
00000200: 6d7d b13e 0567 bebe f10f 58be 4c6c 403d
00000210: debb 953c 4909 2cbd 7d64 5d3d e520 21be
00000220: 6032 cebd a6e4 adbe f28a 053e 68c4 4abe
00000230: 5833 2f3e 0169 e63d b18b 833e b936 1ebe
00000240: fe0f 0c3e aad7 8abe 8a3d b1be e25b d2be
00000250: 9cc9 cabe 8ffa 51bd 9c9b e33e 7ef3 5a3e
00000260: fab2 b53e 96a1 1c3f 7095 143a 4913 ecbe
00000270: 671d a33d 9f1d 5dbe efcb bb3e fd73 b8bd
00000280: afab e63e c4b0 293e e647 80bd 19b2 543e
00000290: a480 9dbd ff5d b0be 2b8e 94be d43f 8dbd
000002a0: fefe 1a3d 6690 26bf 3c24 3f3d 0866 8dbe
000002b0: c371 11be eb58 093b 1315 6dbe 2a70 103e
000002c0: bc58 c73e af13 5ebe 3628 903e 2406 20bc
000002d0: f47d 7c3e 002b d53d f13d 773d 8c69 09bf
000002e0: 062e 7b3e e64f 3f3e 99c9 d3be 70ac 67be
000002f0: fc1a 33bf a4dd d6bb e61e f0bd b401 f53e
00000300: e1c9 f63e bdd0 2ebe 2a7e 813e ce15 bb3c
00000310: 8f02 cf3e c823 533e 0ffc 59bd 7a88 0abe
0.05516215 0.26897418 0.44927675 0.46876517 0.17555004 0.27579173 0.2660021 0.38879046
-0.21188395 0.1556617 -0.058113307 0.053280637 0.2722575 0.4180416 0.2343934 0.66392785
0.39892322 0.26781884 0.2097964 0.20525408 0.07592724 -0.18872052 -0.2294095 1.0188154
-0.53766185 -0.1483293 -0.2568872 0.08910167 0.32162166 -0.4611687 -0.076710716 -0.15179092
-0.006489827 0.07484531 -0.42476627 0.07486326 -0.23445976 -0.31286022 0.63719773 -0.013701854
0.12082109 0.1184692 0.22610722 0.10030216 0.21656288 0.109186046 -0.33531022 0.0813852
-0.66587585 -0.25681874 0.43932658 0.11474462 0.67329144 0.06549696 0.24534854 0.385832
0.4418849 0.067835815 -0.40266523 -0.14712755 0.34589985 0.039826542 0.5232543 0.41681752
0.45905557 0.5516593 0.6431363 0.75107914 0.056225464 0.4778749 -0.050374646 -0.068337
-0.3742364 1.3168641 -0.42416722 -0.21844932 -0.20861873 -0.35905406 0.7390235 -0.41163126
-0.42288494 0.106963664 -0.3704677 0.27428776 -0.47890753 -0.014562248 0.00717693 -0.07899157
0.9346614 -0.17974554 0.09050669 0.21645385 0.59219426 0.26526386 0.6000565 -0.15388498
-0.3743958 -0.27524823 -1.0299139 0.1653941 0.26437563 0.3097653 -0.018895501 0.078185126
0.4285097 -0.29714948 0.02988903 -0.042668276 -0.7347559 0.2268764 0.5181838 0.13830923
0.11836603 0.36484224 -0.05611394 0.42153463 0.4353621 0.17612565 0.0716518 0.12586355
-0.13857004 -0.55457413 -0.34966028 0.637439 -0.4978159 -0.3592543 -0.35386288 0.024666728
0.34666005 -0.37187973 -0.21099831 0.04697828 0.018278059 -0.042001043 0.05405091 -0.15735205
-0.10068202 -0.33963507 0.13041285 -0.19801486 0.1710943 0.11250497 0.25692514 -0.15450563
0.13677976 -0.27117664 -0.34617263 -0.41085726 -0.3960694 -0.051264342 0.44454658 0.21381947
0.3548811 0.6118406 0.000566802 -0.46108463 0.079645924 -0.21593331 0.36679026 -0.09006498
0.4505286 0.16571337 -0.062637135 0.20771064 -0.07690552 -0.34446713 -0.29014716 -0.0689694
0.037840836 -0.65064085 0.046665415 -0.27616906 -0.14203553 0.002095754 -0.2315257 0.14105287
0.38934886 -0.21687196 0.2815568 -0.009767089 0.24657422 0.10408592 0.060361806 -0.53676677
0.24529275 0.18682823 -0.41364744 -0.22624373 -0.6996305 -0.0065571833 -0.117246434 0.47852862
0.48200896 -0.17071815 0.25291568 0.022837546 0.4043164 0.20619118 -0.053218897 -0.13528624

onnx::LSTM_119 f4 [1, 40, 10]
00000000: d2f3 0dbe c622 49be ff2a 56bd 69d0 903e
00000010: 8f99 cd3e bc45 5b3e 2e14 c5be c06c 11be
00000020: e458 77be f121 193c efa5 003c 6eb0 d43d
00000030: 2941 92bd 1332 debd c170 bcbd 4367 12be
00000040: 4317 8dbe fd29 c7be 4f12 60bc 5c5f 4d3e
00000050: 0672 bb3d 99f0 433e 9fa5 963e 979e 6cbd
00000060: 541b 853c 91ad 94be 3300 d33e ea64 aa3c
00000070: 717e b83d 9793 f6bd d1a3 11bb 290d a8bd
00000080: 5b8e f93d ae0b 1a3e 703e 40be 92c0 fdbd
00000090: 49ab 2f3e 6fe1 3d3c c283 6d3d 3a6e d13e
000000a0: c7ae 62bb d647 94be bc30 c23e a2b8 2c3e
000000b0: f561 60bc 82d9 00be 63eb 42bf 8cf8 ce3d
000000c0: 6a52 0f3e a873 23be f3d3 873e 5822 483d
000000d0: 5614 373d fc07 a13d 213c 68bc eb4e ea3d
000000e0: 04b9 9bbe 1cb1 2cbe e992 a8be 714b 8f3e
000000f0: 8d61 c5bd 0646 41be bc5f 15bd 1f6b c2be
00000100: 73fa e83e 247b 4dbe 847c 033e 21a1 413c
00000110: e0a4 b0bd 993b 23be 0c2e 723e 7010 8ebe
00000120: 0e8b da3e a758 b53e 6803 043f 95c2 9c3e
00000130: 563b 6ebe ce68 b0bd 2cf7 303d 683d cd3d
00000140: 2f71 b9bd c465 993c 07b6 963e 4283 6b3d
00000150: 667c 203e 57f7 003e c07b c13d 5716 5ebe
00000160: c886 cbbd 339a d1bd dd9f f4bd 3ce5 a5be
00000170: d9ff 02bf e870 043f b277 09be 9ecf 4fbd
00000180: 7079 4e3e 3612 b2be ade9 8ebc ba19 333d
00000190: 1b21 953e e054 1a3e 015f a23e 5fab 5abe
000001a0: 406e 103d e77c 533c 4600 88bd 2bd5 453e
000001b0: 36cb aa3e d1ee 6a3e 6608 4b3e d638 d9be
000001c0: 4b01 50bd 7f8c 6a3d 1a8e 73be dbd4 8abd
000001d0: 4c96 ea3c df79 813d 9d8f 94bc 51c8 02bd
000001e0: c9fe de3e 1897 603e f6b3 79bd feab ae3c
000001f0: 17b6 81be 0732 d3be 81e5 653e 6e54 a13c
00000200: 6302 a43e 76b3 91be 5b5c 263e 48b9 f9bc
00000210: d4c6 483d 9fb1 123e 821d 2b3e 8920 3dbd
00000220: f26d 6a3e af0f b63c ffd4 ccbd 664f 1dbe
00000230: cf0a 073e 8176 84be 5462 58be 6697 9dbe
00000240: 232e 603e 44ab 69bd a10a 2fbf 383f 173e
00000250: 67e3 90bd 71e4 be3d 38e4 e3bd 6c27 f5be
00000260: 871d 9a3e 2dac 683d 6899 d03d 45d5 33be
00000270: d4f7 3e3e 01ae 8dbe 6b72 a5be 1f9b c23e
00000280: 0338 50bd f281 abbe 91d8 e13e 7ab2 4e3e
00000290: dd5e ab3e 235f 5e3e 7048 393d f83f 5cbb
000002a0: 8121 78be b056 0b3e d29f 123e bec6 98be
000002b0: a487 263e f489 643d 9626 673f c0c3 573e
000002c0: 9c9d d53c 0da5 233d efb0 ebbc c54f cf3d
000002d0: 7a4e 763e 548f ec3d ab07 413e 8726 05be
000002e0: 09ad 59bd bff4 35bd af0c 0d3d f147 a63e
000002f0: 8b5f 1ebe 5c8a 56be ed7a bebe 4875 a6be
00000300: de6b 96bd 11e7 b03e 6b22 a9bd 21df f0bb
00000310: d737 26bc cc77 42bd 3cdd ddbe f0d7 803e
00000320: 2cb6 fb3d 2351 cd3e daa6 35bd 66f5 213e
00000330: ad07 cf3e 4cc9 bdbe cf68 bebe 2c18 3b3e
00000340: 996e 2f3e d021 e43d eef9 4dbe c474 9fbe
00000350: b217 a7bd 0275 8e3e 6786 6fbe acf7 abbd
00000360: 0d8f 02be 4da8 d33d 9737 823d 192d a43e
00000370: e78f 83bd bdf7 3d3e 6c6c 4dbd 1180 50be
00000380: 6bf2 b3be a446 45be 6f08 aa3e d4cb 0ebd
00000390: 3ada c53e f043 39bd 84f2 c2bd 5845 d5bd
000003a0: d2bf 4cbe 3d70 073e 07a9 8cbc 05e8 aebe
000003b0: eac8 ae3e 5df3 46bd ce23 833e 9249 203e
000003c0: 732b 8fbe e5c1 f33d 03b4 a43d 9f16 e73b
000003d0: 8a43 863e a118 11bf 0e15 b3be 596b 5d3f
000003e0: 9c03 4bbc 4b6d a9be 7810 ff3e 73b7 ecbe
000003f0: 2789 c13e a35e 083e 5dcb 1a3e 2776 893e
-0.13862541 -0.19642171 -0.052287098 0.28284004 0.40156218 0.2141332 -0.38491958 -0.14201641
-0.24155003 0.009346471 0.007852062 0.10385214 -0.071413346 -0.10849395 -0.092011936 -0.14297204
-0.2755681 -0.38899222 -0.01367624 0.20055908 0.091526076 0.1913475 0.29423234 -0.05776843
0.016248383 -0.2903867 0.4121109 0.020800073 0.09008492 -0.12039869 -0.0022222886 -0.08205635
0.12185355 0.15043518 -0.18773818 -0.123902455 0.17155184 0.011589392 0.057986982 0.4090441
-0.0034589039 -0.28961056 0.37927806 0.16867307 -0.01369523 -0.12582973 -0.7614042 0.10106
0.13996282 -0.15962088 0.26528892 0.048860878 0.04469713 0.07862851 -0.014174492 0.11440834
-0.30414593 -0.16864437 -0.32924584 0.27987245 -0.09637747 -0.18874368 -0.036468253 -0.37972352
0.45503578 -0.20066506 0.12840468 0.011818201 -0.086251974 -0.15940703 0.23650378 -0.27746916
0.42684215 0.354192 0.515677 0.30617204 -0.23264822 -0.0861374 0.04320447 0.10021478
-0.09054791 0.018725283 0.2943575 0.057498224 0.15672454 0.12594353 0.094474316 -0.2168821
-0.09937817 -0.10234489 -0.11944554 -0.32401454 -0.5117164 0.5173478 -0.13424566 -0.05073511
0.20163512 -0.3477952 -0.01744541 0.043725707 0.2912682 0.1507144 0.31713107 -0.21354435
0.035261393 0.012908197 -0.06640677 0.19319598 0.33358163 0.22942664 0.19827422 -0.42426175
-0.050782483 0.057262894 -0.23784676 -0.0677888 0.02863612 0.06322073 -0.018134886 -0.031929318
0.4355376 0.21932638 -0.06096264 0.021322247 -0.25334236 -0.41249105 0.2245083 0.01969358
0.3203307 -0.2845723 0.16246168 -0.030483857 0.049017742 0.1432557 0.16710475 -0.046173606
0.22893503 0.022224275 -0.10001563 -0.1536232 0.13187717 -0.2587166 -0.21131259 -0.3077957
0.218926 -0.057048097 -0.68375593 0.1477021 -0.070746236 0.093209155 -0.11127514 -0.4788164
0.30100653 0.056804825 0.1018551 -0.17561825 0.18649226 -0.27671817 -0.32313856 0.38008973
-0.050834667 -0.33497578 0.4411054 0.20185271 0.33470812 0.2171598 0.045235097 -0.0033607464
-0.2423153 0.13607287 0.14318779 -0.29839128 0.1626268 0.055795625 0.9029325 0.21070766
0.02607613 0.039952327 -0.028770892 0.10122637 0.24053374 0.11550775 0.18850581 -0.13002978
-0.053143535 -0.04442286 0.034435924 0.32476762 -0.15466134 -0.20951217 -0.3720316 -0.32511353
-0.07344793 0.3455129 -0.08258518 -0.007350818 -0.010145149 -0.04747753 -0.4333285 0.25164747
0.12290606 0.40100965 -0.044348575 0.15816268 0.40435544 -0.3706764 -0.37189338 0.1827094
0.17132033 0.11139262 -0.20114872 -0.31143773 -0.081588164 0.27823645 -0.23391114 -0.08396849
-0.12749882 0.10334835 0.06358259 0.32065657 -0.064239316 0.18551536 -0.050152227 -0.20361353
-0.35145888 -0.19265229 0.3320956 -0.034862354 0.38643056 -0.045230806 -0.095189124 -0.10413617
-0.19995049 0.1322641 -0.017170442 -0.34161392 0.3413766 -0.048571933 0.25613254 0.15653065
-0.27962837 0.11902217 0.08042147 0.007052257 0.26223403 -0.56678206 -0.34977 0.86491925
-0.012390997 -0.33091196 0.49817252 -0.4623371 0.3779995 0.13317351 0.1511664 0.26847956

onnx::LSTM_120 f4 [1, 80]
00000000: dbbe 113e c1b9 7bbd 470b 413e df7f 28be
00000010: c78d d03e b8ee 8bbe 8383 523e 8c08 fcbc
00000020: c32f a23e f142 273e bdce d83d bf2a 903e
00000030: 3e35 863d daef 953d 880a 693e f024 483d
00000040: 9a3c 893e 3221 133e 1148 0dbd 909c 3bbe
00000050: 49dd 573e 21bc 343e 560d 3f3e 76f0 5fbe
00000060: 6fc0 6cbe fd42 b0bd dc9a 19bd 39e6 d0bd
00000070: 6467 87bd 1e28 0c3e 99a1 9c3d 724d 22be
00000080: 3ba7 cb3e b6d4 71bd 6fc7 8f3e 1984 b8bc
00000090: 64c0 39be 16d9 563e 7de2 d03d 3318 8b3b
000000a0: 5df7 b9bc 6d26 833e 7b7d 40be f881 253e
000000b0: 637b e03e eb99 3ebe 966e 093e 5e71 a2bc
000000c0: 436a 80bd f9b5 2bbb 725e 823d 5280 2bbe
000000d0: 4ed1 483e e07f d53d 1eb7 643e 7ec6 9dbe
000000e0: 8581 89be 7ac3 3a3d 7c79 0a3e bf0d aabb
000000f0: 2c99 5a3e 1916 e53d bdb6 7cbe f85d b0bd
00000100: a12f 633e 53f7 353b 987b 99be 73f8 3ebe
00000110: e8a3 06bd 2b10 bb3d 8dd1 6bbe a284 2d3e
00000120: 7c45 24bd 26af 32bb 6738 693d 84de 4cbc
00000130: 7756 8bbe 4dbf bc3c 3e81 08be 4c57 013e
0.14232962 -0.061456446 0.18851958 -0.16455029 0.40733168 -0.27330565 0.2055798 -0.030765794
0.31677064 0.1633413 0.10586307 0.28157613 0.06553124 0.07321139 0.22757924 0.04886335
0.26804048 0.14368132 -0.034492556 -0.18321443 0.21080507 0.1764989 0.18657431 -0.21869072
-0.23120283 -0.08606527 -0.0375012 -0.102001615 -0.06611517 0.13687178 0.0764801 -0.15849856
0.39776024 -0.059040748 0.28081843 -0.022523927 -0.18139797 0.20981249 0.10199449 0.004244828
-0.02270096 0.25615254 -0.18797867 0.1616286 0.43844137 -0.18613403 0.13421091 -0.019829448
-0.06270268 -0.0026200993 0.0636567 -0.16748169 0.19611093 0.10424781 0.22335479 -0.308155
-0.26856628 0.045596577 0.13522905 -0.005189627 0.21347493 0.111858554 -0.24679084 -0.08611673
0.22186138 0.0027765825 -0.29977107 -0.18649463 -0.032871157 0.09133943 -0.23029156 0.16945127
-0.040105328 -0.002726504 0.056938555 -0.012504224 -0.27214405 0.023040438 -0.13330552 0.12630957
