models/ABT_model.onnx (onnx, 40199 bytes, 5 tensors)

fc.weight f4 [5, 10]
0	0x3e0804dd	0.13283105
1	0xbee21e77	-0.44163868
2	0x3ec4f210	0.3846593
3	0xbe69ba68	-0.22825015
4	0x3d63f782	0.055655964
5	0x3e78797b	0.24265091
6	0x3dbcecf5	0.092248835
7	0xbdc22831	-0.09480322
8	0x3ee51ad5	0.44747034
9	0xbe04489d	-0.12918325
10	0x3ec8777f	0.39153668
11	0xbee7ec5f	-0.45297524
12	0x3ed613e9	0.41812065
13	0xbe113d89	-0.1418363
14	0xbeca162f	-0.3947005
15	0x3d979f6f	0.074034564
16	0xbd2a3f57	-0.04156431
17	0x3ddd0419	0.10791797
18	0x3ec0e27c	0.37672794
19	0xbdc2d19a	-0.095126346
20	0x3db57c55	0.08861605
21	0xbdc7681c	-0.09736654
22	0x3e7d1ab1	0.24717213
23	0xbed89af7	-0.4230573
24	0xbe05450d	-0.13014622
25	0x3edc711d	0.4305505
26	0xbee8089a	-0.45319062
27	0x3d68e614	0.056860045
28	0x3e08f259	0.13373698
29	0x3be05a88	0.0068467297
30	0xbee3e3db	-0.44509777
31	0xbd6e3c06	-0.05816271
32	0x3ea3d206	0.31996173
33	0xbf124990	-0.571435
34	0xbefd7997	-0.49506828
35	0xbeb29058	-0.3487575
36	0x3df2ca50	0.11854994
37	0x3f26fecc	0.6523254
38	0xbebca426	-0.36843985
39	0x3e3d2fe4	0.184753
40	0xbddd9cb3	-0.10820904
41	0xbe92d09a	-0.28674775
42	0x3e6f30c1	0.23358442
43	0xbec8cca3	-0.39218625
44	0xbc9817c9	-0.01856603
45	0x3e93ca56	0.28865308
46	0xbea218b7	-0.3165948
47	0xbdad8f49	-0.08474595
48	0x3ea8d09b	0.32971653
49	0xbe626e14	-0.22112304

fc.bias f4 [5]
0	0xbe1918a1	-0.14950801
1	0xbe2cb76d	-0.16866846
2	0x3e78dba8	0.24302542
3	0x3e866688	0.262501
4	0x3e01f976	0.12692818

onnx::LSTM_118 f4 [1, 40, 5]
0	0x3e9eaaf4	0.30989802
1	0x3eb28c5e	0.34872717
2	0x3ea7ca2f	0.3277144
3	0xbe8d2afd	-0.2757186
4	0x3d5db8ce	0.05413132
5	0x3e90c885	0.28277984
6	0x3d0fc5c1	0.035100702
7	0x3ddf8fe6	0.10916118
8	0xbe468a46	-0.19388685
9	0x3dc14fdd	0.09439061
10	0x3d4e3ab0	0.050348938
11	0xbdf1d276	-0.1180772
12	0x3e932628	0.28740048
13	0x3c287c91	0.010283605
14	0x3eaf79fe	0.3427276
15	0x3e62e7cf	0.2215874
16	0x3e9087a5	0.2822849
17	0x3e35d932	0.17758635
18	0x3ea476d7	0.32121918
19	0x3dde81c8	0.108645976
20	0x3e4a7e22	0.19774678
21	0x3ec4debe	0.3845119
22	0x3e786e32	0.24260786
23	0x3d1f9ca9	0.038967762
24	0x3daa4b9d	0.08315203
25	0x3e7d3bf5	0.24729903
26	0x3e6088bf	0.21927164
27	0x3eb7a6a9	0.3586934
28	0x3dd2eea9	0.10299427
29	0xbda76491	-0.081734784
30	0xba7d8501	-0.0009671003
31	0xbdefe394	-0.11713329
32	0xbe873754	-0.264094
33	0x3e8f896a	0.28034526
34	0xbd914bc7	-0.070945315
35	0x3e846f3f	0.25866124
36	0xbdef8270	-0.11694801
37	0x3ebc1fce	0.36743015
38	0xbf090e5d	-0.5353754
39	0xbd847b3b	-0.06468817
40	0x3e6a52b5	0.22883113
41	0x3e4154ad	0.18879957
42	0x3e21c4cc	0.15797728
43	0x3ead1faa	0.3381322
44	0x3dc7a235	0.097477354
45	0xbe7525be	-0.23940179
46	0xbdd9c7c5	-0.10633806
47	0x3cee3931	0.029080005
48	0xbcdded52	-0.027090702
49	0x3dabb886	0.083848044
50	0x3cb5ac79	0.022176968
51	0xbcf57bdf	-0.029966293
52	0x3ed821ec	0.4221338
53	0x3d7727a9	0.060340557
54	0x3e63496d	0.22195978
55	0x3ea6ffad	0.3261694
56	0x3e642692	0.22280338
57	0x3f0e49d1	0.55581385
58	0x3e8db483	0.27676782
59	0x3e97653a	0.29569417
60	0x3e91a4fe	0.28446192
61	0x3f0220af	0.5083112
62	0x3ebde21e	0.37086576
63	0x3e98752a	0.2977689
64	0x3c2cc8b5	0.010545899
65	0x3eb18c4e	0.34677356
66	0x3d53313c	0.051560625
67	0x3d7b6357	0.061374035
68	0x3d646175	0.055757005
69	0x3e303fc0	0.17211819
70	0xbdff2657	-0.124584846
71	0x3e99c3cc	0.30032194
72	0x3db2d8b9	0.08732743
73	0x3d8c4e3f	0.06850862
74	0x3ee2ac9e	0.4427232
75	0x3ebc3fa1	0.36767295
76	0x3e5eb5a1	0.21748973
77	0x3e3a13c2	0.181716
78	0x3ee80a32	0.45320278
79	0x3e986b6e	0.29769462
80	0xbe906d24	-0.28208268
81	0xbef1bd2d	-0.47214642
82	0xbee7f483	-0.45303735
83	0x3ee857b1	0.45379403
84	0xbf0cbc7c	-0.54975104
85	0x3e900094	0.2812544
86	0x3e3faea3	0.18718962
87	0xbda8b755	-0.08238093
88	0xbfc03866	-1.5017211
89	0x3d981579	0.074259706
90	0x3dcb9ef1	0.09942425
91	0x3d389cf0	0.045071542
92	0x3e542084	0.20715529
93	0xbeccfa0b	-0.40034518
94	0x3f01359c	0.50472426
95	0xbde886ea	-0.11353858
96	0x3cea1d29	0.028578358
97	0xbde10ff4	-0.10989371
98	0xbe9b2600	-0.3030243
99	0xbe3687a1	-0.17825176
100	0x3e97f0d2	0.2967592
101	0x3e2258bf	0.15854166
102	0x3da4484e	0.080216035
103	0x3cd4a123	0.025955742
104	0x3df1b901	0.11802865
105	0x3edfabb5	0.4368569
106	0x3d8d81c4	0.069095165
107	0x3b726b00	0.0036990047
108	0xbbb10867	-0.005402613
109	0x3e2e6122	0.1702924
110	0x3ea4475c	0.32085693
111	0x3d7056d9	0.058676574
112	0x3c927c44	0.01788152
113	0x3eaef0e5	0.34168163
114	0x3ec8fe3b	0.39256462
115	0x3ea71638	0.3263414
116	0xbe11d5c6	-0.14241704
117	0x3e1cb93b	0.15305035
118	0xbd4fd4e6	-0.050740145
119	0x3d4e457d	0.050359238
120	0x3e9078dc	0.28217208
121	0x39a44797	0.00031333856
122	0xbdaafb9e	-0.083487734
123	0xbe75187c	-0.23935121
124	0x3e97d190	0.2965207
125	0x3e821de9	0.25413445
126	0xbd06f5eb	-0.03294937
127	0xbe0f20e6	-0.13977394
128	0xbe823469	-0.2543061
129	0xbd70a6ba	-0.058752753
130	0xbf122eee	-0.5710286
131	0xbf0377b2	-0.51354516
132	0xbf08c3ae	-0.53423584
133	0x3e98e2c1	0.298605
134	0xbf3da2c6	-0.740765
135	0xbd8d1107	-0.06888013
136	0xbe40d659	-0.18831767
137	0xbd23330a	-0.039843597
138	0xbf24f8ac	-0.64441943
139	0xbdf0e549	-0.11762483
140	0x3ef1130b	0.4708484
141	0xbcd4a711	-0.02595857
142	0xbb7156b5	-0.0036825363
143	0xbdc46df4	-0.095912844
144	0x3e9d109e	0.3067674
145	0xbc95229b	-0.018204978
146	0x3d62ce7b	0.055372696
147	0x3dcd7395	0.10031811
148	0x3d32b826	0.04363265
149	0x3e2b362d	0.16719885
150	0x3ed79a76	0.42110032
151	0x3c981e5e	0.018569168
152	0x3e9857e3	0.29754552
153	0xbeb72121	-0.35767463
154	0xbd4be569	-0.04977933
155	0xbe30a1ce	-0.17249224
156	0xbec5f740	-0.386652
157	0xbe3c26f2	-0.18374231
158	0x3cf7bf0f	0.030242471
159	0xbe5def91	-0.21673419
160	0x3e436a43	0.19083504
161	0xbd51a0c5	-0.051178712
162	0x3e0894ff	0.13338087
163	0x3d4f9a48	0.050684243
164	0x3e95b115	0.29236665
165	0xbe8bb9a9	-0.27290085
166	0xbe8e3722	-0.27776438
167	0xbd74d524	-0.05977358
168	0xbe37d91c	-0.17953914
169	0xbee0d5cf	-0.43913123
170	0xbe4d796c	-0.2006585
171	0xbeb6f98a	-0.35737258
172	0x3d666ab7	0.056254115
173	0xbe53c450	-0.20680356
174	0xbd873d31	-0.06603468
175	0x3e8d7aa6	0.27632636
176	0x3ec223eb	0.37918028
177	0x3de70752	0.11280693
178	0xbec72c76	-0.38901109
179	0x3f087884	0.5330889
180	0x3d92287d	0.07136629
181	0xbe4e4279	-0.20142545
182	0xbe1561fc	-0.1458816
183	0x3bb32c03	0.005467893
184	0x3e166029	0.1468512
185	0xbea78cfc	-0.3272475
186	0x3dd1d86f	0.102463596
187	0xbe3bf39e	-0.18354651
188	0x3e6ab460	0.2292037
189	0xbdc96ad4	-0.09834829
190	0x3eb06031	0.34448388
191	0xbe0edbf0	-0.13951087
192	0x3ec6a42c	0.38797128
193	0xbdc6be38	-0.0970425
194	0x3e58c7e1	0.21169998
195	0x3d120bb8	0.035655707
196	0xbe4bcb3b	-0.19901745
197	0xbea1995a	-0.3156231
198	0x3d8cf585	0.06882767
199	0xbdaaed93	-0.08346095

onnx::LSTM_119 f4 [1, 40, 10]
0	0x3e5d8b61	0.216352
1	0xbe079d24	-0.13243538
2	0xbe19c3a6	-0.1501604
3	0x3ececa9d	0.40388957
4	0x3cfc7ec1	0.03082216
5	0xbddcdf66	-0.10784797
6	0x3d627ee8	0.05529681
7	0xbe2375b8	-0.15962875
8	0xbdb4e05b	-0.08831855
9	0xbd93e0ed	-0.072206356
10	0xbd83b5aa	-0.06431134
11	0x3e4fa005	0.20275886
12	0xbe032c44	-0.12809855
13	0x3d9f7837	0.07786601
14	0xbe5279f6	-0.20554337
15	0x3eb50dd6	0.35362118
16	0xbe009632	-0.12557295
17	0x3eb361b7	0.35035488
18	0xbde37a6d	-0.11107335
19	0xbdb423b2	-0.08795871
20	0x3e852fb2	0.2601295
21	0xbe9e1608	-0.30876184
22	0x3e601af8	0.21885288
23	0x3ed55830	0.41668844
24	0xbddc772c	-0.10764918
25	0x3df3d777	0.11906331
26	0x3d175fde	0.03695666
27	0x3ee69e10	0.45042467
28	0x3c4626f1	0.012094245
29	0xbe1505ba	-0.14552966
30	0x3effae6b	0.49937758
31	0xbee33fc8	-0.443846
32	0x3ebd61bc	0.36988628
33	0x3e8f26cc	0.27959287
34	0xbe4ac06c	-0.19799966
35	0x3e34d666	0.17659912
36	0x3f318f15	0.6935895
37	0xbf5e302d	-0.8679226
38	0x3daa7576	0.08323185
39	0xbe4a5bfc	-0.19761652
40	0xbe46ea66	-0.19425353
41	0xbb0e60c4	-0.0021725157
42	0x3d17b2f0	0.037035882
43	0xbda7597e	-0.08171366
44	0x3ec7b251	0.39003232
45	0x3e73930d	0.23786564
46	0xbecc5c62	-0.39914232
47	0xbe65c630	-0.22438884
48	0xbd7ac901	-0.06122685
49	0xbe4f41da	-0.20239964
50	0x3ebad5ff	0.3649139
51	0xbebfabf3	-0.37435874
52	0x3e561f63	0.2091041
53	0xbee8edcc	-0.45493925
54	0x3dac4ea0	0.08413434
55	0x3de0cae0	0.10976195
56	0x3e8a0039	0.26953295
57	0xbf01d52c	-0.507159
58	0x3eaf9b48	0.34298158
59	0xbe2f492c	-0.17117757
60	0xbe9f955b	-0.31168637
61	0xbe9000cb	-0.28125605
62	0xbbae7b4e	-0.0053247577
63	0xbe1a1141	-0.15045644
64	0xbe861b99	-0.2619293
65	0xbe0fee77	-0.14055811
66	0x3e234ba9	0.15946831
67	0xbe0e51aa	-0.1389834
68	0xbe481d46	-0.19542417
69	0xbd6c4da0	-0.057691216
70	0x3ee438a8	0.44574475
71	0xbdcde3c3	-0.10053208
72	0xbbc59c30	-0.006030582
73	0xbf3a82fe	-0.7285613
74	0xbde96e6e	-0.11398016
75	0x3eab5504	0.334633
76	0x3e9b2273	0.3029972
77	0xbe858600	-0.26078796
78	0x3e1a3a42	0.15061286
79	0xbe3c731b	-0.18403284
80	0x3e90776e	0.28216118
81	0xbdbcfb8b	-0.092276655
82	0x3e2e941d	0.17048688
83	0xbe0660a1	-0.13122799
84	0xbe2be724	-0.16787392
85	0x3e202677	0.15639673
86	0xbe74618e	-0.23865339
87	0x3e900042	0.28125197
88	0x3e9efa6a	0.31050426
89	0xbe9a6267	-0.301532
90	0x3e5a357c	0.21309465
91	0x3e7d697b	0.24747269
92	0xbd9abeff	-0.07555961
93	0x3eceece4	0.40415108
94	0xbe3ece33	-0.18633346
95	0xbeb477c6	-0.3524763
96	0xbee42f76	-0.4456746
97	0xbe20b381	-0.15693475
98	0xbca887b6	-0.020572525
99	0x3dd3244a	0.10309656
100	0x3da5dbf4	0.08098593
101	0xbd3d4487	-0.04620793
102	0x3e083f06	0.13305292
103	0x3ee0ddbc	0.4391917
104	0xbc1a6c09	-0.009425172
105	0x3d823e71	0.06359566
106	0xbe43c19c	-0.19116825
107	0x3e58b83e	0.21164033
108	0x3d8e0ad7	0.06935661
109	0x3e8977a3	0.26849088
110	0x3eb1a1f0	0.3469386
111	0x3bb288f1	0.0054484536
112	0x3c9825a7	0.018572642
113	0xbe8c0ed5	-0.27355066
114	0xbd87cc73	-0.066307925
115	0x3e62aaf1	0.22135521
116	0x3d964134	0.07336655
117	0x3ecee519	0.40409163
118	0xbe5be6fd	-0.21474834
119	0xbdf5c54b	-0.12000521
120	0xbdc7f8ae	-0.09764229
121	0xbe735ce5	-0.23765905
122	0xbdbd02e9	-0.09229071
123	0x3e6c2e04	0.23064429
124	0x3c0ff254	0.008785803
125	0x3e9e42dc	0.30910385
126	0x3db060c6	0.08612208
127	0x3daefdec	0.085445255
128	0x3d9aef82	0.07565214
129	0x3e48ceec	0.19610184
130	0x3f0a8541	0.5410958
131	0xbe98ea4f	-0.29866263
132	0xbc52b59d	-0.012860683
133	0xbf01fccf	-0.5077638
134	0xbec5b806	-0.3861696
135	0x3e2613ae	0.16218445
136	0x3f689962	0.90859044
137	0xbf5ad329	-0.85478455
138	0x3ea387e4	0.31939614
139	0x3e731822	0.23739675
140	0xbdf7e6e3	-0.12104585
141	0x3e8b0926	0.27155417
142	0x3e0707fc	0.1318664
143	0xbd7944b7	-0.060856547
144	0x3db7d56e	0.08976255
145	0x3e91dabd	0.28487197
146	0x3e231111	0.15924479
147	0x3ea07252	0.3133722
148	0xbe0bef6a	-0.13665548
149	0x3e9f7a11	0.31147817
150	0x3dd5787c	0.10423371
151	0xbf02604c	-0.5092819
152	0x3e6769b6	0.2259892
153	0xbea9c1c6	-0.3315565
154	0xbeed4ad4	-0.46346152
155	0x3f0dac23	0.55340785
156	0x3d3728dd	0.044716705
157	0xbf44e2b4	-0.7690842
158	0x3c2f4b29	0.010699072
159	0xbea7fa31	-0.32808068
160	0x3e446765	0.19180067
161	0x3e7702c2	0.24122146
162	0xbe2d390a	-0.1691629
163	0xbec97f71	-0.39355043
164	0x3dc94268	0.09827119
165	0x3bfbef73	0.0076884567
166	0x3e976bb1	0.2957435
167	0xbca2e4e7	-0.01988454
168	0xbea35868	-0.31903386
169	0xbe70b4f2	-0.23506525
170	0x3dabe64a	0.083935335
171	0xbeb9f378	-0.36318564
172	0x3e1acd44	0.15117365
173	0xbf30e395	-0.6909726
174	0xbecee84a	-0.40411597
175	0x3e5aef34	0.21380311
176	0x3e6f13b9	0.23347367
177	0x3e5c86da	0.21535817
178	0xbd87f8b7	-0.066392355
179	0x3e44438f	0.19166397
180	0x3d78a25c	0.060701713
181	0xbdd53f64	-0.104124814
182	0x3daaf095	0.08346669
183	0xbe891f0e	-0.26781505
184	0xbe1d315a	-0.15350857
185	0x3d94a96f	0.072588794
186	0xbd72baf0	-0.05926031
187	0x3df6f31b	0.120580874
188	0x3c81a055	0.015823523
189	0xbe2f57e8	-0.17123377
190	0xbe58626c	-0.21131295
191	0x3e995e47	0.2995474
192	0xbe0c2a3c	-0.13687986
193	0x3e1cd9e5	0.15317495
194	0x3d139c70	0.036037862
195	0x3dbc42a9	0.09192402
196	0xbe64774e	-0.22311136
197	0x3e765175	0.24054511
198	0xbdac904d	-0.08425961
199	0x3e6a1d72	0.22862795
200	0xbe5e8674	-0.21730977
201	0x3e4e35e5	0.20137747
202	0xbe1347c6	-0.14382848
203	0x3eb7e8c3	0.3591977
204	0x3d32bcd0	0.043637097
205	0x3c252559	0.010079705
206	0x3c5ae88f	0.01336111
207	0x3e42a0f7	0.19006716
208	0xbe9b0ed2	-0.30284745
209	0xbe234082	-0.15942577
210	0xbe260505	-0.16212852
211	0x3e689802	0.22714236
212	0x3c14a4eb	0.009072523
213	0xbd6210fe	-0.055191986
214	0x3c8ce6c9	0.01719989
215	0x3e813a5a	0.2523983
216	0x3db46b91	0.08809579
217	0x3ea022b9	0.3127649
218	0x3dc4ccc1	0.09609366
219	0xbe888885	-0.26666656
220	0xbdae57e0	-0.085128546
221	0xbd6ecb21	-0.058299188
222	0x3d6e43e3	0.05817021
223	0x3f031707	0.5120701
224	0x3da8a623	0.08234813
225	0x3ea5f41a	0.32412797
226	0x3ce639b0	0.02810368
227	0x3f02f01d	0.51147634
228	0x3e60edb2	0.21965674
229	0xbe87ef79	-0.2654989
230	0xbe50fffd	-0.20410152
231	0x3ed20253	0.41017398
232	0xbdbda2a5	-0.092595376
233	0x3eb237c7	0.3480818
234	0xbd833640	-0.06406832
235	0x39e3fa0e	0.0004348312
236	0x3d6d2c12	0.057903357
237	0x3ec4ed98	0.3846252
238	0x3b75e9dc	0.0037523424
239	0xbd320a74	-0.043467
240	0xbe99d3c7	-0.30044386
241	0xbe321f80	-0.17394829
242	0x3d8723c4	0.065986186
243	0xbd6ec161	-0.05828989
244	0xbbc267f1	-0.005932801
245	0xbe581321	-0.21101047
246	0xbcbe3568	-0.023218825
247	0x3daee6f1	0.08540142
248	0x3ddc7f0a	0.10766418
249	0x3ec67406	0.38760394
250	0x3e7525ba	0.23940173
251	0xbe0f5251	-0.13996245
252	0xbd87658b	-0.06611165
253	0x3ed7fc82	0.42184836
254	0xbd39f295	-0.04539736
255	0x3d1babfa	0.038005807

onnx::LSTM_120 f4 [1, 80]
0	0x3cdbc6c1	0.026828172
1	0x3e6054a5	0.2190729
2	0x3e17ae8a	0.14812675
3	0x3e3f80bc	0.18701452
4	0xbe523dd0	-0.20531392
5	0x3e99d979	0.3004873
6	0x3ce20e11	0.027594598
7	0xbcd3534f	-0.02579656
8	0xbd3d053b	-0.046147566
9	0xbe3ebd6b	-0.18626945
10	0x3d441884	0.047874942
11	0xbe62dc3b	-0.22154324
12	0x3e0df87c	0.1386432
13	0x3f02f18a	0.5114981
14	0xbe5b55d1	-0.21419455
15	0x3e062450	0.1309979
16	0x3eb34856	0.35016125
17	0xbe304e94	-0.17217475
18	0x3d865c59	0.06560583
19	0xbd5967c1	-0.053077463
20	0x3d026bca	0.031841077
21	0x3e6d655b	0.23183195
22	0xbe90cc61	-0.2828093
23	0x3dcdbb64	0.100455076
24	0xbd868bf6	-0.06569664
25	0x3b6a3dd4	0.003574242
26	0xbd2b8f3f	-0.041884657
27	0x3e47a660	0.19497061
28	0x3e4575a2	0.19283155
29	0xbea3e324	-0.32009232
30	0xbb82dc3e	-0.00399354
31	0xbe363b7a	-0.17796126
32	0x3e732e30	0.23748088
33	0x3e4576a6	0.19283542
34	0x3e237cfe	0.1596565
35	0xbcb01d7e	-0.021498438
36	0x3c10f244	0.008846823
37	0xbe9249c2	-0.28571898
38	0x3e695270	0.22785354
39	0xbe39bb00	-0.18137741
40	0x3be03774	0.006842548
41	0x3e9402ff	0.28908536
42	0xbe0fa93a	-0.14029399
43	0x3e8fa527	0.2805569
44	0x3c31f9be	0.010862766
45	0x3eb64d01	0.35605624
46	0x3ee58a50	0.44832087
47	0x3cab8a3c	0.020939939
48	0xbe6b3954	-0.22971088
49	0xbe0f1f70	-0.13976836
50	0x3e880514	0.26566374
51	0xbe13b559	-0.14424647
52	0x3dd228a7	0.1026166
53	0x3e9bef9a	0.3045624
54	0xbd91f0f3	-0.071260355
55	0xbbf7ff98	-0.007568311
56	0xbe3e1ae7	-0.1856495
57	0x3e2771e5	0.16352041
58	0xbe494048	-0.19653428
59	0x3dbfb470	0.093605876
60	0x3b263d15	0.0025365998
61	0xbe403195	-0.18768914
62	0x3ea1b0cf	0.31580207
63	0xbe48373c	-0.1955232
64	0xbe711ca5	-0.23546083
65	0xbeabd901	-0.33563998
66	0xbdf38147	-0.11889892
67	0x3e8954f7	0.26822636
68	0x3e317c60	0.17332602
69	0xbecde522	-0.40213877
70	0x3dacd40a	0.08438881
71	0xbda3e421	-0.080024965
72	0x3e3ded88	0.18547642
73	0x3e195126	0.14972362
74	0xbea378cd	-0.319281
75	0xbe3890cf	-0.1802399
76	0x3ef8c05e	0.48584265
77	0x3e1fb17b	0.15595047
78	0x3e61107e	0.21978948
79	0x3c371c89	0.011176237
