models/BF.B_model.onnx (onnx, 40199 bytes, 5 tensors)

fc.weight f4 [5, 10]
0	0xbe9d6d34	-0.30747378
1	0xbd595ff9	-0.053070042
2	0x3dcc898a	0.09987171
3	0xbe2b0e2c	-0.16704625
4	0xbe87dc71	-0.2653537
5	0xbe4949de	-0.19657084
6	0x3efefe77	0.49803516
7	0x3d521d09	0.05129722
8	0x3e6c270c	0.2306177
9	0xbe2093be	-0.15681359
10	0xbe08a049	-0.13342394
11	0x3ee9335e	0.45547003
12	0x3eaa98af	0.33319613
13	0xbe0ae5c7	-0.13564216
14	0xbd50ae66	-0.05094757
15	0xbed28a36	-0.41121072
16	0x3e80d4a4	0.25162232
17	0xbe5f682f	-0.21817087
18	0x3e5fdee8	0.21862376
19	0xbe8d2c00	-0.27572632
20	0xbea8d4c7	-0.32974836
21	0x3de40c65	0.111351766
22	0xbe2c9bbe	-0.16856286
23	0x3e37e5ce	0.17958757
24	0xbe339e79	-0.17540921
25	0xbf00fb05	-0.50383025
26	0x3ecf2b5a	0.40462762
27	0xbe59f767	-0.21285783
28	0xbd04083c	-0.032234415
29	0xbe07443f	-0.13209628
30	0x3dc3e651	0.09565414
31	0xbe201183	-0.1563168
32	0x3dcfafad	0.10140929
33	0x3db91445	0.09037069
34	0xbd3d889a	-0.04627285
35	0xbed8773c	-0.4227847
36	0xbd213671	-0.03935856
37	0x3d3f1a18	0.046655744
38	0xbed7b3ba	-0.42129308
39	0x3c17595c	0.0092376135
40	0xbe6d9356	-0.23200735
41	0xbe7799a0	-0.24179697
42	0x3e84a1cd	0.25904694
43	0xbda6e7d6	-0.08149688
44	0xbea7183b	-0.32635674
45	0xbee77d62	-0.45212847
46	0x3f11237c	0.5669477
47	0x3e060566	0.13087997
48	0xbd273826	-0.04082503
49	0x3cc74edf	0.0243296

fc.bias f4 [5]
0	0x3de7fd8f	0.11327659
1	0x3ceeb37c	0.02913832
2	0x3d56a257	0.052400913
3	0x3de2ce04	0.110744506
4	0x3e81e506	0.25370044

onnx::LSTM_118 f4 [1, 40, 5]
0	0xbe106a52	-0.14103058
1	0x3db566c9	0.08857495
2	0x3ed14ffb	0.40881333
3	0x3e00cae2	0.12577394
4	0x3eef525a	0.46742517
5	0xbe223b48	-0.15842927
6	0x3e5e4da4	0.21709305
7	0xbbf442fd	-0.0074542747
8	0x3def15cd	0.1167408
9	0xbdc0611a	-0.09393521
10	0x3e399159	0.18121852
11	0xbeb0af1b	-0.34508595
12	0x3da4f965	0.08055381
13	0xbe2cc8cb	-0.16873471
14	0xbe4e5e20	-0.20153093
15	0xbe97ab38	-0.29622817
16	0xbe7600de	-0.24023768
17	0xbe4321e9	-0.19055904
18	0xbe1bd284	-0.15217024
19	0x3c612299	0.013741159
20	0x3e58dbfc	0.21177667
21	0xbc9ebbe9	-0.019376712
22	0xbdb6a035	-0.08917276
23	0x3e228db3	0.15874366
24	0xbddc0a56	-0.10744159
25	0xbcec6f11	-0.028861554
26	0x3e82d247	0.25551054
27	0x3e50e090	0.20398164
28	0x3ea0a78b	0.31377825
29	0x3e9b58c8	0.30341172
30	0x3e8be324	0.27321732
31	0x3e377381	0.17915155
32	0x3db62904	0.08894542
33	0xbe5750ae	-0.2102687
34	0x3e2b7e75	0.16747458
35	0x3e37fc51	0.17967345
36	0xbd9361dd	-0.071964
37	0xbe4e4337	-0.20142828
38	0xbf061edd	-0.52390844
39	0x3ddc495b	0.10756179
40	0x3ea9c787	0.3316004
41	0x3eb270f3	0.34851798
42	0x3e4ef796	0.20211634
43	0xbf2f31c5	-0.6843532
44	0x3dd1828c	0.10229978
45	0x3ba2646b	0.0049558184
46	0x3ee90c4e	0.455172
47	0x3e2bea01	0.16788484
48	0x3ed2ee52	0.4119745
49	0x3e59f138	0.21283424
50	0x3e8424f2	0.25809437
51	0x3e63e00c	0.22253436
52	0x3e0ef59a	0.13960877
53	0xbf035ea4	-0.51316285
54	0x3e5ef9d6	0.21774992
55	0x3e526657	0.20546852
56	0xbdd6a6a7	-0.10481005
57	0x3e786138	0.24255836
58	0xbe139f6a	-0.1441628
59	0x3ce0f4de	0.027460512
60	0x3e8825de	0.2659139
61	0xbdd9a4af	-0.10627114
62	0xbe9fb703	-0.31194314
63	0x3e9a124f	0.30092093
64	0xbd12d5a6	-0.035848282
65	0xbf0529a5	-0.5201667
66	0xbe494799	-0.19656219
67	0xbea77972	-0.32709843
68	0x3d145eb5	0.036223132
69	0xbdd1629d	-0.10223887
70	0x3daf2adf	0.08553099
71	0x3e5e3a4a	0.21701923
72	0x3e3f3caf	0.18675493
73	0x3cba5ebe	0.022750255
74	0x3eb9aa60	0.36262798
75	0x3e8903c7	0.26760694
76	0x3efef0fb	0.49793229
77	0x3dabb610	0.08384335
78	0x3ebbd31c	0.366845
79	0x3e272172	0.16321352
80	0x3d81f179	0.063448854
81	0x3ef19d60	0.4719038
82	0x3ed18aaf	0.4092612
83	0xbc830312	-0.015992675
84	0x3f0044f0	0.5010519
85	0xbe29459c	-0.1653046
86	0xbd05e293	-0.03268678
87	0xbe63642a	-0.22206178
88	0xbed03748	-0.40667176
89	0xbe0a162e	-0.13485023
90	0x3e05ed0a	0.13078704
91	0xbd007b53	-0.03136761
92	0x3ddaab92	0.10677256
93	0xbed5e08d	-0.4177288
94	0x3e94803d	0.29004088
95	0x3d04d864	0.03243293
96	0x3ed61da7	0.41819498
97	0x3e6a985b	0.22909681
98	0x3e6c61e5	0.23084219
99	0x3cfddd1e	0.030989226
100	0x3db37325	0.087621965
101	0x3e0f2810	0.13980126
102	0x3e74bda6	0.2390047
103	0xbdca7a5b	-0.09886619
104	0x3eea2102	0.45728308
105	0xbdffccc6	-0.12490229
106	0x3e3c2269	0.18372501
107	0x3ea3d545	0.3199865
108	0x3e0e6d64	0.13908917
109	0x3dae12fc	0.08499715
110	0xbe77a8eb	-0.24185531
111	0x3e375a9f	0.17905663
112	0xbcdbfa7f	-0.026852844
113	0x3d3d22f8	0.046175927
114	0xbde35c62	-0.11101605
115	0xbdc35f08	-0.0953961
116	0xbe290741	-0.16506673
117	0xbf029cf3	-0.51020736
118	0xbdb01307	-0.08597379
119	0xbe8765e6	-0.2644493
120	0x3ef11b3c	0.4709109
121	0xbde7e5ce	-0.11323129
122	0x3f028503	0.5098421
123	0x3e75e95d	0.24014802
124	0x3d41dd1f	0.047330018
125	0xbccf0d7a	-0.02527498
126	0xbda470be	-0.08029316
127	0x3e6996c8	0.22811425
128	0x3e9515ba	0.2911814
129	0x3c4dda92	0.012564318
130	0x3d83838d	0.06421576
131	0xbdb8f330	-0.09030759
132	0x3e196b02	0.14982226
133	0xbe11902d	-0.14215155
134	0x3c43e227	0.011955774
135	0x3e64c265	0.2233978
136	0x3e41315b	0.18866484
137	0xbe3ebf85	-0.18627746
138	0xbe61cd9a	-0.22051087
139	0x3e045856	0.12924322
140	0x3e6553e7	0.22395287
141	0x3e0b8c93	0.13627844
142	0xbd201ce9	-0.03909007
143	0xbe9a3d9f	-0.30125138
144	0x3e8bcf10	0.27306414
145	0xbe1a2cb2	-0.15056112
146	0x3dff9559	0.12479658
147	0x3edd3d1b	0.43210682
148	0x3e5caa78	0.21549404
149	0x3ea765d5	0.3269488
150	0xbeeab1e4	-0.45838845
151	0x3dc2e5bf	0.09516477
152	0x3e084b00	0.1330986
153	0xbe40b8e3	-0.18820529
154	0x3d3f7b14	0.046748236
155	0x3eb5e0bf	0.3552303
156	0x3e332c15	0.17497285
157	0x3e318d92	0.17339161
158	0xbe772840	-0.24136448
159	0xbe03a6b7	-0.12856565
160	0x3e5512fe	0.20808026
161	0x3e5926cf	0.2120621
162	0x3e40ef21	0.1884122
163	0x3eba45e1	0.36381438
164	0xbdb5d68a	-0.08878811
165	0x3ea28176	0.31739396
166	0xbdb3e23c	-0.08783385
167	0x3ea5f7bc	0.3241557
168	0xbd4bde77	-0.049772706
169	0xbc5a9439	-0.013341003
170	0x3df4a827	0.11946135
171	0xbe2e6761	-0.17031623
172	0xbeb1a69c	-0.34697425
173	0xbe8de5a1	-0.27714255
174	0xbe358755	-0.17727406
175	0xbee0b65c	-0.4388913
176	0xbdf3cdb5	-0.1190447
177	0xbe3f2aa4	-0.1866861
178	0xbe8b97ca	-0.27264243
179	0xbead43b2	-0.3384071
180	0x3ea09a36	0.31367654
181	0x3da324d4	0.07966009
182	0x3ec2d83c	0.380556
183	0xbc963d76	-0.018339854
184	0x3eea4058	0.45752215
185	0xbe4f7256	-0.2025846
186	0xbd2c4a49	-0.04206303
187	0xbec70080	-0.3886757
188	0xbc8479e7	-0.016171409
189	0x3c93dbb1	0.018049093
190	0x3b0b488a	0.0021252953
191	0x3e23d4fd	0.15999217
192	0xbdee573f	-0.116377346
193	0xbf2e8187	-0.68166393
194	0x3ed7ea5f	0.42170998
195	0xbde07edd	-0.10961697
196	0xbe4193e1	-0.18904068
197	0xbd0445a7	-0.03229299
198	0xbe68ed18	-0.22746694
199	0xbe998a37	-0.29988262

onnx::LSTM_119 f4 [1, 40, 10]
0	0xbde6d6cf	-0.1127144
1	0xbd0b352e	-0.033986263
2	0xbdae67e7	-0.085159115
3	0x3e81bea2	0.25340754
4	0xbe52b364	-0.20576245
5	0xbd7a2cbd	-0.061077822
6	0xbd474ac7	-0.048655298
7	0x3e8cec52	0.27524048
8	0xbd94541a	-0.072426036
9	0x3e1cb4e8	0.15303385
10	0xbe8a83ea	-0.27053767
11	0xbcacecc3	-0.02110899
12	0xbe836964	-0.25666344
13	0x3eabee4a	0.33580238
14	0xbeae5942	-0.34052473
15	0x3d24c40b	0.040226024
16	0x3e881089	0.26575115
17	0x3e800b55	0.25008646
18	0xbe7b25b7	-0.24526106
19	0xbddb997c	-0.10722634
20	0x3e393d93	0.18089895
21	0xbe4435ef	-0.19161199
22	0xbe5eb8bd	-0.2175016
23	0xbd056e54	-0.03257592
24	0x3e260c2d	0.16215582
25	0x3e851ed7	0.2600009
26	0xbe5f620f	-0.2181475
27	0xbd633034	-0.055465892
28	0xbdbca9c5	-0.092120685
29	0x3df63872	0.12022485
30	0x3f11491a	0.5675217
31	0xbea42608	-0.32060266
32	0xbec1ce26	-0.3785259
33	0xbe714542	-0.23561576
34	0x3e9a2f81	0.30114368
35	0x3ecaef45	0.39635673
36	0xbdd6b9c4	-0.10484651
37	0x3ec78b29	0.38973358
38	0xbefac1e9	-0.48976067
39	0x3e7d535d	0.24738832
40	0x3b96dbe1	0.0046038483
41	0x3ebbea3f	0.36702153
42	0xbd9ae414	-0.07563034
43	0x3e59824a	0.21241108
44	0xbe8b433b	-0.2719973
45	0x3dbba524	0.091623574
46	0x3e0e00ad	0.13867445
47	0x3e2e77a2	0.17037824
48	0x3cd0d004	0.025489815
49	0xbe5256fc	-0.20540994
50	0xbea21bda	-0.31661874
51	0x3eb44335	0.35207525
52	0xbe95d9b0	-0.29267645
53	0x3ee6fad8	0.45113254
54	0xbed2164e	-0.41032642
55	0xbe8df0b6	-0.2772271
56	0x3b770dce	0.0037697437
57	0xbcf82bbc	-0.030294292
58	0xbd56af3e	-0.052413218
59	0xbe227347	-0.15864287
60	0xbeba4be8	-0.36386037
61	0x3e3feb77	0.18742166
62	0x3e737af7	0.23777376
63	0x3f176dd3	0.59151953
64	0xbee1ca6b	-0.44099745
65	0x3d3abf72	0.045592733
66	0xbea0df8f	-0.31420562
67	0x3dadd4d9	0.08487863
68	0x3eb45a09	0.3522494
69	0x3e3831ff	0.17987822
70	0x3eb8471c	0.35991752
71	0xbdc05a26	-0.093921944
72	0xbdf172be	-0.117894635
73	0xbe456702	-0.19277576
74	0x3ebe06d5	0.37114587
75	0x3d44872b	0.04798047
76	0xbbfb29aa	-0.007664879
77	0x3e75e7ef	0.24014257
78	0xbe5fe869	-0.21866001
79	0x3ec4d283	0.38441858
80	0xbe8e26f6	-0.277641
81	0xbe043785	-0.12911804
82	0x3e2028af	0.1564052
83	0x3cd38842	0.025821809
84	0xbd08ef86	-0.033431552
85	0xbe74e91b	-0.23917048
86	0xbe196e9e	-0.14983603
87	0x3e328e20	0.17437029
88	0x3c8ffd72	0.017576907
89	0x3e62b04c	0.22137564
90	0x3e84af2c	0.25914896
91	0x3df2b033	0.118500136
92	0xbe8827ff	-0.26593015
93	0xbe8e545a	-0.2779873
94	0xbe43ab97	-0.19108425
95	0x3e407acb	0.18796842
96	0x3d53694e	0.0516141
97	0x3e0399c9	0.12851633
98	0xbe55f8b7	-0.20895658
99	0xbc327f12	-0.010894554
100	0x3df21895	0.11821095
101	0x3eb6d247	0.35707304
102	0xbd6defbd	-0.05808996
103	0xbda24a90	-0.07924378
104	0x3bbbd44d	0.0057320953
105	0xbe911881	-0.28339007
106	0x3d7c0f0d	0.06153779
107	0xbe148eaf	-0.14507554
108	0x3cc20652	0.023684654
109	0x3c72752c	0.014798444
110	0x3df66c17	0.12032335
111	0x3e5b513c	0.21417707
112	0xbe8e1ddb	-0.27757153
113	0xbe652f4a	-0.2238132
114	0x3c9acab6	0.018895488
115	0xbc3ed5d6	-0.011647662
116	0x3e61bd14	0.22044784
117	0x3d05247b	0.032505494
118	0xbd5d49ed	-0.05402558
119	0x3df402eb	0.11914619
120	0xbd109663	-0.03529967
121	0xbe176741	-0.14785482
122	0xbeaecd23	-0.34140882
123	0xbc04da58	-0.008108698
124	0xbdb8725b	-0.090061866
125	0x3e2f1232	0.17096785
126	0xbe81df23	-0.25365552
127	0xbd8b9389	-0.068152495
128	0xbe87f560	-0.26554394
129	0xbe31cd6b	-0.17363517
130	0x3f21ddfe	0.6322936
131	0xbf14536f	-0.5793981
132	0xbea7644f	-0.32693717
133	0xbe29e9f7	-0.16593157
134	0x3efb16c1	0.49040797
135	0x3e8bbb29	0.2729123
136	0xbe548a0c	-0.20755786
137	0x3d563bae	0.05230301
138	0xbd01cb02	-0.031687744
139	0x3db9c77f	0.09071254
140	0xbe000af0	-0.12504172
141	0xbe00460f	-0.12526725
142	0x3d6ab711	0.057303492
143	0xbe1b6fe7	-0.15179406
144	0x3e14bd9e	0.14525458
145	0xbd560892	-0.052254267
146	0x3de7dc69	0.11321337
147	0xbe6a48b0	-0.2287929
148	0x3e097e9e	0.13427207
149	0x3e351198	0.17682493
150	0x3d9c68fb	0.07637211
151	0xbd969d64	-0.07354239
152	0x3dcd56f3	0.1002635
153	0x3dd63563	0.104594015
154	0xbebe2e4e	-0.37144703
155	0xbeaf2ee3	-0.3421546
156	0x3e0e6d65	0.13908918
157	0x3e5d2964	0.2159782
158	0xbd800a4c	-0.06251964
159	0xbcfa3189	-0.030541198
160	0x3e0b31a1	0.1359315
161	0x3ec0cc5a	0.37655908
162	0xbe0f6422	-0.14003041
163	0x3e3f073c	0.18655103
164	0x3e26671b	0.16250269
165	0xbe1ef896	-0.15524516
166	0x3e1cf474	0.15327626
167	0xbcd18a71	-0.02557871
168	0xbe351fb6	-0.17687878
169	0xbe98a4e2	-0.29813296
170	0x3e353fb1	0.17700078
171	0x3e2f2563	0.17104106
172	0xbdd00368	-0.101569
173	0xbceafb17	-0.028684182
174	0x3c615213	0.013752478
175	0x3c918aae	0.017766323
176	0xbe3ed701	-0.18636705
177	0x3e0b0194	0.13574821
178	0xbeae58e5	-0.34052196
179	0x3e79b390	0.24384904
180	0x3d1ca4de	0.038243167
181	0x3df0aa8b	0.117512785
182	0xbe1705f4	-0.14748365
183	0x3e830801	0.25592044
184	0xbe17fe7c	-0.14843172
185	0xbec257cf	-0.37957618
186	0x3e9425e6	0.28935164
187	0x3e61f93e	0.22067735
188	0x3e077b25	0.1323057
189	0x3d78222a	0.060579456
190	0xbe90de6d	-0.28294697
191	0x3e9fc8d7	0.31207916
192	0xbca18db8	-0.019720897
193	0x3d832376	0.06403248
194	0x3e721a6b	0.2364289
195	0x3cb2f04b	0.021843096
196	0x3e31eed9	0.1737627
197	0x3e0fe3de	0.14051768
198	0x3df674d5	0.12034003
199	0x3e49b376	0.19697365
200	0xbe449e9f	-0.19201134
201	0x3dbb35c1	0.09141112
202	0xbe95880d	-0.2920536
203	0x3e48f4c3	0.19624619
204	0x3db31c26	0.08745603
205	0xbe7bdbbd	-0.24595542
206	0x3e8852e4	0.2662574
207	0xbe101ac6	-0.14072713
208	0x3e609428	0.21931517
209	0x3d3cb5d9	0.04607186
210	0x3df026a3	0.11726119
211	0xbdc92cc8	-0.098229945
212	0xbdcac9e8	-0.09901792
213	0xbe58111c	-0.21100277
214	0x3d270b6b	0.040782373
215	0x3e9eb25c	0.30995452
216	0xbea34047	-0.31884977
217	0xbdc87edc	-0.097898215
218	0x3dd49d45	0.10381559
219	0xbdb67280	-0.08908558
220	0xbd6fc883	-0.058540832
221	0x3e11d399	0.14240874
222	0xbe9733aa	-0.29531604
223	0x3e31a193	0.17346792
224	0xbe668c58	-0.22514474
225	0x3eb74040	0.35791206
226	0xbe523b6c	-0.2053048
227	0xbd99938f	-0.07498848
228	0x3df22ab3	0.118245505
229	0xbdc1dbab	-0.094657265
230	0x3e875c81	0.26437762
231	0xbf06cf49	-0.5266004
232	0x3db6dada	0.089284614
233	0x3e8b78f9	0.27240732
234	0x3e00948b	0.12556665
235	0x3e199887	0.14999591
236	0x3db09863	0.086228155
237	0x3d0d74d2	0.034535237
238	0xbf107a63	-0.5643675
239	0x3e7f68ca	0.24942318
240	0xbd8166c5	-0.0631843
241	0x3cf42d38	0.029806718
242	0x3ea2c60f	0.31791732
243	0xbd78ee06	-0.06077387
244	0xbe240018	-0.16015661
245	0xbe7f7e57	-0.24950539
246	0x3e822bff	0.2542419
247	0x3df59641	0.11991549
248	0xbe689786	-0.22714052
249	0xbdb74c4d	-0.089501
250	0xbdab9902	-0.08378793
251	0xbd1acf37	-0.03779527
252	0xbea455d2	-0.32096726
253	0x3c68eb06	0.01421619
254	0xbe5de4b3	-0.21669273
255	0x3e10c114	0.14136153

onnx::LSTM_120 f4 [1, 80]
0	0x3e4c64bf	0.19960307
1	0xbc3f652c	-0.011681836
2	0x3e310a05	0.17288978
3	0xbcb98928	-0.022648409
4	0xbd958063	-0.072998784
5	0xbe0240a1	-0.12719966
6	0x3edda2fc	0.4328841
7	0x3e11abed	0.1422574
8	0xbe5756df	-0.21029232
9	0x3e177087	0.1478902
10	0xbe2a0861	-0.16604759
11	0xbe52692d	-0.20547934
12	0xbd6ad8a5	-0.057335515
13	0xbedd5ff7	-0.43237278
14	0xbe81ce03	-0.25352487
15	0x3defef60	0.11715579
16	0x3de38847	0.11109977
17	0xbe9c1d72	-0.30491215
18	0xbe84cf1b	-0.2593926
19	0x3dbb6c2d	0.09151492
20	0xbe86b924	-0.26313126
21	0xbe55d573	-0.20882206
22	0xbe43b96b	-0.191137
23	0x3d368aa4	0.04456581
24	0x3e581548	0.21101868
25	0xbdd7fb6e	-0.10546003
26	0x3ea39bd1	0.31954816
27	0x3d45ae50	0.04826194
28	0x3d969ff2	0.07354726
29	0x3e8d02ee	0.27541298
30	0xbec22505	-0.3791887
31	0x3de16747	0.11006027
32	0x3e042871	0.12906052
33	0x3c203766	0.009778833
34	0xbe895705	-0.26824203
35	0x3d8aea96	0.06783025
36	0xbe44f415	-0.19233735
37	0x3df125d4	0.11774793
38	0x3de1477d	0.109999634
39	0xbe5fde0c	-0.21862048
40	0xbd394bd4	-0.04523833
41	0xbd9af49f	-0.07566189
42	0xbea1d313	-0.3160635
43	0xbf021c28	-0.50824213
44	0x3e2c72c9	0.16840662
45	0x3d365bc0	0.044521093
46	0x3dd2975d	0.102827765
47	0xbcae1d87	-0.021254314
48	0x3e697bf9	0.22801198
49	0xbd751e66	-0.059843443
50	0x3e6e23ad	0.23255797
51	0x3e144391	0.144789
52	0x3d80ec60	0.06295085
53	0xbedd7ed5	-0.43260828
54	0xbe4eaa71	-0.20182206
55	0xbd282e1e	-0.041059606
56	0x3e75cf11	0.24004771
57	0x3ccbc4b3	0.024874067
58	0x3e7ecbad	0.24882384
59	0xbde810a6	-0.113313004
60	0xbe85c4e4	-0.26126778
61	0xbe1843f3	-0.1486967
62	0xbe9d2aea	-0.30696803
63	0xbd8cc01c	-0.068725795
64	0xbe12896d	-0.14310236
65	0x3e61f7d2	0.22067192
66	0xbcede227	-0.029038502
67	0x3d17e17d	0.037080277
68	0x3e40176a	0.18758932
69	0xbd46c4b4	-0.048527434
70	0xbe1652bb	-0.14679997
71	0x3ed19e93	0.40941295
72	0xbe71b7ed	-0.23605318
73	0x3ba9a37d	0.00517696
74	0xbe6714cc	-0.22566527
75	0x3de06bbd	0.109580494
76	0xbe2f68f1	-0.17129876
77	0xbe39d46d	-0.1814744
78	0xbe3359d4	-0.17514735
79	0xbd981eef	-0.07427775
