models/BLK_model.onnx (onnx, 40199 bytes, 5 tensors)

fc.weight f4 [5, 10]
-0.048046958 -0.09115795 0.24603145 0.27623522 -0.030808317 0.45153496 -0.07904542 -0.32859388
0.10607486 -0.4218949 -0.03604212 0.40825635 0.23886493 0.48592722 0.119089834 0.4812874
-0.3156931 -0.19327341 -0.14279741 0.15046512 0.13310394 0.1728054 0.2639527 0.40168455
0.25990632 0.4659212 0.069671325 -0.17867866 0.43089357 0.08667633 -0.38058147 0.052514132
-0.20147803 0.13151965 -0.103943326 0.22356689 0.39149153 0.30107906 -0.30193278 0.09693008
-0.09790876 0.18520087 0.53714615 0.3189333 0.019404763 0.59703887 -0.20898269 0.2157155
-0.03983254 0.0046698162
00000000: e3cc 44bd 05b1 babd abef 7b3e b46e 8d3e
00000010: b961 fcbc 972f e73e 91e2 a1bd 753d a8be
00000020: c73d d93d 9c02 d8be e7a0 13bd fa06 d13e
00000030: 0299 743e 74cb f83e 5fe5 f33d 4d6b f63e
00000040: 87a2 a1be 77e9 45be 7c39 12be 8713 1a3e
00000050: 664c 083e e6f3 303e cf24 873e 99a9 cd3e
00000060: 7112 853e 398d ee3e d7af 8e3d 8af7 36be
00000070: 159e dc3e 5c83 b13d 93db c2be 0f19 573d
00000080: 4250 4ebe 16ad 063e 3de0 d4bd b8ee 643e
00000090: 9471 c83e 0927 9a3e ef96 9abe 4783 c63d
000000a0: 6384 c8bd 4ca5 3d3e 6982 093f 3a4b a33e
000000b0: bdf6 9e3c 8ad7 183f 8fff 55be 86e4 5c3e
000000c0: 7227 23bd 4205 993b

fc.bias f4 [5]
-0.084697306 0.2657418 0.07176043 0.18066807 0.20701168
00000000: c875 adbd 4f0f 883e 22f7 923d 0d01 393e
00000010: dffa 533e

onnx::LSTM_118 f4 [1, 40, 5]
-0.08173326 -0.35170567 0.19149914 0.10121789 -0.4148517 -0.087454185 -0.2077203 -0.18291093
-0.24528457 -0.5502501 0.1282488 0.33428314 0.27892178 0.06960909 0.00546308 0.35987467
0.3761287 0.36187488 0.119436644 0.44249547 -0.07700202 0.023991935 0.3503187 -0.1573275
0.34522167 0.16884252 0.44803062 0.13370891 0.3785194 0.31647533 0.12754026 -0.149148
-0.27401224 0.33988693 -0.30696657 0.40432122 0.101010345 0.078623556 -0.22437353 0.0006665371
0.38767812 -0.07297433 0.34281 -0.09735141 0.024071276 0.4034192 -0.09576493 0.22663152
0.4327038 0.08008297 -0.38406897 0.06614451 -0.04992957 0.2645487 -0.087601654 0.0071545816
-0.54037136 -0.14071488 0.0031086055 -0.57087916 0.060747456 0.58631384 0.6368351 0.11089408
0.44823423 0.047743663 0.50125414 0.3964586 0.309168 0.38905805 -0.06680039 -0.19352372
0.2752724 0.034912735 -0.046943124 0.070605546 0.57586825 0.25743517 -0.30627024 0.6279362
-0.13193786 -0.12247674 -0.21752869 0.64657754 -0.3646656 0.037910085 -0.04360285 0.22367188
-0.55079716 0.2209312 -0.13481009 0.22802362 0.24268791 -0.50133777 -0.05109378 -0.15846299
0.3093842 0.19614442 -0.049771093 0.036365997 0.07986279 0.12837893 0.17836402 -0.2380874
-0.057757866 -0.496244 0.08062323 -0.35358733 0.046430808 -0.26092964 -0.14346595 0.11228856
0.2724027 -0.3791411 0.41896403 0.35549805 0.30738032 0.18905787 0.15821084 -0.1256547
0.21837199 -0.24478024 -0.20486864 -0.35892645 0.04184293 0.047852635 0.2945031 -0.07940304
0.3885886 0.42605317 0.0868757 0.11023876 -0.08984699 0.022228451 -0.305456 -0.024828723
-0.07909398 0.34841645 -0.469137 0.38593316 0.21786675 0.32628575 0.065468214 -0.5247493
-0.0033197768 -0.18834864 0.39438903 -0.0069321906 0.013336447 0.33952454 0.0919885 -0.1665838
-0.100919865 -0.8543152 -0.081489064 0.08062653 -0.06838055 -0.18982662 -0.46116072 0.012247968
-0.11843003 0.43081582 0.3780546 -0.3791516 0.7231789 0.37181574 0.34917232 -0.116687655
0.29583016 0.312925 0.14866185 -0.032375466 0.31192473 -0.15393807 0.20588398 -0.017562544
0.45787278 0.3012026 0.31576306 0.25759438 -0.2046583 -0.114088014 0.0104802 0.414163
0.15305728 0.05805245 0.072009996 -0.44063646 0.27221182 -0.20025074 0.11123416 0.244509
0.32471734 -0.16026385 0.19333662 -0.24816634 -0.1846175 -0.24965423 -0.1573617 -0.43744
00000000: c463 a7bd c412 b4be 5a18 443e 534b cf3d
00000010: 7167 d4be 2e1b b3bd a1b4 54be 014d 3bbe
00000020: e12b 7bbe 31dd 0cbf a753 033e 2927 ab3e
00000030: d6ce 8e3e 368f 8e3d a303 b33b 7e41 b83e
00000040: f193 c03e aa47 b93e 339b f43d c48e e23e
00000050: 3cb3 9dbd bc8a c43c f95c b33e 761a 21be
00000060: e5c0 b03e 0ee5 2c3e 4564 e53e fdea 083e
00000070: 4bcd c13e 0e09 a23e ea99 023e 41ba 18be
00000080: 554b 8cbe a905 ae3e b92a 9dbe 3103 cf3e
00000090: 83de ce3d 6305 a13d 2dc2 65be 8cba 2e3a
000000a0: bf7d c63e 9173 95bd cb84 af3e 2d60 c7bd
000000b0: 2031 c53c f68c ce3e 6720 c4bd 1812 683e
000000c0: 5a8b dd3e 8a02 a43d b0a4 c4be c676 873d
000000d0: f382 4cbd ed72 873e 7f68 b3bd fb70 ea3b
000000e0: c755 0abf 9017 10be bfb9 4b3b 2325 12bf
000000f0: 53d2 783d aa18 163f a007 233f 6f1c e33d
00000100: f57e e53e dc8e 433d 3152 003f 9ffc ca3e
00000110: 454b 9e3e 9e32 c73e a5ce 88bd 152b 46be
00000120: 81f0 8c3e a800 0f3d 6f47 40bd a499 903d
00000130: 1a6c 133f 8bce 833e 74cf 9cbe 6dc0 203f
00000140: b81a 07be 16d5 fabd d7bf 5ebe 1b86 253f
00000150: 73b5 babe 9b47 1b3d e798 32bd 3e0a 653e
00000160: 0b01 0dbf ca3b 623e a80b 0abe 067f 693e
00000170: 2e83 783e ac57 00bf b647 51bd 1f44 22be
00000180: 9b67 9e3e 15da 483e c6dc 4bbd 83f4 143d
00000190: 1a8f a33d c475 033e 0fa5 363e 2fcd 73be
000001a0: 8393 6cbd b213 febe cb1d a53d 6609 b5be
000001b0: 3b2e 3e3d 9298 85be bde8 12be 8bf7 e53d
000001c0: 5e78 8b3e c81e c2be 7482 d63e d703 b63e
000001d0: f460 9d3e 6398 413e 0602 223e a0ab 00be
000001e0: e89c 5f3e aca7 7abe 16c9 51be 35c5 b7be
000001f0: 7e63 2b3d 2001 443d 1cc9 963e 109e a2bd
00000200: 16f5 c63e a423 da3e e3eb b13d dcc4 e13d
00000210: b301 b8bd 7118 b63c bb64 9cbe 9b65 cbbc
00000220: 06fc a1bd a463 b23e ba32 f0be 0899 c53e
00000230: 7618 5f3e ed0e a73e 3314 863d f855 06bf
00000240: 9d90 59bb 77de 40be 5ced c93e 6e27 e3bb
00000250: 1d81 5a3c 29d6 ad3e 7764 bc3d f294 2abe
00000260: 13af cebd 67b4 5abf bde3 a6bd 861f a53d
00000270: 1a0b 8cbd e961 42be 421d ecbe b4ab 483c
00000280: 728b f2bd e493 dc3e 5f90 c13e 2920 c2be
00000290: 4122 393f a25e be3e b7c6 b23e f0f9 eebd
000002a0: 0d77 973e b537 a03e d03a 183e 239c 04bd
000002b0: 99b4 9f3e f1a1 1dbe 40d3 523e 53df 8fbc
000002c0: 4d6e ea3e 3a37 9a3e b2ab a13e 69e3 833e
000002d0: f291 51be faa6 e9bd 25b5 2b3c 2c0d d43e
000002e0: 0cbb 1c3e 68c8 6d3d fa79 933d 1a9b e1be
000002f0: 595f 8b3e 880e 4dbe bcce e33d 9160 7a3e
00000300: 5a41 a63e 351c 24be 09fa 453e 511f 7ebe
00000310: 5f0c 3dbe 5ca5 7fbe 6d23 21be 23f8 dfbe

onnx::LSTM_119 f4 [1, 40, 10]
0.10921955 -0.24413152 -0.37077722 0.053318523 -0.16084987 -0.11392319 0.4183407 -0.12840565
-0.38837233 -0.08263911 0.002919367 -0.14691341 -0.38530147 -0.40122586 -0.3747703 -0.319869
-0.07998739 0.21868072 -0.29405516 0.25073633 -0.19086671 -0.26395577 0.38696477 -0.025239572
-0.0017739206 0.4973307 0.26635066 0.023923075 0.33723012 -0.38362017 0.06019819 0.14437018
0.15481149 -0.07170009 0.018206201 -0.1488622 -0.071603425 -0.04684611 0.28909737 0.27856204
-0.120226376 -0.3291463 -0.29498038 -0.21401231 0.1918944 0.12678342 -0.44220793 0.110881
0.15332437 -0.13832626 -0.093055986 0.031387456 -0.14128943 -0.017968351 -0.075383835 0.0061964723
-0.050698984 0.123700924 -0.25270045 -0.20129108 0.28494558 -0.15041202 -0.1537814 0.21836816
-0.37361562 0.059844237 0.41858685 -0.20307794 0.105819754 0.124145694 -0.07770502 0.12529841
0.25103492 -0.20635685 0.2603666 0.07833658 0.13184668 0.22526266 -0.01884095 0.014126604
-0.19355756 0.28907257 0.19734944 -0.44262215 0.1217464 0.079631515 -0.34599373 0.3370829
-0.13248836 0.24910828 0.0148050515 0.29795405 0.3600561 0.26828846 0.20802508 0.18268055
-0.20944446 -0.21934675 0.0039808047 -0.38513234 -0.069511056 0.1924523 -0.03278252 0.017178329
-0.0033779524 0.004665502 -0.03187404 -0.0037808106 -0.3956214 -0.17597872 -0.13603218 -0.09642444
-0.026695503 0.0111011015 -0.17296661 0.008552817 0.3031392 0.14011765 -0.5476635 0.5678331
-0.35829586 -0.20410167 0.013476458 -0.07881202 0.17819794 0.0003331887 -0.1297213 -0.37827566
0.3251303 0.17284891 -0.22501816 0.20806874 -0.08612867 -0.06794436 -0.19392876 -0.11517851
-0.062243372 0.0031906362 -0.13528417 0.04096715 0.2634191 -0.3399773 -0.07662203 0.08276276
0.058891874 0.10498746 -0.45184252 0.46900725 0.028174762 0.34716648 -0.2907153 -0.2089398
0.2764561 0.09036007 -0.287745 0.35604495 -0.022763189 -0.12358744 0.049092487 -0.12177883
-0.12373721 -0.3178152 9.48137e-05 0.28705612 0.1651248 0.21260507 -0.07769478 0.19072069
-0.2968949 0.29272845 0.07459753 0.19654076 0.17061004 -0.13457204 -0.150885 0.031963125
-0.29123428 -0.08077946 0.12115137 0.10276854 -0.17952701 -0.20472394 -0.15242775 0.07295184
-0.28803134 -0.11822139 -0.29885584 0.123414315 0.11349364 0.065471075 -0.026804732 0.30388558
-0.103997536 0.37941158 0.30645 0.05194075 -0.42721057 -0.23854324 0.17650071 -0.03731827
-0.19548607 -0.090124674 -0.39231735 -0.327754 -0.06885048 -0.23836207 -0.027083216 -0.29708174
-0.12368042 0.18453148 0.20742795 -0.34896588 -0.19914594 -0.07738546 -0.13422784 -0.0029544986
-0.20185009 -0.052830443 0.042565282 -0.029137509 -0.1098454 -0.10667406 -0.3363061 -0.018571133
-0.11699225 -0.1773098 -0.23475806 0.13187692 0.048906676 0.2546536 -0.1616682 -0.07088922
-0.12933734 -0.1284125 -0.15575145 -0.4456919 -0.2032402 0.41879085 0.04090759 0.11448421
0.08448693 -0.18625693 -0.28678718 -0.18035367 0.0491397 -0.2966719 -0.0899364 0.37459293
-0.05790938 -0.041278508 -0.10408903 -0.113984965 0.07240621 0.1646131 0.08197558 -0.2224492
00000000: 80ae df3d 9dfd 79be 83d6 bdbe 8664 5a3d
00000010: d4b5 24be 9050 e9bd c130 d63e c57c 03be
00000020: bdd8 c6be b23e a9bd da52 3f3b 7870 16be
00000030: 3c46 c5be 7a6d cdbe e5e1 bfbe dfc5 a3be
00000040: 6ed0 a3bd d7ed 5f3e 668e 96be 8360 803e
00000050: 9072 43be 3625 87be 3f20 c63e 38c3 cebc
00000060: e682 e8ba 21a2 fe3e 1d5f 883e 53fa c33c
00000070: 6da9 ac3e dd69 c4be 6192 763d c7d5 133e
00000080: e786 1e3e 7fd7 92bd 2c25 953c 556f 18be
00000090: d1a4 92bd b5e1 3fbd 9204 943e af9f 8e3e
000000a0: 3f39 f6bd dd85 a8be ab07 97be 0b26 5bbe
000000b0: f77f 443e 83d3 013e 1469 e2be 9415 e33d
000000c0: 1001 1d3e 66a5 0dbe 2394 bebd 2290 003d
000000d0: 2dae 10be 5d32 93bc d762 9abd c70b cb3b
000000e0: bda9 4fbd e956 fd3d f461 81be 401f 4ebe
000000f0: 63e4 913e 9c05 1abe df78 1dbe e79b 5f3e
00000100: 8c4a bfbe 3b1f 753d 0451 d63e aaf3 4fbe
00000110: 07b8 d83d 1940 fe3d cf23 9fbd 3a4e 003e
00000120: a687 803e 364f 53be c54e 853e ee6e a03d
00000130: d102 073e 41ab 663e 5658 9abc 4673 673c
00000140: f433 46be 5201 943e f915 4a3e 5f9f e2be
00000150: 2d56 f93d d915 a33d 1726 b1be 2196 ac3e
00000160: 07ab 07be 3e16 7f3e e390 723c 6f8d 983e
00000170: 4659 b83e 1b5d 893e 8704 553e 9c10 3b3e
00000180: 9c78 56be 6f9c 60be 6971 823b 1130 c5be
00000190: d05b 8ebd 3712 453e f746 06bd 91b9 8c3c
000001a0: a360 5dbb 11e1 983b 5a8e 02bd 7ac7 77bb
000001b0: e38e cabe c433 34be 054c 0bbe 2d7a c5bd
000001c0: 87b0 dabc 65e1 353c 291e 31be 1d21 0c3c
000001d0: 1035 9b3e 007b 0f3e ad33 0cbf 835d 113f
000001e0: 8e72 b7be 0700 51be 5dcc 5c3c 3268 a1bd
000001f0: 8579 363e d5af ae39 a9d5 04be 59ad c1be
00000200: 7b77 a63e 4eff 303e 296b 66be f90f 553e
00000210: 3a64 b0bd 6a26 8bbd 4395 46be b6e2 ebbd
00000220: e8f2 7ebd fe19 513b ef87 0abe 2ccd 273d
00000230: dede 863e 8111 aebe 03ec 9cbd 867f a93d
00000240: 9b38 713d aa03 d73d e757 e7be b821 f03e
00000250: c2ce e63c cebf b13e a3d8 94be 51f4 55be
00000260: a78b 8d3e b30e b93d 5053 93be 864b b63e
00000270: de79 babc 691b fdbd 3415 493d 2e67 f9bd
00000280: ef69 fdbd adb8 a2be b8d6 c638 05f9 923e
00000290: 7a16 293e 25b5 593e 711e 9fbd 494c 433e
000002a0: 9c02 98be 81e0 953e 97c6 983d fb41 493e
000002b0: 66b4 2e3e 41cd 09be 9981 1abe c4eb 023d
000002c0: a91c 95be b46f a5bd 361e f83d 5078 d23d
000002d0: eed5 37be 27a3 51be 0516 1cbe c667 953d
000002e0: d878 93be 0e1e f2bd a203 99be a5c0 fc3d
000002f0: 5b6f e83d b315 863d 9995 dbbc e496 9b3e
00000300: a9fc d4bd 3c42 c23e 04e7 9c3e d3bf 543d
00000310: 58bb dabe ae44 74be 9abc 343e 0bdb 18bd
00000320: 802d 48be 4993 b8bd d2dd c8be 5fcf a7be
00000330: 7b01 8dbd 3015 74be 9fdd ddbc 191b 98be
00000340: 294c fdbd d2f5 3c3e fe67 543e a8ab b2be
00000350: eaec 4bbe 457c 9ebd 0673 09be 43a0 41bb
00000360: cab1 4ebe bc64 58bd ef58 2e3d c9b1 eebc
00000370: a0f6 e0bd ee77 dabd 5030 acbe 7d22 98bc
00000380: a299 efbd b390 35be 6b64 70be be0a 073e
00000390: 5e52 483d f561 823e 598c 25be 5e2e 91bd
000003a0: 0271 04be 917e 03be 4f7d 1fbe bb31 e4be
000003b0: 331e 50be c16b d63e b88e 273d b376 ea3d
000003c0: 7c07 ad3d 23ba 3ebe c5d5 92be a2ae 38be
000003d0: b646 493d 61e5 97be 9330 b8bd a5ca bf3e
000003e0: 6332 6dbd a713 29bd a12c d5bd f370 e9bd
000003f0: b549 943d 5690 283e d0e2 a73d b9c9 63be

onnx::LSTM_120 f4 [1, 80]
0.19695733 -0.040494397 -0.07350938 -0.053964294 0.22160742 0.055722903 -0.17789316 0.1916837
-0.26373777 0.32328442 -0.17764387 -0.08580474 -0.07767246 0.23821208 0.13148704 0.03443746
0.056509957 0.30154297 0.23739935 -0.2228019 -0.35404143 -0.3273969 -0.047308158 -0.21106423
-0.27629918 0.27342808 -0.114899725 -0.09523728 0.27776212 -0.073943295 -0.09617318 -0.08937756
0.11575675 -0.24312267 0.0958448 0.2532215 -0.123636834 0.04626161 0.07917251 -0.2254948
0.17936352 -0.30844584 0.20413376 0.27056614 -0.031782027 -0.2136145 -0.18140219 0.115165286
0.30913994 0.49024808 -0.10178962 -0.427601 0.23261271 -0.1268505 -0.31851888 0.20232135
0.17128326 -0.055727176 -0.14271311 -0.1683859 -0.030252451 -0.28586212 0.15610151 0.21094516
-0.10571185 -0.20917991 -0.061051417 0.14577451 -0.10342094 0.3488504 -0.03719227 -0.05033403
0.0232686 -0.020654041 0.12288637 -0.2913099 0.4423966 -0.16818038 0.10291549 -0.44116035
00000000: 2faf 493e 74dd 25bd 168c 96bd aa09 5dbd
00000010: 0eed 623e b33d 643d a029 36be bb48 443e
00000020: a308 87be 8985 a53e 46e8 35be 65ba afbd
00000030: bd12 9fbd deed 733e 8aa4 063e 4b0e 0d3d
00000040: fc76 673d d763 9a3e d118 733e 2e26 64be
00000050: eb44 b5be 91a0 a7be 33c6 41bd 3921 58be
00000060: 1677 8dbe c4fe 8b3e 8c50 ebbd c30b c3bd
00000070: d636 8e3e 956f 97bd 72f6 c4bd 950b b7bd
00000080: e011 ed3d 26f5 78be 474a c43d 40a6 813e
00000090: 4f35 fdbd d07c 3d3d 3225 a23d 1ce8 66be
000000a0: 12ab 373e 9dec 9dbe 7108 513e a587 8a3e
000000b0: df2d 02bd c2bd 5abe 7fc1 39be c7db eb3d
000000c0: 9747 9e3e cc01 fb3e 1477 d0bd 85ee dabe
000000d0: 0732 6e3e 19e5 01be e814 a3be 542d 4f3e
000000e0: e164 2f3e 2e42 64bd 6323 12be 5a6d 2cbe
000000f0: fdd3 f7bc 855c 92be 13d9 1f3e 0202 583e
00000100: 747f d8bd 4233 56be 0d11 7abd ea45 153e
00000110: 5cce d3bd 859c b23e ec56 18bd 0e2b 4ebd
00000120: cb9d be3c aa32 a9bc d9ab fb3d 9226 95be
00000130: cf81 e23e 7a37 2cbe 5bc5 d23d c5df e1be
