models/CHK_model.onnx (onnx, 40199 bytes, 5 tensors)

fc.weight f4 [5, 10]
00000000: 1703 1cbd 63bd eb3c 7dac 87bd e724 d8be
00000010: 09ae 81bd 36f0 a33e 6940 d73e a465 173e
00000020: 8311 393e 2711 843e 5d85 4ebd b543 acbe
00000030: bcd8 ed3d eeac d8be 42b9 e4bd 5f44 3b3e
00000040: 27ab e93d d93e 05bd f570 bc3e 1563 8f3e
00000050: 61fc a53e 96f8 d2bd 6c75 a0be 6dcf efbd
00000060: 213d 93bd fb92 e63e 47fa 973e 728b 853e
00000070: f557 6f3e a606 e03a 03e4 983e 0a52 ec3d
00000080: eb47 0cbf 82fd 8ebe c233 ce3d 9acf 49be
00000090: fb49 73be f21a 73bf deee 833e 3ba8 9a3e
000000a0: 6fc9 533e 8eab f5be f78a 16be d2ec 07be
000000b0: 1067 00bd 674c a53e b93d 173e 69da c53d
000000c0: 09a7 443e 10fa 9e3d
-0.038088884 0.02877683 -0.066246964 -0.42215654 -0.06332023 0.32019204 0.4204133 0.14784867
0.18073086 0.25794336 -0.050420154 -0.33645406 0.116136044 -0.42319435 -0.111681476 0.182878
0.11409598 -0.03253064 0.3680493 0.2800528 0.32419112 -0.1030132 -0.31339586 -0.11709485
-0.07189394 0.45034012 0.29683134 0.2608295 0.23373397 0.0017091825 0.2986146 0.11539085
-0.5479724 -0.27927786 0.10068466 -0.197081 -0.2375869 -0.9496299 0.2576818 0.30206475
0.2068231 -0.47982448 -0.14701448 -0.13273934 -0.031348288 0.32284853 0.14769639 0.09660799
0.19204344 0.077625394

fc.bias f4 [5]
00000000: 6524 20be 8813 43be e3b5 573e 794c 03be
00000010: 671f 553e
-0.15638883 -0.1905042 0.21065478 -0.12822141 0.2081276

onnx::LSTM_118 f4 [1, 40, 5]
00000000: af70 73be a779 3cbe 80bc cfbe 5d54 abbe
00000010: b924 91be 65f9 4a3e d925 683e b53f 793e
00000020: 3507 f9bd 42c5 7dbe feca 483e 2835 c8be
00000030: 2489 183e ea07 64bf 5a64 c0be c805 473d
00000040: 2c9c 2dbe 13f1 c93e e449 6a3e b6ea 9f3e
00000050: f0a9 ad3e 9b57 233d 7f41 8b3e 198f d8be
00000060: 4ea4 a7bd 92d6 b13e 19d3 483d 4082 8d3e
00000070: acdb dabe 3bfc df3e fd58 273e f032 e83e
00000080: 4f29 5f3e f874 8fbe 0459 193e bb69 e1be
00000090: 5d6d d63a ed80 513d 2c21 4d3e ac39 c6be
000000a0: 9950 bc3d 6c75 e53d 921e bc3e 5fb7 5dbe
000000b0: 30aa febd 325c 9cbc cef5 843e 03cd 0ebe
000000c0: 8235 0d3e 7e61 d13e a156 463d 244d 88be
000000d0: 01eb bbbe 5980 54bf 7faf f3be b277 a73e
000000e0: d18e 3e3e b83f 19be d2c3 8f3e d0f1 9a3e
000000f0: 91f5 5ebd 6260 44be 67ed 84bd a603 b2bf
00000100: 4519 9bbe 79b7 c03e 4f23 d23e db51 dc3e
00000110: db76 7c3e 62b5 c83e 7a8a 4b3e c3e4 bbbd
00000120: 548c 683e 42d0 15bf 71bd 913e 837f ea3e
00000130: 89e3 f83d 2cd6 373e 964f 0f3e 2508 9c3e
00000140: 1b46 cd3e d2fc 75bc 8862 d23e 02a3 e4bd
00000150: a7f9 f83e 4d9f 8a3b 5139 69be a6b0 a5be
00000160: e0d0 c73f 5989 cdbc 585d dc3e cd68 ea3c
00000170: 913f df3e 36d4 b03e 2175 dc3e 360c 42bd
00000180: 3521 453e 166c dbbd 2bc4 1d3e 1bb8 5a3e
00000190: 029f 84be 5806 013e e396 cabd a07d afbe
000001a0: ced7 06be 4a0a 9e3d 7dd1 d23d b683 94be
000001b0: e280 37bc 467f a13e 10b2 ccbe 39bb 59be
000001c0: c323 80be 51c0 39bf e499 b3be 14cf ae3e
000001d0: 59ca 15be 468b 8b3e 3d9d c53d a4c9 2f3d
000001e0: 4395 bd3e 327d 823e 8e39 24be b214 06bf
000001f0: 907b 013d 796d 7d3e 3442 ccbc d1e2 9e3d
00000200: 6d7c 16bf 5dd6 f9bd 7e76 c93e c347 10be
00000210: 2ae6 8b3d 96b7 d3be b632 df3e 4e2a c2be
00000220: 38a0 97be 0ee3 113d a940 39be dd57 fcbe
00000230: a4d3 efbc 62dd d83b dfa1 dd3e 7609 9e3d
00000240: 3d9b 7dbc ae62 afbd d48a f13d c510 abbc
00000250: 7eec 603d 5a66 b53c 26b9 363d 947b 1e3d
00000260: 34f3 053d bafd cbbe fc00 fb3d 5db6 95be
00000270: d885 b23d 62fe acbe f4bd e63d 0479 cebe
00000280: 4c60 e43d b8c0 313e 22aa 083e 7693 7ebc
00000290: 2737 7dbe acde d5be 767f dfbe cb6a 81be
000002a0: e4d6 adbe 7ca6 03bd 65fa 74be b2d2 e63d
000002b0: e7bc 02be b33c 27bd 1cb4 20be 065e d13e
000002c0: 952d b63e 8e7c b43c 0847 84be 09ec ed3e
000002d0: 1a3e bd3d 8b8a 9ebd afe2 7dbd 9271 073c
000002e0: e1b2 b93e 26df 493d 1458 dc3e 8462 b03e
000002f0: 3ac7 3cbf 9191 95bc 62ba cc3e b058 933e
00000300: 34b4 1c3e 6612 b33d 9d91 ccbd a1d0 483e
00000310: fe1d e6bc dd4e bf3d 3c51 a03e f311 823e
-0.23773454 -0.18405782 -0.40573502 -0.33462802 -0.2834833 0.19821699 0.22670688 0.24340709
-0.12159578 -0.24782279 0.19608685 -0.39103055 0.14896065 -0.89074576 -0.37576562 0.048589498
-0.16954106 0.39441738 0.2287975 0.31233758 0.33918715 0.03987847 0.27198407 -0.42296675
-0.081856355 0.34734017 0.049029443 0.27638435 -0.4274572 0.43747124 0.1634254 0.45351362
0.21793102 -0.28018928 0.14975363 -0.44025978 0.0016359497 0.051148344 0.20032185 -0.38715875
0.0919506 0.11204037 0.36742073 -0.21651982 -0.124348044 -0.01908693 0.25968784 -0.13945393
0.13789943 0.40894693 0.04842246 -0.26621354 -0.3670273 -0.83008343 -0.4759483 0.32708508
0.18609168 -0.14965713 0.28079087 0.30262613 -0.05443341 -0.19177392 -0.064905934 -1.3907363
-0.30292717 0.3763998 0.41042563 0.430312 0.24654715 0.39200884 0.19877043 -0.09174492
0.22709781 -0.585209 0.28464845 0.4580041 0.12152774 0.17952794 0.13995203 0.30474964
0.4009255 -0.01501389 0.41090798 -0.11163904 0.4862797 0.004230416 -0.2277577 -0.32361335
1.5610619 -0.025089907 0.43039966 0.028614426 0.43603185 0.34536904 0.43058112 -0.047374927
0.19250949 -0.10713975 0.15406863 0.21359293 -0.25902563 0.12600076 -0.098920606 -0.34275532
-0.1316826 0.07716806 0.10293863 -0.29006737 -0.011200162 0.31542414 -0.399796 -0.21262826
-0.25027284 -0.72559077 -0.35078347 0.34142363 -0.14627971 0.27254695 0.096491314 0.04291691
0.3702794 0.2548614 -0.1603758 -0.5237533 0.03161198 0.24748792 -0.024933912 0.077581055
-0.5878361 -0.1219909 0.39348215 -0.14089875 0.0683101 -0.41351002 0.43593377 -0.379229
-0.29614425 0.035616927 -0.18091072 -0.49285784 -0.029275723 0.0066181878 0.4328756 0.07716648
-0.015478906 -0.085637435 0.117940575 -0.02088202 0.054913037 0.022143532 0.044610165 0.038692072
0.03270264 -0.39842016 0.12256047 -0.29240695 0.08716935 -0.3378783 0.112666994 -0.40326703
0.1115118 0.17358673 0.1334615 -0.015538087 -0.2472807 -0.41771448 -0.43651932 -0.2527679
-0.3395301 -0.032141194 -0.23923643 0.11270656 -0.12767373 -0.04082937 -0.15693706 0.40892047
0.3558165 0.022032049 -0.25835443 0.46469143 0.092403606 -0.07741269 -0.06198376 0.008266823
0.36269286 0.049285077 0.43035948 0.3445016 -0.73741496 -0.018257888 0.3998595 0.287786
0.15303117 0.087437436 -0.09988711 0.19610836 -0.028090473 0.09341214 0.31311977 0.2540432

onnx::LSTM_119 f4 [1, 40, 10]
00000000: e819 ebbe ab20 693e 3b1a edbb 3d85 9d3e
00000010: e247 a93e 36ff fd3d 3845 8abe 0b02 2bbe
00000020: 2985 aabe d114 093e 7f3f 20be 1023 2abe
00000030: a67a 663e b64d 643e 6de2 0c3e ebde 003c
00000040: 85a1 f03d f2a6 28bf 6970 613e b646 333e
00000050: ba64 59be aefc a23e 7b52 92be 1bd7 d53d
00000060: a382 fc3d d0cb 9bbe f11e 8cbe 3e83 283c
00000070: bc3f 91be 4418 68be d322 cf3d 963b 78bd
00000080: 9e8c c6be 029f abbe dedb 59bd de9b 42be
00000090: 4316 3cbe 607e a83d 554a e2bd 4ea1 833e
000000a0: 8f1c b33e b52b 31be 0c7a 163e 7681 c63d
000000b0: d00a eabd c37e e53d 59d9 c3bd 575f b33e
000000c0: 7a9e 16be c2d8 a43d b493 7e3e 3c04 e9be
000000d0: a134 0abe 234c 233d eb83 a9bd 393a c5bd
000000e0: 4ba8 833e 86a3 5dbe 082f 8fbb 3c00 9c3e
000000f0: 9fa9 383d c606 40be 2d62 3fbe 3a71 7f3e
00000100: 0954 0abe 4b98 16bd 1353 553e 1b1d e9be
00000110: d733 3bbe f6ee 12be 4aef 08bf 5dd5 8a3d
00000120: 4fbd 7b3f db25 9d3e 2109 dabc 55b0 87be
00000130: eb6c babb 65c1 c93d ebb7 d7bd ce95 163e
00000140: bada 2d3e 1343 803c 7714 023b 2758 9cbe
00000150: a501 8d3e 9feb cbbd 0a13 523e 8037 a9be
00000160: cf79 43be adcf 0a3e 02a7 af3e 08d9 6dbe
00000170: c80b 883d c38b 17bd 41f3 eebd c2cd 00be
00000180: dc21 54be d932 98bd 54b3 4cbe 8c3e 5c3e
00000190: 5878 98be 8878 ac3e 08f9 243e f318 e13d
000001a0: 98bd 9b3e 144d d6be 4af8 febd bc8c 9a3e
000001b0: aeaa 1ebe 6392 bdbe e921 0e3c 07c4 73bd
000001c0: 3b11 acbd 561f 13be 0ca9 a6bd 53a7 94bd
000001d0: 12f4 39be b069 24bf 51aa b93e 4c34 bb3e
000001e0: b8c9 2b3d 8f42 aa3e 4aa7 583e 21b4 efbc
000001f0: 1231 873e eef6 28be e0bf 3dbe 7e44 ce3d
00000200: c558 ac3d 8820 64be fb72 4b3d 285d 8cbe
00000210: 10c3 cdbe ea89 f83a b55c 503e b623 af3e
00000220: 1fd2 783e 404f b2be 0f8b 013e c710 54be
00000230: 3caf da3e ef05 57bd 82a1 99be 4ec0 86be
00000240: 5b86 26be b143 fe3d eb39 603e ce6b 673e
00000250: 77c0 8ebe 642b aebe 5f29 2abc 9354 f7bd
00000260: 2c2e 6f3e 3236 f5bc 79c7 c4bb 4893 15bd
00000270: 9ed2 4a3e 8efe ecba 8054 e33e 1892 b83e
00000280: 7f76 9dbb 05a6 0abe e984 1bbe 1592 753e
00000290: cfa8 0bbd 6ea9 333e 20a3 a0bd 5a7e 93be
000002a0: 7a69 19bc 191c 63be 4c64 0cbe 0e7d b13e
000002b0: 16ac b63f 3a28 d33d 19c8 09be 2b8b 79be
000002c0: a597 ab3d 38c8 533e 8b90 0ebe d87d 1fbe
000002d0: f056 c3bd 54e8 86bd e46d ccbe 65d1 1a3e
000002e0: c262 4c3e 5a39 f2ba 3bba f63c 53ef 77be
000002f0: e9a3 5e3e 555f d63d 40dd 5f3e 0b66 c0be
00000300: 4f72 a4be 93e7 f3bd 2bf1 06be 445c c5bd
00000310: 228d 1bbd d7a9 253d de70 453c 0326 2b3e
00000320: e5b4 7bbe 950f cf3e 96b3 d53d 1458 273e
00000330: b2d2 ad3d 65a6 eabd 03f7 69be 2613 193c
00000340: 6814 243e 22c8 86be 79b4 5f3e bc74 793e
00000350: a465 c2bc 2296 a83d fe6d aabd d8d8 41be
00000360: e300 0bbe 8ea6 9ebe 092f 4f3d 7581 12bd
00000370: aadb ddbe ce36 023e 362e 963e 1ec0 5a3d
00000380: 9a27 c9bc 65ce b3bd d19d 8bbe 5896 5cbd
00000390: 352b 8ebe 8abf 53bd c54e 82bd 0239 90be
000003a0: a704 3fbe 7507 80bc e31e c3bc c5cc 1ebd
000003b0: 877f 94bd 204b b53d ed0f 92bd b9b9 0fbe
000003c0: 0e94 adbc 0f0f c6be e77f e73d d426 1bbe
000003d0: 3018 b53d b314 f2bc d2f7 7f3e aba7 0abe
000003e0: 8302 97be 70d2 a63c afd9 6a3e 3333 ccbe
000003f0: 9cd4 743e 0545 a6be da98 8ebe 11df 6a3e
-0.45918202 0.22766368 -0.007235793 0.30765715 0.33062655 0.12402193 -0.27005935 -0.16699998
-0.33304718 0.13386847 -0.15649222 -0.16614938 0.22507724 0.2229527 0.1375825 0.007865648
0.117495574 -0.6587974 0.22015537 0.17507443 -0.2122983 0.31833404 -0.28578553 0.10441419
0.123296045 -0.30428934 -0.27367356 0.010285197 -0.28368938 -0.22665507 0.10114064 -0.0606037
-0.38779157 -0.3351975 -0.053188197 -0.19004771 -0.18367867 0.08227229 -0.11049334 0.25709003
0.34982726 -0.17301829 0.14694995 0.096926615 -0.114278436 0.112058185 -0.0956294 0.35033676
-0.14708892 0.08049156 0.24861032 -0.45511043 -0.13496639 0.03986753 -0.082771145 -0.09630246
0.25714335 -0.2164441 -0.0043696202 0.3046893 0.04508364 -0.18752584 -0.18689795 0.24945536
-0.1350862 -0.03676633 0.20832472 -0.45530018 -0.18281494 -0.14348969 -0.53490126 0.06778977
0.98335737 0.30692944 -0.026615681 -0.26501718 -0.0056892536 0.0985134 -0.105331264 0.14705583
0.16977969 0.015656983 0.0019848624 -0.30536005 0.27540317 -0.099570505 0.20515075 -0.33050156
-0.19089435 0.13555785 0.34307104 -0.23227322 0.06642872 -0.03699852 -0.11667491 -0.1257849
-0.20716041 -0.074315734 -0.19990283 0.21508235 -0.29779315 0.33685708 0.16110623 0.10991087
0.30418086 -0.4185568 -0.12449701 0.30185497 -0.15494797 -0.37025747 0.008675077 -0.059513118
-0.08401724 -0.14367422 -0.08137712 -0.07258477 -0.18159512 -0.64223766 0.36262754 0.36563337
0.04194042 0.33253905 0.21157566 -0.029260697 0.26404625 -0.16500446 -0.18530226 0.100716576
0.08415369 -0.22278035 0.0496702 -0.27414823 -0.40187883 0.0018962 0.20347865 0.34206933
0.24298905 -0.34826088 0.12650703 -0.20709525 0.42711818 -0.052495893 -0.30006033 -0.26318592
-0.1626219 0.12415255 0.21897094 0.22599718 -0.27881214 -0.3401748 -0.01038584 -0.12076678
0.23357457 -0.029933069 -0.0060052243 -0.03651741 0.19806907 -0.0018081234 0.44400406 0.3604896
-0.0048053856 -0.13539894 -0.1518742 0.23981507 -0.034096535 0.17545101 -0.078436136 -0.28807336
-0.0093635265 -0.22178687 -0.13710135 0.34665722 1.4271266 0.10310407 -0.13455237 -0.24369495
0.08378533 0.20681846 -0.13922326 -0.1557535 -0.095380664 -0.06587282 -0.3992759 0.1511894
0.19959548 -0.0018480227 0.030118098 -0.24212389 0.21742214 0.10467402 0.21861744 -0.37577853
-0.3211846 -0.11909404 -0.13177936 -0.09636739 -0.03797639 0.040445175 0.012050835 0.16713719
-0.24580725 0.40441576 0.10434644 0.16342193 0.084874526 -0.114575185 -0.22848134 0.009342944
0.1602341 -0.26324564 0.21846189 0.24360937 -0.023730107 0.082317606 -0.083217606 -0.18930376
-0.13574557 -0.30986446 0.050581966 -0.03576799 -0.43331653 0.12716219 0.2933213 0.053405873
-0.024555016 -0.08779601 -0.27268842 -0.053854316 -0.2776734 -0.051696338 -0.0636268 -0.28168494
-0.18654118 -0.015628556 -0.023818439 -0.038769502 -0.072508864 0.088522196 -0.07131944 -0.14035691
-0.021188762 -0.38683364 0.11303692 -0.1515153 0.08842504 -0.029550886 0.2499688 -0.13540523
-0.29494104 0.020364016 0.22934602 -0.39882812 0.23909229 -0.32474533 -0.2785099 0.22936656

onnx::LSTM_120 f4 [1, 80]
00000000: 20bc 7ebe 448e d3bc 8d27 4cbd b21f a03e
00000010: 86c1 e13d 2909 d13c 14c9 9ebd 2c9e 0f3d
00000020: 13a3 4b3d 3f00 863e 23e3 b0be c8ea b13e
00000030: 81d1 6e3e a897 45bc 1879 aa3a 29ca fc3c
00000040: 380b a03e 4d62 9bbc f3c7 74be fd5b 853e
00000050: f45a 17be 1e5f ef3d 98d7 6a3e 2b76 77bd
00000060: 7958 363e ec1b 0dbe d63b 363e b6b0 b7bd
00000070: 364a 21bd e2c7 46bc bb27 89be 054a 673d
00000080: 54f9 ec3d b15c 56be c484 62be d491 b5bd
00000090: e889 783e 761c bcbc 9eaf 7f3e 2303 8d3e
000000a0: 27a9 253e 5ebc 373e 90a0 eebd f226 893e
000000b0: e28b 96be eb2a 883d 0587 993e c600 af3e
000000c0: 6bc3 8b3e 3a2d 3c3e 1560 92bc c4a6 83bd
000000d0: 6f09 443d 06ce 01be d27f 903d 7928 033f
000000e0: 4299 783e 6c1d 3fbe 4362 973d 9451 873d
000000f0: edbd afbe 65c6 463e 9bcc 753e 2e67 99bd
00000100: ce8a 4a3d 1c20 7f3e 13f0 7bbe 037c 8bbe
00000110: 8679 823e d6ca 843e 751f 1abc d4f9 273e
00000120: d5b5 ba3e 0edd 37be 5a85 40bd 1ea0 12bd
00000130: aec1 603e 6e7c 2dbe ec33 473e 2b72 be3e
-0.24876451 -0.025824673 -0.049842406 0.31274182 0.1102324 0.025517063 -0.07753196 0.035062954
0.049716067 0.26172063 -0.34548292 0.34749436 0.23322107 -0.012060083 0.001300606 0.030858116
0.3125856 -0.018967772 -0.239044 0.26046744 -0.1478079 0.11688064 0.22933805 -0.060415428
0.17807187 -0.13780183 0.17796263 -0.08969252 -0.039377414 -0.012132617 -0.26788124 0.056467075
0.11570993 -0.20933796 -0.22120959 -0.08865705 0.24271357 -0.02296279 0.24969336 0.27541456
0.16177808 0.1794295 -0.116517186 0.26787525 -0.29403597 0.06648811 0.29985824 0.34180278
0.2729753 0.18376628 -0.017868081 -0.064282924 0.04786056 -0.12676248 0.0705563 0.5123363
0.24277213 -0.18663567 0.07391789 0.06607357 -0.3432459 0.19411619 0.24003832 -0.07490383
0.04944878 0.24914593 -0.246033 -0.2724305 0.2548334 0.25936002 -0.009406914 0.16403896
0.36466852 -0.1795542 -0.047002174 -0.03579723 0.21948883 -0.16941997 0.194534 0.37196478
