models/CHRW_model.onnx (onnx, 40199 bytes, 5 tensors)

fc.weight f4 [5, 10]
0.38010865 -0.40080938 0.11682796 0.39923355 -0.17140399 0.03579168 -0.2905284 0.22448063
-0.27829474 0.0715176 0.49919376 -0.34455618 -0.13275236 0.02740453 0.18949848 0.021444537
-0.32866964 0.29529157 -0.19570431 0.30977577 0.2880701 -0.24119459 -0.24571845 0.20945784
0.2711914 0.12897632 -0.32403043 -0.029547174 -0.44661158 0.13026242 -0.35537058 0.26055124
-0.19207986 0.23313983 -0.09098611 0.19579323 -0.023536319 0.18907456 -0.051618893 0.51266223
0.21488091 -0.2502449 -0.37807164 0.15383875 0.20581412 -0.1965899 -0.4133599 0.3091072
-0.09598437 -0.35672528
00000000: 9a9d c23e e336 cdbe 7f43 ef3d 5768 cc3e
00000010: 8784 2fbe 4c9a 123d 23c0 94be 40de 653e
00000020: a67c 8ebe d277 923d 5396 ff3e ab69 b0be
00000030: 3cf0 07be 777f e03c e40b 423e 74ac af3c
00000040: 6347 a8be 7530 973e b666 48be ee9a 9e3e
00000050: ed7d 933e b7fb 76be 9e9d 7bbe 1e7c 563e
00000060: 99d9 8a3e 5e12 043e 51e7 a5be ea0c f2bc
00000070: 46aa e4be 8363 053e 22f3 b5be f966 853e
00000080: 95b0 44be 35bc 6e3e ed56 babd 057e 483e
00000090: 3dcf c0bc c39c 413e 556e 53bd d53d 033f
000000a0: be09 5c3e 1920 80be 9b92 c1be e887 1d3e
000000b0: f0c0 523e dd4e 49be e9a3 d3be 4d43 9e3e
000000c0: 7493 c4bd b2a4 b6be

fc.bias f4 [5]
-0.06726124 0.15681234 0.0065887044 0.035694227 -0.03145275
00000000: 43c0 89bd 6a93 203e 0fe6 d73b 1c34 123d
00000010: 99d4 00bd

onnx::LSTM_118 f4 [1, 40, 5]
0.19128747 0.5509841 0.12129085 0.70163226 0.35792494 -0.12986344 0.4106418 0.43095478
-0.04781807 -0.09825136 0.41056514 0.44178358 0.4415383 0.4183203 0.032953747 0.006436313
0.0033221762 0.084006816 0.26047787 0.018216336 -0.5026461 0.052835833 0.0038576126 0.5153486
-0.20258778 -0.03320002 -0.16584824 -0.11498136 -0.13329132 -0.121260464 0.47135335 0.0626197
0.17570093 0.041276876 -0.11858601 -0.04300301 -0.0023021863 0.22201325 -0.037597053 0.05329962
0.35169774 -0.11784242 0.39619002 0.06806853 0.16553156 0.15278979 -0.026787326 0.20880371
-0.8267973 -0.15639693 -0.013692519 0.4099133 -0.048456214 0.6681996 0.2415147 0.0561496
0.23403531 0.18834831 -0.32973605 -0.00058363687 0.18790936 -0.03325591 0.010980109 0.22323556
0.6414597 0.24495086 0.37938467 0.43987203 0.6148205 0.33648926 -0.10137399 -0.19971046
-0.21039805 0.4995626 -0.15537699 0.20810045 -0.022889921 -0.3805255 0.23219368 0.13014448
0.4359229 0.45559946 0.34001613 0.03736037 0.3017015 -0.10439271 0.15426119 0.039134137
0.65229446 0.5702148 0.28405356 0.1155113 0.11894867 -0.17270623 0.11126797 -0.19770281
0.21216816 0.0028001748 -0.28874707 -0.07185103 -0.24766389 -0.51740426 -0.31751338 -0.11125582
-0.13401745 0.064121716 0.43377733 0.21351959 0.118897684 0.44978508 -0.2028046 -0.093140036
-0.0069981567 -0.018037759 -0.038381293 0.18630567 0.41075912 0.28665525 0.20057595 0.3875137
-0.022580683 -0.39946756 -0.47979584 -0.1439786 -0.40225303 0.0127479015 -0.08641441 -0.12703574
-0.010965894 0.09010064 0.16878513 0.13696891 -0.025303202 0.07495653 0.24313578 -0.11041147
0.33745846 0.06417821 0.11265496 -0.08459589 0.17699231 0.38561964 -0.1811669 0.19310836
0.1486556 0.13064507 -0.34869504 -0.24062058 -0.6343149 -0.17577448 0.005518858 0.55688995
0.23147956 -0.5859313 0.5810868 -0.3023088 -0.3725489 -0.1827578 -0.24796054 0.014919096
-0.19602136 -0.5377676 -0.11748785 -0.23174459 -0.014843929 0.019202594 0.34065697 0.2686382
0.41307765 0.06007132 -0.22434331 -0.18070902 0.09512479 -0.2874708 0.023297288 0.07356846
-0.20296037 -0.20672058 0.1730125 -0.12096582 -0.32218105 -0.085391276 -0.20758863 -0.18730025
-0.047412015 0.03674404 0.044794336 0.29337353 0.60636187 0.20995405 -0.15693165 -0.3737825
0.04747314 0.08527 -0.24855635 0.047540776 -0.1245377 0.0083087105 1.0861549 0.13508376
00000000: dde0 433e 4b0d 0d3f 5667 f83d 2c9e 333f
00000010: f041 b73e ecfa 04be a43f d23e 1ba6 dc3e
00000020: e1dc 43bd 0238 c9bd 9835 d23e 7531 e23e
00000030: 4f11 e23e 142e d63e 82fa 063d b5e7 d23b
00000040: deb8 593b c40b ac3d 5b5d 853e 6d3a 953c
00000050: 6aad 00bf 636a 583d 00d0 7c3b e3ed 033f
00000060: 2c73 4fbe bffc 07bd 1fd4 29be 597b ebbd
00000070: 857d 08be 6857 f8bd 3a55 f13e c23e 803d
00000080: f2ea 333e f111 293d 39dd f2bd ed23 30bd
00000090: 47e0 16bb 7157 633e 5eff 19bd b450 5a3d
000000a0: ba11 b43e 5e57 f1bd 6bd9 ca3e 8367 8b3d
000000b0: 1b81 293e ed74 1c3e 1871 dbbc a4d0 553e
000000c0: fda8 53bf 8426 20be 9656 60bc 28e0 d13e
000000d0: 067a 46bd 210f 2b3f a14f 773e 1ffd 653d
000000e0: f4a6 6f3e 61de 403e 2ad3 a8be 35ff 18ba
000000f0: 506b 403e 5937 08bd eae5 333c dd97 643e
00000100: b436 243f 66d4 7a3e b53e c23e e836 e13e
00000110: e064 1d3f 5248 ac3e 2b9d cfbd e680 4cbe
00000120: 9672 57be abc6 ff3e 251b 1fbe 4918 553e
00000130: a583 bbbc 3dd4 c2be 2ec4 6d3e 9844 053e
00000140: 4931 df3e 5544 e93e 9816 ae3e 3007 193d
00000150: 9e78 9a3e d8cb d5bd a5f6 1d3e 1e4b 203d
00000160: c5fc 263f 99f9 113f 786f 913e 3091 ec3d
00000170: 5c9b f33d e7d9 30be 76e0 e33d 9b72 4abe
00000180: 9c42 593e 2383 373b a8d6 93be a226 93bd
00000190: 9a9b 7dbe 9b74 04bf 1d91 a2be 17da e3bd
000001a0: df3b 09be 3f52 833d 1018 de3e e1a4 5a3e
000001b0: a180 f33d 3b4a e63e 02ac 4fbe 34c0 bebd
000001c0: cb50 e5bb ecc3 93bc b435 1dbd eac6 3e3e
000001d0: 054f d23e 7ac4 923e c863 4d3e 3268 c63e
000001e0: 20fb b8bc 0387 ccbe cda7 f5be 206f 13be
000001f0: 1cf4 cdbe 93dc 503c 0afa b0bd a815 02be
00000200: 4baa 33bc af86 b83d 02d6 2c3e 9441 0c3e
00000210: a948 cfbc cf82 993d 96f8 783e 691f e2bd
00000220: 5bc7 ac3e de6f 833d a5b7 e63d 9c40 adbd
00000230: 793d 353e f06f c53e d183 39be 33be 453e
00000240: 2c39 183e d2c7 053e 2888 b2be 3e65 76be
00000250: 7662 22bf 3afe 33be 89d7 b43b 5790 0e3f
00000260: fa08 6d3e 98ff 15bf 1bc2 143f 38c8 9abe
00000270: bbbe bebe dc24 3bbe 5ee9 7dbe 396f 743c
00000280: d3b9 48be 23ab 09bf 789d f0bd 744e 6dbe
00000290: f333 73bc c24e 9d3c 976a ae3e f28a 893e
000002a0: ea7e d33e 580d 763d 41ba 65be c90b 39be
000002b0: c9d0 c23d 5f2f 93be f4d9 be3c 10ab 963d
000002c0: d8d4 4fbe 8fae 53be 302a 313e eebc f7bd
000002d0: eaf4 a4be 9fe1 aebd 1d92 54be a3cb 3fbe
000002e0: 1a33 42bd eb80 163d 447a 373d 0e35 963e
000002f0: 883a 1b3f 32fe 563e b1b2 20be 6b60 bfbe
00000300: 3273 423d 0aa2 ae3d 8e85 7ebe 1eba 423d
00000310: 9f0d ffbd 4221 083c 2007 8b3f 6653 0a3e

onnx::LSTM_119 f4 [1, 40, 10]
-0.37403062 -0.12432728 -0.46818072 0.2022866 -0.6248015 0.07474618 -0.7018697 -0.10892205
-0.09764482 -0.33354604 0.28907302 0.13291816 -0.052149493 -0.077371925 0.22992909 -0.401999
-0.06117521 0.21761431 -0.112011604 0.07099031 -0.003339034 -0.08607785 0.15506354 0.20537128
0.25216538 -0.03666593 -0.1676435 -0.32750013 0.26641935 0.26880807 0.07631725 0.1337985
-0.14862359 0.34490517 0.382025 -0.17712559 -0.052989855 -0.2213821 -0.31573862 0.015708411
-0.35469392 0.2859512 0.2999142 -0.2825067 0.19254 0.15499769 0.10781351 -0.1951767
-0.024061868 -0.05637001 -0.08204239 0.18610455 0.16893512 0.03567539 0.24331588 -0.119863786
0.17216365 -0.010523314 0.39636987 0.10409418 0.1746365 -0.21709605 -0.15481932 -0.024428997
-0.044196844 -0.4851651 0.020661568 -0.183123 -0.09211091 -0.006740625 0.20850305 -0.30321088
0.192488 0.02399572 -0.029145747 -0.19302094 -0.08364743 -0.1206461 -0.24049261 -0.19570792
-0.023257082 -0.18595774 0.31131318 -0.024946744 0.03433135 0.05114933 0.011118329 -0.048010655
-0.105117366 -0.13825245 0.34692267 -0.049899023 0.13226539 0.16437614 -0.17129837 0.29145688
0.18429206 -0.04144772 -0.19131319 0.097611055 0.008014212 -0.23115559 -0.043887597 0.4908168
-0.115218975 0.4582005 -0.6122756 0.15748587 -0.27512407 -0.70985496 0.37350783 -0.0072373445
0.030959 -0.006993466 -0.09842115 -0.21484615 -0.18378164 -0.034049544 -0.088974245 -0.18950348
-0.01208088 0.15832812 -0.10059175 0.059128657 -0.1365827 -0.35654438 0.03620679 -0.2508331
-0.2890243 0.22638965 0.18092574 0.25561643 -0.17872457 -0.23654659 -0.053691078 -0.031231003
1.6675142e-05 -0.0760712 0.020575361 -0.120474294 -0.12058668 0.20214316 -0.08662528 -0.36345917
-0.24764161 -0.082513995 0.34359327 -0.24472867 0.4099574 -0.18724954 0.06043905 -0.06726672
0.19038096 0.18555807 -0.3374555 0.1273533 0.11621971 -0.3318483 0.37067714 0.22297856
0.4163422 0.2583727 -0.13161036 0.064229354 0.046396498 -0.52453965 0.2701573 0.1959175
-0.011830489 -0.019938884 0.0034042452 0.039796382 -0.13699074 0.32486972 -0.22061251 -0.43713847
-0.10838886 0.17643112 -0.076057084 0.0053538466 0.40658593 0.0056256317 -0.09642702 0.27904847
0.015639566 -0.2286502 0.18723072 0.38307643 -0.019302245 0.18257818 -0.031232461 -0.05287592
-0.28302065 0.32564136 -0.3285912 0.013992106 -0.3059295 -0.17721099 0.25063732 0.26740646
0.18593012 0.024339065 0.14281131 -0.17798713 0.112831414 -0.14290848 0.070007764 -0.4438479
0.25074768 -0.19425686 0.40445977 0.07878652 0.07795024 -0.027837543 -0.079383515 -0.4689945
-0.08588564 0.32484257 0.0054175514 -0.063248254 0.27514324 0.18430728 0.21475476 -0.06897548
-0.10586635 -0.14710055 -0.2151905 -0.16729636 -0.094538756 0.3720099 0.07930485 0.0787133
0.2544903 -0.27265954 0.19061755 -0.43477055 0.17802176 0.073546894 0.21807115 -0.13462865
-0.31038436 -0.14113425 -0.03582622 0.12666355 0.0073156166 0.5441401 0.43231645 -0.10765826
0.1491784 0.016190806 -0.18769513 0.03525995 0.35069802 -0.38870975 -0.26722452 -0.068126574
00000000: f180 bfbe 4d9f febd 62b5 efbe 3824 4f3e
00000010: fef2 1fbf 8614 993d bcad 33bf 8612 dfbd
00000020: 02fa c7bd 8cc6 aabe 6101 943e b31b 083e
00000030: b59a 55bd 2c75 9ebd 8872 6b3e d0d2 cdbe
00000040: db92 7abd 49d6 5e3e 5766 e5bd 5e63 913d
00000050: b2d3 5abb 9549 b0bd fac8 1e3e d94c 523e
00000060: d21b 813e 042f 16bd bdaa 2bbe 19ae a7be
00000070: 1e68 883e 36a1 893e 384c 9c3d 7902 093e
00000080: c830 18be 6997 b03e c898 c33e 6960 35be
00000090: e40b 59bd fdb1 62be 7ea8 a1be edae 803c
000000a0: 719a b5be 3268 923e 5b8e 993e b8a4 90be
000000b0: 3529 453e b7b7 1e3e 54cd dc3d 67dc 47be
000000c0: 651d c5bc 3de4 66bd d705 a8bd 3192 3e3e
000000d0: 54fd 2c3e 5c20 123d cc27 793e 257b f5bd
000000e0: ab4b 303e fa69 2cbc fef0 ca3e 542f d53d
000000f0: e9d3 323e 6d4e 5ebe f588 1ebe 521f c8bc
00000100: c007 35bd 8f67 f8be 7342 a93c 9984 3bbe
00000110: a5a4 bcbd 76e0 dcbb d381 553e 753e 9bbe
00000120: 931b 453e ac92 c43c 10c3 eebc 48a7 45be
00000130: 584f abbd 4d15 f7bd b243 76be a867 48be
00000140: a385 bebc b56b 3ebe 7164 9f3e 1d5d ccbc
00000150: 089f 0c3d f681 513d a729 363c d2a6 44bd
00000160: c647 d7bd 0d92 0dbe d99f b13e eb62 4cbd
00000170: 9470 073e 3852 283e d768 2fbe d639 953e
00000180: 0fb7 3c3e 16c5 29bd 9be7 43be 4ee8 c73d
00000190: 0b4e 033c 0db4 6cbe 7bc3 33bd 574c fb3e
000001a0: edf7 ebbd 4299 ea3e 18be 1cbf fa43 213e
000001b0: 10dd 8cbe 0eb9 35bf 6b3c bf3e 3f27 edbb
000001c0: bb9d fd3c 7229 e5bb 0791 c9bd a100 5cbe
000001d0: 4131 3cbe 8977 0bbd 2138 b6bd 330d 42be
000001e0: e2ee 45bc c420 223e 0c03 cebd e430 723d
000001f0: 56dc 0bbe fc8c b6be 924d 143d 326d 80be
00000200: fefa 93be b0d2 673e 9944 393e 28e0 823e
00000210: 9303 37be 4539 72be 2deb 5bbd 29d8 ffbc
00000220: 98e1 8b37 38cb 9bbd a98d a83c 3abb f6bd
00000230: 26f6 f6bd 9efe 4e3e 9868 b1bd 5217 babe
00000240: c395 7dbe 19fd a8bd 75eb af3e 279a 7abe
00000250: f0e5 d13e 58be 3fbe f08e 773d 22c3 89bd
00000260: 3af3 423e ef02 3e3e f8c6 acbe e768 023e
00000270: 9904 ee3d 05e8 a9be 65c9 bd3e 7e54 643e
00000280: ce2a d53e 6d49 843e dec4 06be ae8a 833d
00000290: 410a 3e3d 3b48 06bf 0f52 8a3e 999e 483e
000002a0: abd4 41bc df56 a3bc c219 5f3b 8801 233d
000002b0: 4d47 0cbe 5355 a63e 3fe8 61be 9dd0 dfbe
000002c0: fbfa ddbd 5caa 343e d1c3 9bbd 526f af3b
000002d0: 082c d03e 3857 b83b 887b c5bd 71df 8e3e
000002e0: 8c1e 803c 4723 6abe 69b9 3f3e 9822 c43e
000002f0: be1f 9ebc c6f5 3a3e 38db ffbc 6c94 58bd
00000300: 15e8 90be 77ba a63e 1b3d a8be 253f 653c
00000310: cba2 9cbe cc76 35be 8953 803e 80e9 883e
00000320: 7764 3e3e b862 c73c 213d 123e 4242 36be
00000330: 2814 e73d 9a56 12be 3b60 8f3d 0840 e3be
00000340: 0062 803e 45eb 46be 5a15 cf3e d45a a13d
00000350: 60a4 9f3d 8f0b e4bc d393 a2bd 0c20 f0be
00000360: cfe4 afbd c451 a63e b785 b13b 4d88 81bd
00000370: 93df 8c3e 0cbb 3c3e ace8 5b3e 0443 8dbd
00000380: 75d0 d8bd 87a1 16be e65a 5cbe bd4f 2bbe
00000390: 899d c1bd 1578 be3e 956a a23d 7034 a13d
000003a0: 8d4c 823e 089a 8bbe 3f31 433e 3f9a debe
000003b0: 564b 363e c19f 963d 0b4e 5f3e 18dc 09be
000003c0: b3ea 9ebe 7f85 10be 84be 12bd 17b4 013e
000003d0: d7b7 ef3b c44c 0b3f 9558 dd3e ef7b dcbd
000003e0: 39c2 183e 95a2 843c 2733 40be bd6c 103d
000003f0: b18e b33e f704 c7be a7d1 88be f285 8bbd

onnx::LSTM_120 f4 [1, 80]
0.7013534 -0.16516382 -0.35872474 -0.0043062884 -0.1751902 0.004332989 0.31058466 0.2878473
-0.036437433 0.11108641 0.37321568 0.25039795 -0.20147939 0.06861817 -0.2789244 -0.16555226
0.15072224 -0.16407013 -0.084007256 -0.01369274 -0.02003479 -0.12687 -0.01563907 0.41777578
-0.26920235 -0.33351034 0.14012393 0.17315398 -0.3347413 0.20198855 0.07596841 -0.23908384
0.062154587 0.16387029 -0.20377684 0.2761152 -0.26651314 -0.03723083 0.115586504 -0.33109075
0.61985767 -0.099536024 -0.101224154 -0.063067704 0.16273503 -0.1900438 0.31154308 0.13214123
-0.28685227 0.15542677 0.5862635 0.40948656 0.24006227 -0.11052167 -0.35897225 -0.21486044
-0.035909228 -0.14331171 0.17261785 0.07648576 -0.17435221 -0.12821066 -0.42159602 -0.09882644
0.11458299 0.11097411 -0.24125393 0.04987953 0.25246903 -0.23849794 -0.2533888 -0.14688577
-0.12012318 0.28223583 -0.1169335 0.037938025 -0.27692816 0.00085005537 -0.27902937 -0.012965553
00000000: e58b 333f b420 29be c5aa b7be c41b 8dbb
00000010: 0f65 33be bffb 8d3b f404 9f3e b960 933e
00000020: 6b3f 15bd 4681 e33d 2016 bf3e 2934 803e
00000030: 9d50 4ebe af87 8c3d 2ecf 8ebe 8886 29be
00000040: ee56 1a3e 0002 28be ff0b acbd 8457 60bc
00000050: 0020 a4bc 36ea 01be 821d 80bc b5e6 d53e
00000060: e4d4 89be dec1 aabe a67c 0f3e 474f 313e
00000070: 3663 abbe 16d6 4e3e 5395 9b3d 65d2 74be
00000080: cf95 7e3d 9dcd 273e e0aa 50be f95e 8d3e
00000090: 6974 88be 5b7f 18bd 9eb8 ec3d ba84 a9be
000000a0: feae 1e3f 8bd9 cbbd 9c4e cfbd a429 81bd
000000b0: 03a4 263e d89a 42be 9382 9f3e 0850 073e
000000c0: 4dde 92be 3228 1f3e 5d15 163f 39a8 d13e
000000d0: e2d2 753e 2f59 e2bd 36cb b7be 6004 5cbe
000000e0: 8e15 13bd 4ec0 12be bcc2 303e 91a4 9c3d
000000f0: 6389 32be a849 03be 6fdb d7be 8465 cabd
00000100: 7daa ea3d 6546 e33d 450b 77be 7a4e 4c3d
00000110: 9f43 813e ce38 74be 2dbc 81be 3969 16be
00000120: 2403 f6bd 3781 903e d57a efbd e764 1b3d
00000130: 87c9 8dbe 40d6 5e3a f0dc 8ebe 796d 54bc
