models/CME_model.onnx (onnx, 40199 bytes, 5 tensors)

fc.weight f4 [5, 10]
0	0xbe5f657f	-0.21816061
1	0x3d855335	0.06510011
2	0x3ebdedae	0.37095398
3	0xbe930536	-0.28714913
4	0xbe2d4f39	-0.16924752
5	0x3eb46cbb	0.35239205
6	0xbdfcb66f	-0.12339484
7	0x3e90654d	0.28202286
8	0x3ebaa871	0.36456636
9	0x3ec72a28	0.3889935
10	0x3e54406a	0.20727697
11	0x3d89c230	0.067264915
12	0x3ea8735e	0.32900518
13	0x3e51421e	0.20435378
14	0xbec967ea	-0.39337093
15	0xbba4e030	-0.005031608
16	0xbed88af1	-0.42293504
17	0x3e997b40	0.29976845
18	0x3e784937	0.24246679
19	0x3e5a24c3	0.21303086
20	0xbe2e2eed	-0.17010088
21	0x3e55a6b1	0.20864369
22	0x3e186676	0.14882836
23	0x3ea21ff8	0.31665015
24	0xbd867a4f	-0.06566297
25	0x3ee84b0e	0.45369762
26	0xbde18f31	-0.1101364
27	0x3e5ef2da	0.21772328
28	0x3ce0fde8	0.027464822
29	0x3ce5c7b2	0.028049324
30	0x3edc7189	0.4305537
31	0xbea5f565	-0.32413784
32	0x3e66a271	0.22522904
33	0x3db566e6	0.08857517
34	0xbed5a36f	-0.41726252
35	0xbdced609	-0.10099418
36	0xbd87fafb	-0.066396676
37	0xbf003c1a	-0.5009171
38	0x3d7fcb43	0.062449705
39	0x3f010430	0.50397015
40	0x3cff8dab	0.031195482
41	0x3ebb15ed	0.36540166
42	0x3e50abc7	0.20378028
43	0x3e16d918	0.14731252
44	0xbee78d61	-0.4522505
45	0x3c577dcd	0.013152552
46	0x3d1fd85f	0.039024707
47	0x3e1d3fe9	0.15356411
48	0xbe1ad5f2	-0.15120676
49	0x3e916e66	0.2840454

fc.bias f4 [5]
0	0x3e066d29	0.13127579
1	0xbd5a4c4d	-0.053295422
2	0xbda75a7a	-0.08171554
3	0x3d25988d	0.040428687
4	0x3d7baf90	0.061446726

onnx::LSTM_118 f4 [1, 40, 5]
0	0x3e4551de	0.19269511
1	0x3d575cd1	0.05257875
2	0x3e6d867c	0.23195833
3	0xbe211bce	-0.15733263
4	0xbe38b007	-0.18035899
5	0x3e89a424	0.26883042
6	0x3baf64e2	0.0053526023
7	0x3e4e2204	0.20130163
8	0x3e7b2cfd	0.2452888
9	0x3df4a4d5	0.11945502
10	0x3d280dbf	0.041028734
11	0x3cb318c5	0.021862397
12	0x3dce03ab	0.10059293
13	0xbe4fa46f	-0.2027757
14	0x3edb8fad	0.42883053
15	0xbce89f1a	-0.028396178
16	0xbddb9687	-0.1072207
17	0x3e85b432	0.2611404
18	0x3e4bbd01	0.19896318
19	0x3e68f770	0.2275064
20	0x3e30547e	0.17219731
21	0x3e85ba78	0.26118827
22	0x3e92b94d	0.28656998
23	0x3ea38945	0.31940666
24	0x3d787597	0.060659017
25	0x3d92720c	0.07150659
26	0x3e6f6f06	0.23382196
27	0x3e2bb086	0.16766557
28	0xbe9c783c	-0.30560482
29	0x3f02308b	0.5085532
30	0x3db904a7	0.090340905
31	0x3ecfb483	0.40567407
32	0xbc9ecdee	-0.019385304
33	0xbe1ae486	-0.15126237
34	0x3d6f101b	0.05836497
35	0x3c44eda5	0.0120195495
36	0x3efd9d96	0.4953429
37	0x3e80bb11	0.2514272
38	0xbed0d821	-0.40789893
39	0x3ea6caad	0.32576504
40	0xbe462e0f	-0.19353507
41	0xbeb453da	-0.35220224
42	0xbbb9e115	-0.005672584
43	0x3d703c33	0.05865116
44	0xbeb0b951	-0.34516385
45	0xbcf9fa52	-0.03051487
46	0x3e9390d1	0.28821424
47	0x3d126110	0.035737097
48	0x3e8064df	0.2507696
49	0x3e2625b8	0.16225326
50	0x3c17f799	0.0092753405
51	0x3e201288	0.15632069
52	0x3dee4a23	0.11635234
53	0xbf1880ea	-0.5957171
54	0x3dba9b60	0.09111667
55	0xbcf56f79	-0.02996038
56	0x3f003ee6	0.50095975
57	0x3c0592f9	0.008152717
58	0x3ea9ccbd	0.33164015
59	0xbc976927	-0.018482758
60	0x3ee14c29	0.44003418
61	0x3ed5c199	0.41749266
62	0x3e5a31cf	0.21308063
63	0x3de4d818	0.11174029
64	0xbc817068	-0.01580067
65	0x3ec18766	0.37798613
66	0x3e8d1b9b	0.27560124
67	0xbe317556	-0.17329916
68	0x3f0c1ead	0.5473431
69	0x3eeb0a64	0.45906365
70	0x3e74b209	0.2389604
71	0x3e6ea0c0	0.23303509
72	0x3ddaea49	0.106892176
73	0x3d6dfdf4	0.058103517
74	0x3eeae47f	0.45877454
75	0x3ee24783	0.44195184
76	0x3e270777	0.16311441
77	0x3e28ee93	0.16497259
78	0x3e90c0c9	0.28272083
79	0x3ef47375	0.47744337
80	0x3eb40e35	0.3516709
81	0x3d007aa3	0.031366955
82	0x3e7cd5e0	0.24690962
83	0x3e29b605	0.16573341
84	0x3de1019a	0.109866336
85	0x3e45c4a7	0.19313298
86	0x3ee58ea7	0.44835398
87	0x3f19551c	0.5989549
88	0xbf697e6a	-0.9120852
89	0x3f245526	0.64192426
90	0x3c51a6b6	0.012796095
91	0x3d7f08b2	0.062264152
92	0xbec7e233	-0.39039764
93	0xbe33604d	-0.17517205
94	0xbed397fe	-0.41326898
95	0xbda1be7c	-0.0789766
96	0x3e6667e7	0.22500573
97	0x3d62b0a9	0.055344258
98	0x3f446f31	0.76732165
99	0x3e3c2abd	0.18375678
100	0xbebcec38	-0.3689897
101	0x3bdbb98c	0.0067054685
102	0xbcbbc360	-0.02292031
103	0xbea44055	-0.3208033
104	0xbe12a736	-0.14321598
105	0xbaf8ff6b	-0.0018997019
106	0xbc4774c3	-0.012173834
107	0x3e955859	0.29168966
108	0x3eaaf505	0.3339006
109	0xbe7505a2	-0.2392793
110	0x3e90c259	0.28273275
111	0x3c96955b	0.018381765
112	0x3ea323bd	0.31863204
113	0xbea2b725	-0.31780353
114	0x3e991d40	0.29905128
115	0xbdb8ad9e	-0.0901749
116	0x3d6aadaa	0.057294525
117	0xbdc790df	-0.09744429
118	0x3ee40f78	0.44543052
119	0x3dab1362	0.08353306
120	0x3e0ccbfc	0.13749689
121	0xbcda3982	-0.02663875
122	0x3ed1fe49	0.41014317
123	0x3e7f4ca1	0.24931575
124	0x3e7506cd	0.23928376
125	0x3ec8ed6c	0.3924364
126	0x3d21e87a	0.039528348
127	0x3e65e214	0.22449523
128	0x3e891345	0.26772514
129	0x3cbf0698	0.023318574
130	0x3d59b64e	0.053152375
131	0x3eb902ba	0.36134893
132	0x3e959d1c	0.29221427
133	0x3e1d9368	0.15388262
134	0x3e9fa563	0.31180868
135	0xbde7b6d8	-0.113141716
136	0xbe24bb2c	-0.16087025
137	0x3eaf2c41	0.3421345
138	0xbed548ca	-0.41657096
139	0x3ed95854	0.42450202
140	0xbe1551ae	-0.1458194
141	0x3d25b67f	0.040457245
142	0x3e3f1d87	0.18663608
143	0x3dce343d	0.100685574
144	0x3db476d6	0.08811729
145	0x3eaf3607	0.34220907
146	0xbdb50b58	-0.08840054
147	0xbd167bd2	-0.036739178
148	0x3eadb5d6	0.33927792
149	0x3cde081a	0.027103473
150	0xbe607195	-0.21918328
151	0xbb259d9a	-0.002527094
152	0xbdf3c9b7	-0.119037084
153	0x3e3175fc	0.17330164
154	0x3dc40068	0.0957039
155	0x3df382b5	0.11890165
156	0x3eabc901	0.3355179
157	0x3e8a7aa1	0.27046683
158	0xbf085fd1	-0.53271204
159	0x3ef6530e	0.4811024
160	0x3e9671e0	0.29383755
161	0x3ed59688	0.4171641
162	0xbe069b36	-0.13145146
163	0x3e62f78a	0.22164741
164	0x3eba75c2	0.36417967
165	0x3e7d900e	0.24761984
166	0x3c631ea2	0.013862284
167	0xbdc73e4b	-0.09728678
168	0xbd5af6cf	-0.05345803
169	0xb9ff6b56	-0.00048717362
170	0xbec04c39	-0.37558153
171	0xbe497d93	-0.19676809
172	0xbeced5fc	-0.40397632
173	0xbe56a4dc	-0.20961326
174	0xbec2e8e1	-0.38068298
175	0xbdb8503b	-0.08999678
176	0x3e39cdd1	0.18144919
177	0x3eb51af5	0.3537213
178	0x3e128211	0.14307429
179	0x3e078a02	0.1323624
180	0x3dfd86bb	0.123792134
181	0x3cc3288e	0.023823049
182	0xbee60824	-0.44928086
183	0x3e89f0c4	0.26941502
184	0xbe4fa029	-0.2027594
185	0x3ec02d07	0.37534353
186	0xbd2969de	-0.04136073
187	0x3ef311e8	0.474746
188	0xbedd35ff	-0.43205258
189	0x3eac6fc8	0.33679032
190	0x3e11cdd6	0.14238676
191	0x3e78236a	0.2423226
192	0x3d30faad	0.043207813
193	0xbe74437b	-0.23853867
194	0x3e0cb302	0.13740161
195	0x3eea60f7	0.45777103
196	0x3ebc0e67	0.36729738
197	0xbd19b86b	-0.03752939
198	0x3d82f5e2	0.06394555
199	0x3e5bd9b5	0.21469767

onnx::LSTM_119 f4 [1, 40, 10]
0	0x3e69ec4d	0.22844048
1	0x3e6873c9	0.22700419
2	0xbe3abe51	-0.18236662
3	0x3c4fe263	0.012688252
4	0xbc7d1d57	-0.01544889
5	0x3aeef2a8	0.0018230276
6	0xbdfd8a3f	-0.12379884
7	0x3eb8861c	0.36039817
8	0xbe953dea	-0.291488
9	0xbe5c34cf	-0.2150452
10	0x3e083b91	0.13303973
11	0xbd1560a2	-0.03646911
12	0xbd43e708	-0.04782775
13	0x3e01fd9a	0.12694398
14	0xbd8d3405	-0.068946876
15	0x3de1de19	0.1102869
16	0xbe96cb0b	-0.29451784
17	0x3e48abe3	0.1959682
18	0x3db89340	0.09012461
19	0xbe00061f	-0.12502335
20	0x3d0ff8b3	0.035149287
21	0x3e6f15fe	0.23348233
22	0x3b04544b	0.0020191844
23	0xbe48c0e2	-0.19604829
24	0x3e4245c1	0.18971922
25	0xbda1a73b	-0.07893225
26	0x3e54306e	0.207216
27	0xbe621ad0	-0.2208054
28	0x3e9e5819	0.30926588
29	0x3b181f1b	0.00232119
30	0xbe5ac27d	-0.21363254
31	0x3e4d92ae	0.20075485
32	0xbe095124	-0.13409859
33	0xbe86e352	-0.26345307
34	0xbea40f70	-0.32043028
35	0x3e114583	0.14186673
36	0xbe6ee3d5	-0.23329099
37	0xbdae4d50	-0.0851084
38	0xbd8d3c63	-0.068962835
39	0xbd65e87a	-0.05612991
40	0x3e336dea	0.17522398
41	0x3dab62c2	0.08368446
42	0xbe093ba9	-0.13401665
43	0xbeaba0a2	-0.3352099
44	0x3cb4b551	0.022059115
45	0x3eb91d47	0.3615515
46	0xbe8faf9f	-0.28063676
47	0xbe81328d	-0.2523388
48	0x3dbff96f	0.093737476
49	0xbd9a57ea	-0.075362995
50	0x3deadc0c	0.11467752
51	0x3d4930f2	0.049118944
52	0x3ebbbac9	0.36665943
53	0xbe9f4c1a	-0.31112748
54	0xbcd0d94a	-0.025494236
55	0xbe317713	-0.1733058
56	0xbd4c3c0f	-0.049861964
57	0x3b90330f	0.004400618
58	0x3f052abb	0.52018327
59	0x3dda71e6	0.10666256
60	0x3e8dfd8e	0.2773251
61	0x3e8dd2ba	0.27699834
62	0x3e87eb18	0.2654655
63	0x3d84c566	0.06482963
64	0xbd832ba7	-0.064048104
65	0xbdb0068a	-0.08594997
66	0x3e8fd59f	0.28092667
67	0xbe28ec35	-0.16496356
68	0xbdd94a43	-0.106098674
69	0x3c5b1bed	0.013373357
70	0xbe8bf780	-0.27337265
71	0xbeb0f1e0	-0.34559536
72	0xbe14e5c3	-0.14540772
73	0x3d3faeed	0.04679768
74	0x3e4a2df0	0.19744086
75	0xbd96ca39	-0.0736279
76	0x3dd08472	0.10181512
77	0x3e9252f8	0.28578925
78	0xbecdc04c	-0.40185773
79	0x3c3b8671	0.011445628
80	0x3cb51b5f	0.022107778
81	0xbe9d21e6	-0.30689925
82	0xbee588c7	-0.44830915
83	0x3d52f2cf	0.05150109
84	0xbd95b71d	-0.07310317
85	0xbec66cce	-0.38754886
86	0xbdf65627	-0.12028151
87	0xbe020076	-0.12695488
88	0xbe5eae77	-0.2174624
89	0xbd33af19	-0.043868158
90	0x3d46cf5d	0.0485376
91	0x3d9b6174	0.07586947
92	0xbdf5738b	-0.11984929
93	0xbc8863c9	-0.016649144
94	0x3e320270	0.17383742
95	0xbe1f6a95	-0.15568002
96	0x3e3fd913	0.18735151
97	0x3e1d5baf	0.15367006
98	0xbe151cb5	-0.14561732
99	0x3e11a83e	0.14224336
100	0xbe7776bd	-0.24166389
101	0x3e072933	0.1319931
102	0xbe8ab701	-0.27092746
103	0x3e5e7f07	0.21728145
104	0x3c43521e	0.011921434
105	0x3e081790	0.13290238
106	0xbe7bf56b	-0.24605338
107	0xbe128610	-0.14308953
108	0xbec03d8d	-0.3754696
109	0xbe632d17	-0.22185169
110	0x3e145aee	0.14487812
111	0x3db7b599	0.08970184
112	0xbbec8241	-0.007217676
113	0xbe53ac70	-0.20671248
114	0xbe2be040	-0.16784763
115	0x3d21c196	0.03949126
116	0xbe9f85e4	-0.31156838
117	0x3dc8385f	0.09776377
118	0xbe10eae6	-0.14152107
119	0x3e99c2e9	0.30031517
120	0x3e5158cb	0.20444028
121	0x3e9c54c2	0.30533415
122	0x3e90db6b	0.28292403
123	0x3deef734	0.11668244
124	0xbe104a3d	-0.1409082
125	0xbe69f62c	-0.22847813
126	0xbe90e3ba	-0.28298742
127	0xbe932fce	-0.2874741
128	0x3e5bc23a	0.2146081
129	0x3e6ac19a	0.22925416
130	0xbd163c94	-0.036678866
131	0x3e0efb6a	0.13963094
132	0x3ddb6c8c	0.10714063
133	0x3dba811e	0.091066584
134	0xbdb2ca4e	-0.08729993
135	0x3e790569	0.2431847
136	0xbc9b3d68	-0.01895018
137	0x3e4072ec	0.18793839
138	0xbcf58447	-0.029970301
139	0xbda81701	-0.08207513
140	0x3e86a375	0.26296583
141	0x3df8e345	0.12152723
142	0xbcb682ab	-0.022279104
143	0xbdbe1536	-0.092813894
144	0xbe0ce97f	-0.13760947
145	0x3e70f7ae	0.23531982
146	0xbdb71e26	-0.08941297
147	0x3e82b485	0.2552835
148	0x3dcd407d	0.10022066
149	0xbdc00468	-0.093758404
150	0x3e8c72c2	0.27431303
151	0x3ec15daf	0.37766787
152	0xbda82cb8	-0.082116544
153	0xbe4d0f5b	-0.20025389
154	0xbec92e65	-0.3929321
155	0x3dd2d405	0.10294346
156	0x3e40fd4f	0.1884663
157	0x3eba8bbc	0.36434734
158	0x3d8b2697	0.0679447
159	0xbc1bfdec	-0.009520989
160	0x3e2baf23	0.16766028
161	0xbe076a39	-0.13224114
162	0xbe500f12	-0.20318249
163	0x3e461146	0.19342527
164	0x3e463f18	0.19360006
165	0x3e3f240e	0.18666098
166	0x3e30cbcc	0.17265242
167	0x3e29e2e9	0.16590466
168	0x3e58baf5	0.21165068
169	0x3e72873f	0.23684405
170	0x3eb993b1	0.36245492
171	0xbe86f9db	-0.263625
172	0x3c63788f	0.013883724
173	0x3e485f15	0.19567521
174	0x3e359cc1	0.17735578
175	0x3d9bf322	0.07614733
176	0x3e73e31c	0.23817104
177	0xbbb24673	-0.005440527
178	0xbe91cc46	-0.2847616
179	0x3d72b88d	0.059258033
180	0x3d9b3136	0.075777456
181	0xbeb358ea	-0.35028774
182	0xbe8bed9e	-0.27329725
183	0xbd95832a	-0.07300408
184	0xbddebb51	-0.108755715
185	0x3cd39a2c	0.02583035
186	0x3ec677d3	0.38763294
187	0xbdc593c4	-0.09647325
188	0x3d8514f1	0.06498135
189	0x3d875719	0.066084094
190	0x3e95bc92	0.2924543
191	0xbd98e6d3	-0.07465901
192	0x3ec0dcb9	0.37668398
193	0xbe73b56f	-0.2379968
194	0xbec45c57	-0.383517
195	0x3d7a58c7	0.06111982
196	0x3dd4e281	0.10394765
197	0x3defeadd	0.117147185
198	0x3e18567f	0.14876746
199	0xbe383518	-0.17989004
200	0xbc8fdbb0	-0.01756081
201	0xbec0097b	-0.37507233
202	0xbe063bb5	-0.13108714
203	0x3e8bde01	0.27317813
204	0x3e6ed5ca	0.23323742
205	0xbeb09f44	-0.3449651
206	0x3e18528c	0.14875239
207	0x3e0ac412	0.13551357
208	0x3c68eaff	0.014216184
209	0x3d1fbc6b	0.03899805
210	0x3e910d53	0.28330478
211	0x3d4fa905	0.0506983
212	0x3cf30f53	0.029670393
213	0x3e17217d	0.14758869
214	0x3e178920	0.14798403
215	0x3d68d032	0.056839176
216	0x3e9c12f9	0.30483225
217	0xbddf64ed	-0.10907922
218	0x3e8f5f72	0.28002506
219	0xbe76c6ae	-0.24099228
220	0x3bdd45e4	0.0067527164
221	0xbe296048	-0.16540635
222	0xbe3ad353	-0.18244676
223	0xbeb58b6c	-0.35457933
224	0x3e4352cd	0.19074555
225	0x3e81db4c	0.25362623
226	0x3de0b1cd	0.10971413
227	0xbe80b7d3	-0.25140247
228	0x3dcd2194	0.1001617
229	0xbeb0688c	-0.34454763
230	0xbd2440eb	-0.040100973
231	0x3e1b2b57	0.15153252
232	0x3e0070aa	0.12542978
233	0x3e1d618f	0.15369247
234	0x3d2189d9	0.039438102
235	0x3d841cb0	0.06450784
236	0xbc6f64de	-0.014611451
237	0x3e958eee	0.2921061
238	0x3c878a83	0.01654554
239	0x3e91dd4c	0.2848915
240	0xbd3ebfdf	-0.0465697
241	0x3c7172ae	0.014736814
242	0xbe76e7bf	-0.24111842
243	0xbdf00d9c	-0.11721346
244	0xbcd64b7f	-0.026159046
245	0xbe5c9990	-0.21542954
246	0xbbe96596	-0.0071227057
247	0xbdf3ac49	-0.11898095
248	0x3d8801d8	0.06640977
249	0x3e495c97	0.19664226
250	0x3ef18f38	0.4717958
251	0x3dc14539	0.09437031
252	0x3ea4154c	0.32047498
253	0x3d738b75	0.05945917
254	0xbe91ed23	-0.28501233
255	0xbe91098c	-0.28327596

onnx::LSTM_120 f4 [1, 80]
0	0xbe71dca3	-0.23619322
1	0xbda8edc4	-0.08248475
2	0x3dd2659b	0.10273286
3	0x3d65d320	0.056109548
4	0x3e09f690	0.13472962
5	0x3d73e959	0.05954871
6	0xbdbf0754	-0.093275696
7	0x3d467bbc	0.048457846
8	0xbe97b408	-0.2962954
9	0x3d854d9a	0.06508942
10	0x3d9d837b	0.076910935
11	0x3e6aa193	0.22913198
12	0x3ed734e6	0.42032546
13	0x3e13bf57	0.14428459
14	0x3e644a5b	0.2229399
15	0xbe690383	-0.22755246
16	0xbe7b5705	-0.24544914
17	0x3eaec6ee	0.34136146
18	0x3ca3804d	0.01995864
19	0x3e54bb29	0.20774521
20	0xbd25ec19	-0.040508363
21	0x3d619bc1	0.05508018
22	0x3e6acd89	0.22929968
23	0x3e8dbde4	0.27683938
24	0xbb901aa6	-0.004397708
25	0xbe08430f	-0.13306831
26	0x3ce71951	0.028210314
27	0xbe0625d9	-0.13100375
28	0xbe87f3e3	-0.26553258
29	0xbdeef7df	-0.116683714
30	0xbba350ab	-0.0049839816
31	0xbe3a7a4a	-0.18210712
32	0x3d5d3c40	0.054012537
33	0x3e83374d	0.2562813
34	0xbd898457	-0.06714695
35	0x3ea9835d	0.33108035
36	0xbd9d863f	-0.07691621
37	0x3e52f76c	0.20602196
38	0xbeb9d5f6	-0.36296052
39	0x3e89ed15	0.26938692
40	0xbe537c22	-0.20652822
41	0x3e5ead2a	0.21745744
42	0x3df8ab27	0.1214202
43	0x3e8ca7ff	0.2747192
44	0xbd3611af	-0.04445046
45	0xbc1ab3c0	-0.00944227
46	0x3ea30b00	0.3184433
47	0x3c2261e9	0.009911039
48	0xbe7047e6	-0.23464927
49	0x3e2ca4d9	0.1685976
50	0xbd6e532e	-0.058184795
51	0x3ee0b28e	0.43886226
52	0x3e480ec8	0.19536889
53	0x3dfcc50b	0.123422705
54	0x3e5c2e86	0.21502122
55	0x3e606c7f	0.21916388
56	0xbe7d3802	-0.24728397
57	0x3de5e3a7	0.11225062
58	0x3bce6f39	0.00629988
59	0xbe7280e7	-0.23681985
60	0xbec7e96a	-0.39045268
61	0x3e4f0f0b	0.20220582
62	0xba8aacda	-0.0010580078
63	0x3e529367	0.20564042
64	0xbe1cf627	-0.15328275
65	0xbcd3df08	-0.025863186
66	0xbde996b9	-0.11405701
67	0x3eae6d88	0.3406794
68	0xbe9fb50e	-0.3119282
69	0xbe485441	-0.1956339
70	0x3d416105	0.047211666
71	0xbe8fec5e	-0.2811002
72	0xbdd96ba6	-0.106162354
73	0x3eb0d88a	0.34540206
74	0xbd0c30e6	-0.03422632
75	0x3dfed270	0.124424815
76	0xbe8a5ac0	-0.27022362
77	0xbe54e815	-0.20791657
78	0x3d049a12	0.032373495
79	0xbca8f4ea	-0.020624597
