models/CMS_model.onnx (onnx, 40199 bytes, 5 tensors)

fc.weight f4 [5, 10]
0	0x3c0e65a6	0.008691227
1	0xbcbc4188	-0.022980466
2	0xbe04b715	-0.12960465
3	0x3d63d6ea	0.05562488
4	0xbea81490	-0.32828188
5	0x3d88a87c	0.06672761
6	0x3f02933b	0.51005906
7	0x3ed90b7e	0.4239158
8	0xbcfe89bc	-0.031071536
9	0x3e9e6a80	0.30940628
10	0xbdf907f4	-0.1215972
11	0xbea5396d	-0.32270375
12	0xbeae0150	-0.33985376
13	0x3e7a9b9c	0.24473423
14	0xbeb8d859	-0.3610256
15	0x3e7441a5	0.23853166
16	0x3e3e0ea0	0.18560266
17	0x3ea113da	0.31460458
18	0xbce0e8d8	-0.027454779
19	0x3ae21d8b	0.0017251236
20	0xbe68992b	-0.22714679
21	0xbed4ec2c	-0.41586435
22	0xbed7ff06	-0.42186755
23	0xbc98b111	-0.01863912
24	0xbe258e87	-0.16167651
25	0x3e2ab5f6	0.16670975
26	0x3daba613	0.083812855
27	0x3dd4c30c	0.10388765
28	0x3df68ee7	0.12038975
29	0x3e3f663c	0.18691343
30	0xbedf278c	-0.4358486
31	0x3e490fe4	0.19634968
32	0xbd802baf	-0.06258332
33	0x3e79f80b	0.24411027
34	0xbe3263ed	-0.17420931
35	0xbc025a6f	-0.007956131
36	0x3e8dd050	0.27697992
37	0xbf2848a6	-0.6573585
38	0xbcd49b4c	-0.025952958
39	0xbe85d1da	-0.26136667
40	0xbefa0e3b	-0.48838982
41	0xbeb0fa6f	-0.34566066
42	0xbdb761f5	-0.08954231
43	0xbe0f1f0d	-0.13976689
44	0xbea461d9	-0.32105902
45	0x3de68231	0.11255301
46	0xbda71064	-0.08157423
47	0x3eb6c766	0.35699004
48	0xbd6e6b0d	-0.05820756
49	0x3da5236e	0.08063398

fc.bias f4 [5]
0	0x3e623c88	0.22093403
1	0x3da32b74	0.079672724
2	0xbe02a83c	-0.12759489
3	0x3dc71552	0.097208634
4	0xbd276202	-0.040864952

onnx::LSTM_118 f4 [1, 40, 5]
0	0x3ec0175b	0.3751782
1	0x3e55a6b8	0.2086438
2	0xbd7961ec	-0.0608844
3	0x3f0f691c	0.5601976
4	0x3dbc842b	0.092048965
5	0x3d0a1aa9	0.03371683
6	0x3e569bef	0.20957921
7	0x3ec8573a	0.3912905
8	0xbe912b4e	-0.2835335
9	0x3ee0389f	0.43793198
10	0x3e0c4f4c	0.13702124
11	0x3eda52f2	0.42641407
12	0x3ecb7dce	0.3974442
13	0x3ed1baec	0.40962923
14	0x3eab3cff	0.33444974
15	0x3dce9baf	0.10088288
16	0x3df74096	0.12072866
17	0x3e5534f3	0.2082098
18	0xbdfa06f4	-0.122083575
19	0x3da065b0	0.07831895
20	0x3d6dba59	0.058039043
21	0x3ee7e9c5	0.4529554
22	0x3de2d839	0.110763974
23	0x3e4e0e0c	0.20122546
24	0xbd6f45d3	-0.0584162
25	0xbd8abbb5	-0.067740835
26	0xbe1372d2	-0.14399269
27	0xbe8055ae	-0.25065368
28	0xbebc7107	-0.36804983
29	0xbe8fc839	-0.28082445
30	0xbcc0158d	-0.023447776
31	0xbe1c0962	-0.15237954
32	0x3dcc3af5	0.09972183
33	0x3eb4cbd7	0.35311767
34	0xbbdd3323	-0.0067504807
35	0x3e8fbfd9	0.28076056
36	0xbd0eaa25	-0.03483023
37	0x3e88daa3	0.26729307
38	0x3d3cfdad	0.04614036
39	0x3dfed894	0.12443653
40	0x3e351ad7	0.1768602
41	0xbc959caa	-0.01826318
42	0x3db25564	0.08707693
43	0xbed1d23d	-0.40980712
44	0xbedf3b03	-0.4359971
45	0x3e4c3777	0.19943033
46	0xbc40aac4	-0.011759464
47	0x3e6248e7	0.22098123
48	0xbe29327c	-0.16523165
49	0xbd500914	-0.050789908
50	0x3e037967	0.1283928
51	0x3eb8d12c	0.36097085
52	0x3e15ba77	0.14621912
53	0x3f1bc40b	0.6084601
54	0x3ea32fd9	0.31872442
55	0x3e94c8f9	0.2905958
56	0x3ec84aef	0.3911967
57	0x3f25eeae	0.6481732
58	0xbebd0c93	-0.36923656
59	0x3ee14367	0.43996736
60	0x3f05e2a9	0.5229898
61	0x3f13e517	0.5777144
62	0x3f1d2822	0.6138936
63	0xbdf391a2	-0.11893012
64	0x3f07dd44	0.53072
65	0xbe6062cf	-0.21912692
66	0xbeedfa37	-0.4647996
67	0x3d190491	0.03735787
68	0xbf24c2ae	-0.6435956
69	0xbef6feac	-0.48241174
70	0x3e6f78e6	0.23385963
71	0x3f158552	0.58406556
72	0x3f0f3cce	0.55952156
73	0x3e4d1483	0.20027356
74	0x3dc85eb2	0.09783687
75	0xbebf4be2	-0.37362581
76	0xbd34162c	-0.043966457
77	0x3cd7e36e	0.026353564
78	0xbe9333d4	-0.2875048
79	0xbd75e9a8	-0.060037285
80	0x3d8f8327	0.07007437
81	0xbcec34df	-0.028833805
82	0x3ea62e6b	0.3245729
83	0xbe8171b3	-0.25282058
84	0xbe02a2cc	-0.12757415
85	0xbcd2ad65	-0.025717447
86	0x3de411ef	0.11136233
87	0x3e915068	0.28381658
88	0x3f098831	0.53723437
89	0xbd881fb9	-0.066466756
90	0xbe70437c	-0.23463243
91	0x3e1f5110	0.15558267
92	0xbe69e6f5	-0.2284201
93	0xbea3b4d8	-0.3197391
94	0xbe79c2c6	-0.24390706
95	0x3eab23d8	0.33425784
96	0x3f0c3974	0.54775167
97	0x3f126018	0.5717788
98	0xbede0217	-0.4336097
99	0x3e21b8b2	0.15793112
100	0xbe5da434	-0.2164467
101	0x3ea8002d	0.32812634
102	0x3ea74014	0.32666075
103	0x3f14b36e	0.5808629
104	0x3ee54632	0.44780117
105	0x3ec6577d	0.38738623
106	0x3ebd812c	0.37012613
107	0x3ed9814c	0.42481458
108	0xbf27cf20	-0.6555042
109	0x3ef6c9c1	0.482008
110	0x3eaa1400	0.33218384
111	0x3d9c84e5	0.07642535
112	0x3c69792c	0.014250081
113	0xbe23f0d2	-0.16009834
114	0x3e89661e	0.26835722
115	0xbc6be510	-0.0143978745
116	0xbe870107	-0.2636797
117	0x3e18dcf3	0.14928035
118	0xbe89c5b7	-0.26908657
119	0xbe6e6653	-0.23281221
120	0x3e73f22e	0.23822853
121	0x3e91101f	0.28332612
122	0x3b77aa34	0.0037790658
123	0x3d5a6fbd	0.05332922
124	0x3e9e052e	0.30863327
125	0xbef4b375	-0.47793165
126	0xbe83e186	-0.25757998
127	0xbe49480d	-0.19656391
128	0x3dbfdc1d	0.09368155
129	0xbec96ee3	-0.39342412
130	0xbe9ab54b	-0.3021644
131	0xbe04ab54	-0.12955981
132	0x3e1a3206	0.15058145
133	0xbe710b78	-0.23539531
134	0xbea4267a	-0.32060605
135	0xbe541431	-0.20710827
136	0xbeae7a67	-0.3407776
137	0xbe7fde8f	-0.24987243
138	0xbe1be6c9	-0.15224756
139	0xbe5fb509	-0.21846403
140	0xbeb05928	-0.3444302
141	0xbe9243fc	-0.28567493
142	0xbec7f2ea	-0.39052516
143	0xbe12ff55	-0.14355214
144	0xbd6362d0	-0.055514157
145	0x3b8ccedb	0.00429712
146	0x3e79a98b	0.24381082
147	0x3eee741d	0.46572962
148	0x3c30797a	0.01077115
149	0x3d09bab2	0.033625312
150	0xbe079994	-0.13242179
151	0xbe93ec5f	-0.28891274
152	0x3c73083e	0.014833508
153	0xbea2f579	-0.31827906
154	0xbec5afd8	-0.3861072
155	0x3d280920	0.041024327
156	0xbe76f3af	-0.24116395
157	0xbe214e60	-0.15752554
158	0x3da4ca3c	0.08046386
159	0xbefb645d	-0.4910001
160	0xbea99592	-0.33121926
161	0x3c7890a4	0.015171204
162	0xbe2a22b1	-0.16614796
163	0xbd050c41	-0.03248239
164	0x3d556d0a	0.05210594
165	0xbddd92dc	-0.10819027
166	0xbe9fc1d1	-0.31202558
167	0xbeb695d9	-0.356612
168	0xbe919a23	-0.2843791
169	0x3dbca3de	0.09210943
170	0xbe6ad1a8	-0.2293154
171	0xbeb244c9	-0.34818104
172	0xbdb0c625	-0.08631543
173	0xbe887b06	-0.2665636
174	0x3d9b62ec	0.07587227
175	0x3e43b34e	0.19111368
176	0xbdf82d36	-0.12117998
177	0x3e977569	0.29581764
178	0xbe86ff2b	-0.26366553
179	0x3ea9c85c	0.33160675
180	0x3dfdbb4b	0.12389239
181	0x3ebbdc6b	0.36691603
182	0x3ea144d9	0.3149784
183	0x3f06e7c7	0.52697414
184	0x3edff0c1	0.43738368
185	0x3e433d9d	0.19066472
186	0x3e9f0597	0.31058952
187	0x3ea99722	0.33123118
188	0xbf11b99b	-0.56923836
189	0x3ed88c0b	0.42294344
190	0x3e7d29b0	0.24722934
191	0x3d995ca3	0.07488372
192	0xbcf69386	-0.030099642
193	0x3dd76299	0.10516853
194	0xbe16b1f7	-0.14716326
195	0x3e26cb81	0.16288568
196	0x3e97f90c	0.29682195
197	0xbe38f3f6	-0.18061814
198	0xbec86c82	-0.39145285
199	0x3e690467	0.22755586

onnx::LSTM_119 f4 [1, 40, 10]
0	0xbd64d0a2	-0.05586303
1	0xbd988411	-0.07447065
2	0xbe8ce90c	-0.2752155
3	0xbd5406b0	-0.05176419
4	0x3d2159a5	0.039392132
5	0xbcb0738c	-0.021539472
6	0xbef9aff5	-0.48767057
7	0xbd147998	-0.036248773
8	0x3cd31f3b	0.025771728
9	0xbe12ba7b	-0.14328949
10	0x3d2676cd	0.04064064
11	0x3ea5393b	0.32270226
12	0x3ec22441	0.37918285
13	0x3e928af8	0.2862165
14	0x3e5568ed	0.20840807
15	0x3ef1fa33	0.472612
16	0xbe924523	-0.28568372
17	0xbbaf9338	-0.005358126
18	0xbf015acb	-0.50529164
19	0x3c98a5bc	0.018633716
20	0xbe6354ea	-0.22200361
21	0xbe568cb3	-0.2095211
22	0xbc7fc652	-0.015611248
23	0xbdbc3dc4	-0.09191468
24	0x3e8efc24	0.27926743
25	0x3d5c6989	0.053811584
26	0xbcff5d1c	-0.031172328
27	0x3ee19712	0.4406057
28	0xbee615e1	-0.44938567
29	0xbe4a63cd	-0.19764633
30	0xbe3339ff	-0.17502593
31	0x3c890298	0.01672487
32	0xbe3ceaa8	-0.1844889
33	0xbe4a29f0	-0.1974256
34	0xbd78965f	-0.06069028
35	0x3e8963f3	0.26834068
36	0xbd8bdec4	-0.068295985
37	0xbea70a2c	-0.32624948
38	0xbe03565a	-0.1282591
39	0x3e8433b2	0.2582069
40	0xbe99569b	-0.29948887
41	0xbec741b6	-0.3891732
42	0x3cdbdacc	0.026837729
43	0x3ea5f2d3	0.32411823
44	0x3dcd36cb	0.100202166
45	0x3ee94292	0.45558602
46	0xbd90251a	-0.070383266
47	0x3e96118b	0.2931026
48	0xbe8eadb8	-0.27866912
49	0xbdf8d782	-0.1215048
50	0x3e93fbd7	0.28903076
51	0xbdf5fa41	-0.12010623
52	0x3d87c5e3	0.06629541
53	0x3da8c0ef	0.08239924
54	0x3df33e0b	0.11877068
55	0x3e8f383a	0.27972585
56	0x3ec73fb2	0.38915783
57	0x3d83414f	0.06408941
58	0x3ed0b90e	0.40766186
59	0xbea23bf8	-0.31686378
60	0xbde6ddd9	-0.11272783
61	0xbdbf7803	-0.09349062
62	0xbee73b16	-0.45162266
63	0xbf14892b	-0.580218
64	0x3ec3f028	0.38269162
65	0x3d9c0443	0.07618
66	0xbe755419	-0.23957862
67	0xbf34fb99	-0.7069641
68	0xbd0d81e7	-0.034547713
69	0x3e34b4a2	0.17647031
70	0xbead31cd	-0.33827057
71	0xbe84b64c	-0.2592033
72	0x3d22c4e5	0.039738555
73	0xbf0fd956	-0.56191003
74	0xbda53ccc	-0.08068237
75	0xbec84820	-0.39117527
76	0xbf944290	-1.1582813
77	0x3ded2170	0.11578643
78	0x3f167a81	0.58780676
79	0x3e0fa20f	0.14026664
80	0x3e4a820b	0.1977617
81	0x3d4e7ce8	0.05041209
82	0xbe28b048	-0.16473496
83	0xbeb582fb	-0.35451493
84	0xbde4925d	-0.11160729
85	0x3e7973ef	0.24360631
86	0x3e8bc1ce	0.272963
87	0x3e4b66e4	0.19863468
88	0xbe385940	-0.18002796
89	0xbd922bc9	-0.071372576
90	0xbe88136e	-0.26577324
91	0xbd306295	-0.043062765
92	0xbddaa83d	-0.1067662
93	0xbe837bce	-0.25680393
94	0xbe8ccb21	-0.27498725
95	0x3ee23416	0.44180363
96	0x3eabbe87	0.33543798
97	0x3e2073c3	0.1566916
98	0x3c3334fb	0.0109379245
99	0xbd8fab16	-0.07015054
100	0xbead842f	-0.3388991
101	0xbd8d8d6e	-0.06911741
102	0xbe7a2f2e	-0.2443206
103	0xbe50454b	-0.20338933
104	0x3d2db69f	0.04241049
105	0xbd7079a4	-0.058709756
106	0x3c925867	0.01786442
107	0xbdb53cb7	-0.08849471
108	0x3d36ed4e	0.044659905
109	0x3e29d965	0.16586836
110	0xbd997821	-0.07493616
111	0xbede2ed9	-0.43395117
112	0x3c6d38cf	0.014478876
113	0x3e3b6445	0.18299969
114	0x3dd41161	0.10354877
115	0x3eb68152	0.3564554
116	0xbe588706	-0.21145257
117	0xbdc078b8	-0.09398025
118	0x3cd88847	0.02643217
119	0xbcfe756e	-0.031061854
120	0xbdbdba94	-0.092641026
121	0x3e4b99b0	0.19882846
122	0x3ea72dbe	0.32652086
123	0x3ea7c66f	0.3276858
124	0x3e24158a	0.16023842
125	0x3ec78d24	0.3897487
126	0xbe53e6a9	-0.20693459
127	0x3d2bbb4a	0.04192666
128	0xbeb4bb86	-0.3529932
129	0xbdb9020c	-0.090335935
130	0x3e9755e7	0.29557726
131	0x3e8a4d2b	0.27012
132	0xbe55ca2e	-0.20877907
133	0xbe5c1fda	-0.21496525
134	0x3e838f3b	0.25695214
135	0x3c9281c0	0.017884135
136	0x3ecff494	0.40616286
137	0x3d97a26d	0.07404027
138	0x3bea98ec	0.007159343
139	0xbe2c1827	-0.16806088
140	0xbebb9e09	-0.3664401
141	0xbef25f53	-0.47338352
142	0x3e0393f6	0.12849411
143	0xbb1d59b4	-0.0024009766
144	0xbee8f516	-0.45499486
145	0x3ef0ad8c	0.47007406
146	0x3ddfce14	0.10927978
147	0x3eaf5269	0.3424256
148	0xbe9aca66	-0.30232543
149	0xbccfcd94	-0.025366582
150	0xbe08e5d4	-0.13368922
151	0x3e856211	0.2605138
152	0x3dca8a88	0.09889704
153	0xbe588d64	-0.21147686
154	0xbe84f763	-0.2596999
155	0x3d58adbf	0.052900072
156	0xbd63c19c	-0.055604562
157	0xbe0c04cd	-0.13673706
158	0x3e2eb90d	0.17062779
159	0x3e8d0ca4	0.27548707
160	0xbf17708c	-0.5915611
161	0xbe865009	-0.26232937
162	0xbe0d239c	-0.13783115
163	0xbe75f9d8	-0.24021089
164	0xbe5225aa	-0.2052218
165	0x3d672416	0.0564309
166	0xbd242049	-0.040069852
167	0xbea249dd	-0.31696978
168	0xbd1eadf5	-0.038740117
169	0x3de5f794	0.112288624
170	0xbe340235	-0.17578967
171	0xbed1df6a	-0.40990764
172	0xbdacdc37	-0.0844044
173	0xbe576d89	-0.21037878
174	0xbe6826e3	-0.22671084
175	0xbde1987e	-0.11015414
176	0xbf6ecd36	-0.9328188
177	0xbe0ea769	-0.1393105
178	0x3e201f12	0.15636852
179	0x3e8a5c56	0.27023572
180	0xbd33084a	-0.043709077
181	0x3edeee61	0.43541244
182	0x3e818005	0.25292984
183	0x3d799559	0.060933445
184	0x3d8bafc4	0.06820634
185	0x3eaca785	0.33721557
186	0xbe2c3e16	-0.16820559
187	0xbda04bb0	-0.07826936
188	0xbc178efc	-0.009250399
189	0xbdc55c6a	-0.09636767
190	0x3e6e5c61	0.23277427
191	0xbedb5ea6	-0.4284565
192	0xbd956d98	-0.07296294
193	0xbd2d59e0	-0.04232204
194	0xbd2c09e6	-0.042001627
195	0x3e4471d6	0.1918405
196	0x3e0d1729	0.13778366
197	0x3df12216	0.117740795
198	0xbbc5efdc	-0.0060405564
199	0xbdf9e17e	-0.12201212
200	0x3e718539	0.23585977
201	0x3ebe2a4e	0.3714165
202	0xbdc37104	-0.095430404
203	0x3ef24443	0.47317705
204	0x3bf14c57	0.0073638367
205	0x3c8cb2f7	0.01717518
206	0xbe9a8a3e	-0.30183595
207	0x3e37173d	0.17879958
208	0xbce3a640	-0.027789235
209	0x3e0de28b	0.1385595
210	0x3ed4b8db	0.41547284
211	0x3d846121	0.06463838
212	0x3e0c44af	0.13698076
213	0xbd8fb15a	-0.07016249
214	0xbdb33f26	-0.08752279
215	0xbcf4496f	-0.029820172
216	0xbd571213	-0.05250747
217	0x3e53ff6c	0.20702904
218	0xbdc45d66	-0.09588127
219	0xbe86bd02	-0.26316077
220	0xbe9b3c56	-0.3031947
221	0x3e17442f	0.14772104
222	0xbdd9b214	-0.10629669
223	0x3d3d1950	0.046166718
224	0xbd1e45ed	-0.038640905
225	0x3ed4c8ce	0.41559452
226	0xbe333726	-0.17501506
227	0x3ee3aa8c	0.44466054
228	0x3da6851e	0.08130859
229	0xbe0b4569	-0.13600697
230	0xbe2d4917	-0.16922413
231	0x3d6bd7ca	0.05757884
232	0x3d93f209	0.07223899
233	0xbe1529ee	-0.14566776
234	0x3dddc5e4	0.1082876
235	0x3eca5300	0.3951645
236	0xbdc4a851	-0.09602416
237	0xbeb8a87a	-0.36066037
238	0x3e8dee19	0.27720717
239	0x3e4012ea	0.18757215
240	0x3db1f2d2	0.086888924
241	0x3d50a26f	0.05093616
242	0xbe6bc684	-0.23024946
243	0x3d8237bb	0.06358286
244	0xbe74e934	-0.23917085
245	0x3e912b23	0.28353223
246	0xbe9c68a9	-0.305486
247	0x3e8ed93d	0.27900115
248	0xbecef1e3	-0.4041892
249	0xbd2da249	-0.042391095
250	0x3e7e1873	0.24814014
251	0x3dae4d5c	0.08510849
252	0xbdd2fd1d	-0.10302184
253	0x3da9a5ad	0.08283553
254	0xbd2dca18	-0.04242906
255	0x3e881f5f	0.26586434

onnx::LSTM_120 f4 [1, 80]
0	0xbd56dfe6	-0.05245962
1	0x3d4b537f	0.049640175
2	0xbe580291	-0.21094729
3	0x3e9e8714	0.3096243
4	0x3e562561	0.20912696
5	0xbe14a218	-0.14514959
6	0xbdc2e2e0	-0.09515929
7	0x3e89c17c	0.2690543
8	0xbdcf8584	-0.10132888
9	0xbe5ab687	-0.21358691
10	0x3e9a68aa	0.30157977
11	0x3e75e78f	0.24014114
12	0x3e7d13aa	0.24714532
13	0xbeca7ea1	-0.39549735
14	0x3eb961d7	0.36207458
15	0xbe78194f	-0.24228404
16	0xbdfcb659	-0.123394676
17	0x3f00c4c4	0.5030024
18	0xbcaac8b8	-0.020847663
19	0x3d8162f4	0.06317702
20	0x3d598818	0.053108305
21	0xbdc5f261	-0.09665371
22	0x3d6654af	0.056233104
23	0xbd4db3e0	-0.05022037
24	0xbe1fa10b	-0.15588777
25	0xbd031bb4	-0.03200884
26	0x3e21af5f	0.15789555
27	0x3de9f0a9	0.114228554
28	0xbeca06dc	-0.39458358
29	0xbee8e8d3	-0.4549013
30	0x3e609372	0.21931246
31	0xbe3694ed	-0.17830248
32	0xbec84159	-0.39112356
33	0xbd7f91cb	-0.0623949
34	0x3dfdc53f	0.12391137
35	0x3d369c08	0.044582397
36	0xbe20e5be	-0.1571264
37	0x3c061472	0.0081835855
38	0xbe11938d	-0.14216442
39	0x3e382b70	0.1798532
40	0x3e02ec82	0.12785533
41	0x3dac2518	0.084055126
42	0x3e08f573	0.13374881
43	0xbdfaf4be	-0.12253712
44	0x3d2f4f4c	0.042800233
45	0xbe82a713	-0.25518093
46	0xbe1568d3	-0.14590769
47	0xbd82f145	-0.06393675
48	0x3d2007ba	0.03906987
49	0xbc190acf	-0.009340956
50	0xbdd60628	-0.10450393
51	0xbe133a49	-0.14377703
52	0xbe82afad	-0.25524655
53	0xbd8e29b0	-0.06941545
54	0xbcae19e3	-0.021252578
55	0x3dc0e3af	0.09418427
56	0x3eda7926	0.42670554
57	0x3dc8fa2b	0.09813341
58	0xbe8a3a72	-0.26997715
59	0x3caea7ae	0.02132019
60	0x3e81ba93	0.25337657
61	0xbe8ed972	-0.27900273
62	0x3d5c1517	0.05373105
63	0x3d86203f	0.06549119
64	0xbd8faed1	-0.070157655
65	0xbd719258	-0.058977455
66	0xbe2919ba	-0.1651372
67	0xbe3b7fa5	-0.18310411
68	0x3dcb0a85	0.09914116
69	0xbe84a89f	-0.25909898
70	0xbe9719eb	-0.2951196
71	0x3dd4f6af	0.10398614
72	0xbec967dc	-0.3933705
73	0xbdc80643	-0.09766819
74	0xbe1c3d0f	-0.15257667
75	0xbdf45f50	-0.11932242
76	0xbe89aea7	-0.26891062
77	0xbeb02d47	-0.34409544
78	0x3e90526d	0.28187886
79	0xbad75545	-0.001642861
