models/CNC_model.onnx (onnx, 40199 bytes, 5 tensors)

fc.weight f4 [5, 10]
00000000: 266d 05be bf18 74bd 8775 a5be dc85 9e3d
00000010: 757b 4dbe 545d a1be 3568 f13d 966e cebe
00000020: fb7a 593e 1f4f c8be 0d11 4bbe 8a10 803d
00000030: b4cc d2be 251a 043f c74a cabd e740 acbe
00000040: f960 8f3e 4c70 a8bd 8ba9 333e a990 98bc
00000050: 902b 93be 3160 c13e 628f 2cbe d9b9 3b3e
00000060: 030f c43d b7f9 1fbd be36 b5be ddb3 bebe
00000070: 40ca 093e 99be f3be 597e 1c3d fd56 363e
00000080: e377 5c3e 56ab 1b3e f092 443e aac6 273e
00000090: d7a3 b6bd 9bc3 30be 185d 273e 99ef c73b
000000a0: 2e22 82be 7faa 723e 58f0 6dbe 31e5 cf3e
000000b0: 6d24 79be f478 51be 6636 91bd 3ef5 0fbb
000000c0: 6a24 ad3d bce0 32be
-0.13029918 -0.059593912 -0.3231623 0.077403754 -0.20066626 -0.31516516 0.11787454 -0.40318745
0.2123832 -0.39122865 -0.19830723 0.062531546 -0.411718 0.51602393 -0.09877544 -0.33643267
0.28003672 -0.08224544 0.17545144 -0.018623667 -0.28744173 0.377687 -0.16851571 0.18332614
0.09573176 -0.039056506 -0.35393327 -0.372466 0.13456059 -0.47606352 0.038206432 0.17806621
0.21530108 0.15202078 0.19196677 0.16384378 -0.08917969 -0.17262118 0.16344106 0.0061015603
-0.25416702 0.23697852 -0.23236215 0.40604547 -0.24330302 -0.20456296 -0.07090454 -0.0021966244
0.08454211 -0.17468542

fc.bias f4 [5]
00000000: ff4b 4bbb 7be7 2a3e 8e94 52bd 4c48 a93d
00000010: 7350 a03d
-0.003102064 0.16689865 -0.051411204 0.08265743 0.078278445

onnx::LSTM_118 f4 [1, 40, 5]
00000000: 9993 0fbe 21a3 33bd 6163 463e 975b 83bd
00000010: 9773 ea3e 82b5 9e3e d5d1 ba3e b5db d13c
00000020: d40e 583e 2740 c73d e89e 823e 8e63 da3d
00000030: f7a3 a93e b425 2fbe 1b85 f73d 76d4 503e
00000040: fac1 b9bd c2a8 b23e 3fa7 a4be 5a18 36be
00000050: 52e6 1e3d f720 003e 28a4 cb3c 8375 cbbe
00000060: 83f2 cd3e ca3a a7bd 3552 e13e 43ff 523e
00000070: 89d4 e1bc e7a0 243e 6894 c9be 2934 9abe
00000080: 9183 fa3c d2ef 603e 7eb0 8ebe 4501 7fbd
00000090: 1472 f9bd 0e72 9a3e 11cb aa3d eeb3 333e
000000a0: 1c98 dcbd 5f4a b1be fe2d afbd d5a5 d93c
000000b0: e253 2abe c032 133d 7311 b03e f811 d1bd
000000c0: 5d21 fc3c 8bf9 5e3e 759a 77bc 90ac 803d
000000d0: 5d51 a43d 3bf8 883e 905e 903d 84f7 9d3d
000000e0: ac7f 7d3d 91ee 413e 6a14 0f3e fd8d e83d
000000f0: 0b29 863e 1e3c 2d3e 0bc5 a23d f2c1 b2be
00000100: 9019 0c3e 9c4d 3a3b ff0f b63e dff2 ea3e
00000110: 6f49 39ba f6a9 7fba 79bd 22bd fe13 d93e
00000120: 2e68 d63e 9804 89be 97b1 f33e 6541 823e
00000130: de4d 663d 93ee da3e 4323 82bd aebc a93c
00000140: 1148 97be b5c7 3e3d 78e5 3ebe 6d53 8bbe
00000150: 9278 50be 7ee9 df3e c222 983e a0a6 e9bc
00000160: da91 b63e 918d 9a3e 9398 2f3d 1b9d 833d
00000170: df37 ccbd 09e9 eabe bf56 fdbe 6fa5 41bc
00000180: 8806 d33d df48 da3e c44a 5fbe 98ae 0b3f
00000190: 2cc8 363e 2986 b5bd f54c 503e 9e40 6bbe
000001a0: 4022 aa3e b9c9 163e 6c34 893e 0e69 a03e
000001b0: 4e3d b3bd 146e 353e 9ca9 ec3e db24 cebd
000001c0: 8ce2 19bd d989 6bbe 294e 143e e6e7 3cbd
000001d0: 8be8 89be 2421 753d c6bf 363d d640 71bd
000001e0: ee42 f33d ec4d f93d 852e 003d d581 27bd
000001f0: bf40 533e 5ed3 fdbd 98a3 303e 4466 c63e
00000200: 4a55 273c df56 b5bd a18b aa3d bda1 503e
00000210: 0589 71bb 85ae 92be 44cd 1dbe 3218 953e
00000220: 4714 c43e 2823 d83e 6646 f6bd f28d 843e
00000230: 5b26 48be 886f 55bc 7f84 2dbd 036c cbbe
00000240: 28eb 1bbd 2abb 3a3e fc2d e53e 97d7 44bc
00000250: da69 f43d ccc8 073d e299 6ebe db10 91bd
00000260: fce6 b5be 709f e63d 1e84 053e d85b b83d
00000270: f4aa ac3e b597 713e 921b a63d 70b5 f439
00000280: 13c6 53bc f6bb 92be e2f8 19be bb84 b53e
00000290: de85 67be 00ab a13e d7c9 ca3e 8858 803e
000002a0: ab47 f6bc 90ab 3c3d a1a3 31be ccbf efbc
000002b0: ff09 cf3d 0c65 903b 3464 e2be 32f3 2e3e
000002c0: 3644 08be adb6 a3be ff96 c33c 53d6 c9be
000002d0: 9cc2 0bbd b84b 7c3e c84c 4c3e fe3e df3e
000002e0: 116a 303d 6e17 0abe 5646 cbbe 7f71 bf3d
000002f0: 49de f6bc 64fd dfbe 091e c5bd 8db7 033e
00000300: 2ab7 0fbc c999 773e eb49 593e eefe debe
00000310: 23aa a1be 7151 2ebe bf74 16be ad4f 823d
-0.14021148 -0.043856744 0.19373848 -0.06413954 0.45791313 0.30997854 0.36488214 0.02561746
0.21099406 0.09729033 0.2551186 0.1066352 0.33132908 -0.17104226 0.12085935 0.20393547
-0.09070201 0.34894377 -0.3215885 -0.17782727 0.03879387 0.12512575 0.02485855 -0.39738092
0.40224084 -0.0816551 0.4400803 0.20605187 -0.027567165 0.16077004 -0.39371037 -0.3011792
0.030580314 0.21966484 -0.27869028 -0.06225707 -0.12179962 0.30165142 0.08339513 0.17549106
-0.107712 -0.34627053 -0.08553694 0.026568333 -0.16633561 0.03593707 0.34388313 -0.102085054
0.030777628 0.2177488 -0.015112509 0.06282914 0.08023331 0.26751885 0.07049286 0.077132255
0.061889336 0.18938662 0.13972631 0.11355207 0.26203188 0.16917464 0.07947739 -0.34913594
0.13681626 0.0028427606 0.3555908 0.4588842 -0.00070681324 -0.0009752804 -0.039731476 0.42398065
0.41876358 -0.26761317 0.47596428 0.25440517 0.056226604 0.42760143 -0.06354382 0.020719852
-0.2954717 0.046577174 -0.18642223 -0.27212086 -0.20358494 0.43732828 0.29714018 -0.028521836
0.3565815 0.30186132 0.042870115 0.0642645 -0.09971594 -0.45880917 -0.49480245 -0.011819228
0.1030398 0.4263372 -0.21805865 0.54563284 0.17849797 -0.0886348 0.20341857 -0.22973868
0.33229256 0.14725389 0.26797807 0.3133015 -0.08751927 0.17717773 0.46223152 -0.100656234
-0.037569568 -0.23001803 0.1448294 -0.046119593 -0.2693523 0.05984606 0.044616483 -0.058899723
0.11878 0.121730655 0.031294364 -0.0408953 0.20630167 -0.12393831 0.17249906 0.38749897
0.010213206 -0.0885446 0.08327413 0.20374198 -0.0036855352 -0.28648773 -0.15410334 0.29120022
0.3829672 0.42214322 -0.12025146 0.25889546 -0.19545881 -0.013027079 -0.042362686 -0.39730844
-0.03806606 0.1823546 0.44761646 -0.012014291 0.11934252 0.03315048 -0.23300889 -0.07083293
-0.3552779 0.11260879 0.1303868 0.09001893 0.33724177 0.23593028 0.08110727 0.00046674488
-0.012925643 -0.28659028 -0.15036348 0.35452828 -0.2260966 0.31575775 0.39607117 0.25067544
-0.03006347 0.046062052 -0.17347576 -0.02926626 0.101093285 0.004406577 -0.44217074 0.17084959
-0.1330727 -0.31975308 0.023875711 -0.3942133 -0.03412114 0.2463826 0.19951165 0.43602747
0.043069903 -0.134855 -0.397021 0.093478195 -0.03013529 -0.4374801 -0.096248694 0.12862988
-0.008771697 0.24179758 0.21219604 -0.4355387 -0.31575117 -0.17023255 -0.14692973 0.06362853

onnx::LSTM_119 f4 [1, 40, 10]
00000000: e37e edbd 481d 6fbe 6321 00be d0d3 b5bc
00000010: 1204 a4bd 1310 6cbe 64f4 97be 2b0e 7dbe
00000020: 8253 913e f7df 87be 82b1 f73d f450 a3bd
00000030: d787 98bd cd3f a13d 0182 44be dfe5 da3d
00000040: be86 a03d 2784 47be aa16 163f da83 8c3e
00000050: f81e 71bc 9e30 8cbe fd00 edbd aa6f e23d
00000060: 5e85 2d3d 2a9b 79be 3b32 eebd 587d 3d3c
00000070: f3cb f33e 307e 8d3e 05c4 a9be 93b1 3b3e
00000080: 1a37 82bd a1ad d3be 6812 cbbe aaa1 393d
00000090: 7abc 00bf fb65 4b3e bb16 613e 8860 063e
000000a0: a941 8f3e 1d51 473e 99d9 033e 3d7e 533e
000000b0: 9fb4 bebc 386a 6c3e 23bb 00bd 31cf d23d
000000c0: 4a04 8f3e aa97 1f3d a148 40be 07e4 c43d
000000d0: c153 ebbd abda d23e 36b5 a93e edb2 e6bd
000000e0: 1e59 51be a038 b93d 0dc6 8dbb 8dd0 d8bd
000000f0: 77c6 d3bc fee0 9fbe a7e4 09bd 3144 3ebd
00000100: e926 6d3e e9a9 4bbe 94fa 11be 66d5 eb3d
00000110: b310 d13c 8c24 1fbe 0e88 77bd 1eb7 5cbe
00000120: 2478 773e 3b94 e83d 40d1 683e 0e44 a7bd
00000130: d51a c1be 16af 2f3d 847e 283e 23f1 89be
00000140: 7c61 70be f9cf 19be a05d 0c3e 9719 023d
00000150: e631 17be 377f 2e3e b01d 7bbe 7800 51be
00000160: e22d 40be 0867 363e 7cc8 953c 29bc 8e3e
00000170: 2cee 5cbe b900 983e fd7f eabb 4450 e5bc
00000180: 9e6e c4bc 82ae 423d b63f e7bd 7586 133e
00000190: 3179 5cbd 5863 c53e 926c 113e 746c 7d3e
000001a0: 2e79 5cbe 8614 8f3c 3f81 0e3d 2a17 6cbe
000001b0: 322d a23a a580 253e f430 043e 187d ae3d
000001c0: 3ffb 4fbe c119 f03e b046 90be b5ee c3bc
000001d0: 8ec1 073e 09d2 91be c5a7 023e 6c67 e3bb
000001e0: ec6f 8dbe 139f 813e 029f 9f3d 2b16 ab3d
000001f0: 9571 733e 4a62 b6bd beaf 52be 1f6f 53be
00000200: 4a2e e53c c5d9 30be 0e6d bdbe e0bd c43e
00000210: d0ac c7bc 7e3f 18bf 7721 94bd 0dbb c6be
00000220: 4270 1fbf 6997 19be 10c3 62be d1ed 84be
00000230: 396b 483e a37b 23be 1968 4d3e 813e de3e
00000240: 744c 883e b31e 65bd 4095 d23d cd80 463e
00000250: 30ef 05be b3ee 33bd 0e8f 9ebe 5b89 283d
00000260: b68f d1bd 4b1b b2bd a50a 2dbe 88ff 223b
00000270: 6238 01be 9851 8bbe 7014 f43c 7563 1e3e
00000280: 0cc0 933e 7d23 cabe d584 9d3e 6e53 21be
00000290: a556 b93e 5678 9f3e 1c99 a33e f8b2 d73d
000002a0: 205b 71be 9679 973e 3859 a7be 2c4f 9c3e
000002b0: 917e 89be 645a d0bd 17c6 aebd 0249 87be
000002c0: 8c0a 9fbe 9a88 b9bd 6d3c ec3e 4432 b2be
000002d0: b206 003e 0d97 8e3e 922a 74be b6b1 6ebe
000002e0: 095e 89be 8870 093e cafd 72bd 7a13 7abe
000002f0: f966 7ebe 667a 463e bc8c 5e3e 0cc7 9f3d
00000300: c944 37be 3c74 64bd 53fc 533e 100e 2ebe
00000310: b7bd 073e f6be b5be a8b0 813e 841c 2dbe
00000320: 697d 933e fbfd 833e 238e 8ebc 9483 2a3e
00000330: 8296 52be de6a 9bbe fef9 303e d074 373e
00000340: cf75 d13e be90 943e 7b1a f6bd 956d 1abd
00000350: fee4 043e fdae c43e c426 373e 7c34 19be
00000360: 8760 183d 7145 253e eda6 dc3d 0905 afbd
00000370: d0c6 8a3d a29d 793e e37e 603c b036 363d
00000380: aa89 2ebd 05e7 613e fa5d 74be 2406 9cbe
00000390: 07c8 e23e c574 83be fead 683e e479 9b3e
000003a0: 90f8 58bd 25e7 13bf 1e9f 9f3d 799d 9ebe
000003b0: 6034 fbbe 6fb7 8c3e 0d07 e53b 4ba4 80bc
000003c0: 55a5 17bd 8dbe cebc 11a3 6d3e e255 fa3c
000003d0: 49fb f03d a861 81be 2aa5 803e 3d44 8cbe
000003e0: d465 ed3e b9e7 893e 07c1 483d 928e 8ebe
000003f0: b22f 43bd 2ec4 b73e 4220 a63e 301f 5ebe
-0.11596467 -0.23351014 -0.12512736 -0.022195727 -0.08008589 -0.23053007 -0.29678643 -0.24712436
0.28384024 -0.2653806 0.12094404 -0.07974425 -0.074477844 0.07873497 -0.19190218 0.10688376
0.078382 -0.19484006 0.5862833 0.27444345 -0.014716856 -0.27380842 -0.11572454 0.110564545
0.042363517 -0.24375597 -0.116306745 0.011565529 0.47616538 0.27635336 -0.33157364 0.18329458
-0.06358166 -0.41343406 -0.3966248 0.04532019 -0.5028759 0.19863121 0.21981327 0.13122761
0.27979782 0.19464536 0.12875976 0.20653625 -0.023279486 0.23087394 -0.031428467 0.10293425
0.2793296 0.038962997 -0.18777706 0.09613805 -0.11490584 0.41182455 0.33146065 -0.11264596
-0.20444152 0.090440035 -0.004326588 -0.10586653 -0.025851471 -0.31226343 -0.033665325 -0.04645175
0.23159374 -0.19889034 -0.14255744 0.11515312 0.025520658 -0.15541285 -0.060432486 -0.21554229
0.24166924 0.11356398 0.22736073 -0.08167277 -0.37715784 0.042891584 0.16454512 -0.26941785
-0.23474687 -0.15020742 0.1370759 0.031762686 -0.14765128 0.17040716 -0.24523044 -0.20410335
-0.18767503 0.17812741 0.018284075 0.2787793 -0.2157523 0.2968805 -0.0071563707 -0.027992375
-0.023978528 0.047529705 -0.11291449 0.1440676 -0.053826515 0.38552356 0.14201573 0.24748403
-0.21530601 0.017465841 0.034791227 -0.23055711 0.0012373088 0.16162355 0.12909299 0.085199535
-0.20310687 0.4689465 -0.2817893 -0.023917535 0.13257429 -0.28480557 0.12759311 -0.006939819
-0.27624452 0.25316676 0.07794 0.083538376 0.23773797 -0.08905466 -0.20574853 -0.20647858
0.027976174 -0.17270572 -0.36997265 0.38426113 -0.024374396 -0.5947188 -0.072329454 -0.38814583
-0.62280667 -0.14999165 -0.22144723 -0.2596269 0.19572152 -0.15965132 0.20059241 0.43407062
0.2662083 -0.05593748 0.102823734 0.19385071 -0.13079524 -0.043928813 -0.30968517 0.041146617
-0.10232489 -0.08696612 -0.16898592 0.0024871547 -0.12619165 -0.2721069 0.029794902 0.15467627
0.28857458 -0.394802 0.30765405 -0.15754482 0.36198917 0.31146497 0.3195275 0.105321825
-0.23569918 0.2958495 -0.32685256 0.30529153 -0.26854375 -0.10173491 -0.085338764 -0.26422888
-0.31062734 -0.09059258 0.4613985 -0.34803975 0.12502554 0.27849618 -0.23844364 -0.23309979
-0.26829556 0.13421834 -0.059324063 -0.24421492 -0.24843968 0.19382629 0.21733373 0.07801637
-0.17897333 -0.055774912 0.20701723 -0.16997552 0.13255964 -0.35497254 0.2533009 -0.16905409
0.28806618 0.2577971 -0.01740176 0.16651756 -0.20565227 -0.3035497 0.17282864 0.17915654
0.40910193 0.2901668 -0.120167695 -0.03770216 0.12977979 0.38414755 0.17885882 -0.14961427
0.03720143 0.16139771 0.10774026 -0.08545882 0.06776202 0.24376538 0.013702127 0.044485748
-0.042611755 0.22060783 -0.23863974 -0.30473435 0.44293234 -0.25675026 0.22722623 0.30366433
-0.052971423 -0.57774574 0.07794021 -0.30979517 -0.49063396 0.274837 0.006989366 -0.015703341
-0.037022907 -0.025237346 0.23206736 0.03055853 0.11766679 -0.25269818 0.2512601 -0.27395812
0.4636675 0.26934603 0.04901221 -0.27843148 -0.047652908 0.3589186 0.32446486 -0.21691585

onnx::LSTM_120 f4 [1, 80]
00000000: 7e3f 833d 1b1d 393d 6d24 9d3e 83f9 e53e
00000010: 3868 d33d 3230 5f3d 0f63 a9be e418 b83e
00000020: 52d8 0ebd 00af 533e f06e 9e3e 8543 20be
00000030: b8dc 043e 6157 4f3c 4be2 29be 9a67 9d3d
00000040: 7113 b6be b236 8f3e 6b81 593d dbea 12be
00000050: 914a 79bb e744 78bc d149 dfbd 5810 e1bd
00000060: bf12 f2bd d8c3 513e 709a a8be 6e04 313e
00000070: d923 493e 0d5d 12be c0fa 6cbe 3251 1c3e
00000080: 9598 8cbe f4f9 b3bb fad2 7c3e 5f45 23be
00000090: a931 3fbe 4bd2 183e 1048 a6be 76c9 9dbe
000000a0: 216d 96be 00c9 633e ec71 903e 3623 a43d
000000b0: 3532 2d3e 79ce d6bd 5962 a0be 9090 16be
000000c0: 9d0c 173e 802c b73c d89f 0cbe 4efe 7b3e
000000d0: 86ba 3cbe e59e ae3e e22a 123d 4bee 113e
000000e0: 05dc aebd 9add 883e c9d9 e13d bfd1 5bbe
000000f0: e761 31be c393 96be 1084 70be 6114 f63d
00000100: cff3 eb3d fe05 1bbe 4cd6 94be 0642 e13d
00000110: 150c 29be 86c3 903e d9d8 5bbe 1f67 b83c
00000120: 0c33 703e 377d 97be 8fa7 9abe 8dca 2bbe
00000130: 57a1 72bd c719 8cbe 2084 5abd a82d 9bbd
0.064085945 0.045193773 0.30691853 0.44916925 0.103226125 0.054489322 -0.33083388 0.3595649
-0.034874268 0.20672226 0.30944014 -0.15650757 0.12974823 0.01265511 -0.1659023 0.07685776
-0.35561708 0.27971417 0.05310194 -0.14347403 -0.003803883 -0.015153146 -0.10902751 -0.109894454
-0.11819982 0.20484865 -0.32930326 0.17286846 0.19642581 -0.14293309 -0.23142529 0.15265349
-0.2746016 -0.005492443 0.24689856 -0.15944432 -0.18671288 0.1492397 -0.32476854 -0.30817765
-0.29380134 0.22244644 0.28211915 0.080145285 0.16913684 -0.104886 -0.31325033 -0.14703584
0.14750905 0.022360086 -0.1373285 0.24608728 -0.18430528 0.34105602 0.035685427 0.14251058
-0.08538059 0.2673157 0.11027867 -0.2146673 -0.17322503 -0.29409608 -0.23487878 0.12015606
0.11521112 -0.15139005 -0.29069746 0.10998921 -0.16508515 0.28274173 -0.2146944 0.02251011
0.23456973 -0.2958772 -0.30205962 -0.16776486 -0.059235897 -0.27363417 -0.05334866 -0.075770676
