models/CSX_model.onnx (onnx, 40199 bytes, 5 tensors)

fc.weight f4 [5, 10]
000000 87 4f a5 be aa 86 f0 3d ae bf d0 3e 30 cd f8 3e
       -0.32287237 0.11744435 0.4077124 0.48594046
000010 cd 34 10 3e 42 98 8f bc 07 39 58 3e 2c b7 28 3d
       0.14082642 -0.017528657 0.21115504 0.04119031
000020 88 b4 23 3e 99 f2 07 bf c8 34 32 bd 7a 56 7a 3e
       0.15986836 -0.5310455 -0.043507367 0.2444705
000030 3a 31 c1 3e 0b 9d 3f 3e 15 22 dc bc f7 88 93 3e
       0.3773287 0.18712251 -0.02687172 0.28815433
000040 c3 90 a2 3d cc b2 a8 be 0c c6 a1 3d 57 9a dc be
       0.07937767 -0.3294891 0.078991026 -0.43086502
000050 59 e5 08 bf 59 7d 40 bd 04 00 7d 3e 21 8e 54 3e
       -0.53474957 -0.04699454 0.24707037 0.20757343
000060 de fd 90 be d2 59 25 3e 1b 96 ac 3e 66 19 3a be
       -0.28318685 0.16147545 0.3370827 -0.18173751
000070 b2 25 e5 bd 5f 96 48 be 83 a5 d6 3c 6b 26 e3 3d
       -0.111888304 -0.19588612 0.026201969 0.11091312
000080 9c 92 7c be 15 d4 b9 3e de df 4f 3e f6 a0 a5 3e
       -0.24665302 0.36294618 0.20300242 0.32349366
000090 71 53 36 be 68 23 16 bf 51 41 f4 bd 27 ba 00 3f
       -0.17805268 -0.58647776 -0.119265206 0.50284046
0000a0 cc 4a bc be df 66 ff bd 7a e0 27 bc c4 8a 03 3d
       -0.36775815 -0.12470793 -0.0102463905 0.03211476
0000b0 33 e2 12 3d 7b ed 8a 3e 88 a7 81 be f8 6b 4d be
       0.03586025 0.27134308 -0.2532313 -0.20060718
0000c0 9f 87 c4 3e 65 26 0d bf
       0.3838472 -0.5513671

fc.bias f4 [5]
000000 7b 42 87 3e 6f 40 30 3e fb 96 78 3e 87 04 60 3e
       0.26417908 0.1721208 0.24276344 0.21876727
000010 b3 2a 63 3d
       0.055460643

onnx::LSTM_118 f4 [1, 40, 5]
000000 7e 6f 9a 3e 0f 88 41 3e d0 74 0f 3e 65 0f 20 3d
       0.30163187 0.18899558 0.14009404 0.03907718
000010 e2 65 05 3e 63 f7 de bd f6 8b 17 be 21 cc 94 be
       0.13027146 -0.10887029 -0.14799485 -0.29061988
000020 67 b8 57 3b 21 7e c7 be 6e 45 e1 3e 99 92 0a 3d
       0.003291631 -0.38963416 0.43998283 0.033831213
000030 b7 95 28 bd 08 6f 70 be a4 78 89 3e 01 91 f9 3d
       -0.041158404 -0.23479855 0.26849854 0.121858604
000040 00 de 92 be 29 b1 fe bd 7c ae 7d bf 01 3e ec be
       -0.28684998 -0.12436134 -0.9909437 -0.46141055
000050 77 c8 f5 3d 2e a6 76 3e c9 f7 b5 3d 6b db 23 3f
       0.12001126 0.2408683 0.08885152 0.6400668
000060 dd 5b c9 be 49 94 33 bd af 88 ae 3e 3f af ce 3c
       -0.393279 -0.043842588 0.34088656 0.025230048
000070 dc 59 1e 3e 74 1b 02 3f 1b d5 d2 bd 30 5d 07 bd
       0.15463966 0.5082314 -0.10294553 -0.033047855
000080 53 c0 01 3e cf ed 3a be 4b 16 c5 3e 19 4e b6 3d
       0.12671022 -0.1825478 0.3849357 0.08901615
000090 0e 61 d4 3d 6c 03 7a 3e f1 ad 85 3d 9d 61 16 3f
       0.10370074 0.24415368 0.06527317 0.58742696
0000a0 c6 11 b0 3e d5 8a a7 3e 92 d4 d6 3e 7e c4 4d 3d
       0.3438856 0.32723108 0.41959053 0.050236218
0000b0 8e fe 2e 3e 93 3a f9 3e fc 7b 05 3e a6 79 b0 3e
       0.17089292 0.486775 0.13035578 0.3446781
0000c0 04 3e 79 3e 89 4d fd 3d 1d a8 8d 3e d0 04 e4 3e
       0.24340063 0.12368304 0.27667323 0.44534922
0000d0 69 26 0d 3f f8 0e 86 3e aa ba 01 3f 50 a9 af 3d
       0.55136734 0.26183295 0.5067545 0.08577216
0000e0 4e 86 d3 be fd 81 de bd 65 52 38 3c 41 be be be
       -0.41313404 -0.10864637 0.011250113 -0.37254527
0000f0 1b 54 e0 3e bf 32 4e 3e 7a 8b 67 3d c0 4b c5 bb
       0.43814167 0.20136546 0.0565295 -0.006020993
000100 b6 f0 b1 3e 38 fd b9 3d 37 20 19 bf 20 98 47 bb
       0.3475396 0.09081501 -0.5981478 -0.0030455664
000110 a2 56 8b bf 1e 6f 34 bf fe bf f6 bb 30 c4 81 be
       -1.0885813 -0.7048205 -0.0075302115 -0.25344992
000120 a4 5d 35 be 46 6a 51 3f 2a 12 6f be ee b1 c2 3d
       -0.17711502 0.81802785 -0.23346773 0.09506594
000130 86 dc a5 3e 90 3a 8b 3e 88 9d 4d 3e cf 36 18 3f
       0.3239481 0.27193117 0.20079625 0.5945863
000140 20 4b 43 3e 84 fc 92 bb a3 52 08 3e a7 01 9a be
       0.19071627 -0.0044856686 0.13312773 -0.30079386
000150 bb 9c ad 3c 4a 5e 0b 3f 56 7c ab 3e 4e 17 8b 3e
       0.021192899 0.5444075 0.33493298 0.27166218
000160 b3 da 61 3f d1 87 6d 3d cc 94 db 3c 64 7f f4 3e
       0.88224334 0.057990853 0.02680435 0.4775344
000170 3f 75 7b 3e 87 38 eb be 3b 9e 07 3f 20 f1 93 3d
       0.24556445 -0.45941564 0.52975816 0.07223725
000180 52 d7 6c 3e d2 0c cf 3e 85 9d 18 be 9d 2f 20 3f
       0.23129013 0.4043947 -0.14903839 0.6257265
000190 71 f2 f8 bc b3 0b 0a 3c 9e 98 55 be 1c 29 8f 3d
       -0.030389043 0.008425641 -0.20859 0.06990263
0001a0 02 a6 93 3e d3 97 71 be 5a 0b 97 be f5 4e 71 be
       0.2883759 -0.23593073 -0.29500848 -0.23565276
0001b0 7a 3b 85 bc 22 f4 94 be 23 47 98 3e 98 d4 86 bc
       -0.016263712 -0.2909251 0.29741773 -0.016458794
0001c0 8b a3 5f 3e a3 2a 5a be d2 63 87 3e cc 37 43 be
       0.2183973 -0.21305327 0.26443344 -0.19064254
0001d0 2b 90 6d be 99 9d c0 be 84 23 04 bf a6 fb 25 bf
       -0.23199527 -0.37620237 -0.5161669 -0.6483711
0001e0 17 00 c7 be d7 0a 57 bd 7c dd 40 bd b5 50 b2 3e
       -0.38867256 -0.052500572 -0.047086224 0.348272
0001f0 e0 0d 2f bc 34 15 63 3d 5f 9f 08 3e c5 32 a3 3e
       -0.01068446 0.055440143 0.13342045 0.31874672
000200 3c fe ca 3e b6 9a 89 3e 4e 9a 5f 3d 39 a3 79 bc
       0.3964709 0.26875848 0.054590516 -0.015236669
000210 0d 09 a4 3c cb 47 00 be b2 87 1c bb 9a 23 00 3e
       0.020023847 -0.12527387 -0.0023884592 0.12513581
000220 cd 86 c6 3e 5b 03 49 3e 25 61 25 3f 10 bc 30 3e
       0.3877472 0.19630186 0.64601356 0.1725924
000230 78 23 01 3e ca 35 e7 3e 7d fa a5 3e dd 74 b4 bd
       0.12611187 0.45158225 0.3241767 -0.088113524
000240 6a 6e 39 3e a8 25 ed 3d b6 12 84 3e b9 11 a5 3d
       0.18108526 0.11579448 0.25795525 0.08060021
000250 c8 d7 1b be ad a9 11 be ea 1d 94 be c8 c2 29 bd
       -0.15219033 -0.14224882 -0.28929073 -0.041445524
000260 2c 15 eb be 17 1c a6 3d 45 19 0c bf 97 ed 2d be
       -0.4591459 0.081108265 -0.5472606 -0.16985165
000270 0f c7 bf 3d fe 71 29 3c 46 42 4e 3c 09 18 9d bb
       0.09364139 0.010342119 0.012589043 -0.004794125
000280 fe 64 ae 3e 4a 9d 95 3d f1 e5 db 3e d3 2b 82 be
       0.34061426 0.07305391 0.4294887 -0.2542406
000290 c1 06 15 bd 50 2c e0 3d 32 08 40 3e f2 64 c9 3d
       -0.036383394 0.10945952 0.18753126 0.09833707
0002a0 d2 a9 5e 3d 36 3a 53 be 62 6e 25 3e c4 be ee bd
       0.054361172 -0.20627674 0.16155389 -0.116574794
0002b0 65 29 4f be 63 86 29 3f 00 7c 86 3e b2 9d 81 bb
       -0.20230635 0.6622068 0.2626648 -0.0039555663
0002c0 08 24 d7 3e a6 3c e9 3d 0f 43 16 3d 3f f5 c1 3e
       0.42019677 0.11388521 0.036685046 0.3788242
0002d0 7c bc 2c 3e e8 79 8e bd fa ea a2 3e 0d f5 bf bd
       0.16868776 -0.069568455 0.31819898 -0.093729116
0002e0 04 7b 0c 3e 29 fe 81 be 19 ec 46 be 8b 96 b8 3d
       0.13718802 -0.2538922 -0.19426002 0.09013089
0002f0 c1 df 39 bf bf 72 c1 be ae 8b 28 3e 44 4a 6d 3e
       -0.72607046 -0.37782857 0.16459534 0.23172861
000300 d3 8f 09 3e 6b d6 35 3e f1 50 1a 3e 7a 82 db be
       0.13433771 0.17757575 0.15069939 -0.42872983
000310 ab 38 0b be af 9f b6 be 50 6a 69 3e 84 7a d9 be
       -0.13595836 -0.35668704 0.22794461 -0.42476285

onnx::LSTM_119 f4 [1, 40, 10]
000000 4c 27 57 be 1b cb db be 99 4c 09 3e 80 62 a9 be
       -0.21011084 -0.42928395 0.13408126 -0.33082962
000010 fa 85 2a 3f 69 2e 44 bd 73 92 78 3e 81 58 10 3e
       0.6661068 -0.047895823 0.24274616 0.14096262
000020 71 17 96 3e e2 50 40 bd a5 c5 4d be 8d 3a 94 3e
       0.2931476 -0.046952136 -0.20094927 0.2895092
000030 f7 1e 57 bd c4 c6 0d be 7b 4a 04 3e 6d e2 bf be
       -0.052519765 -0.13845354 0.12919037 -0.37477437
000040 67 11 26 3d 03 55 3d be f7 6e 43 3e d9 8e e4 bd
       0.04054394 -0.1848946 0.19085298 -0.111600585
000050 53 ee 2d be 89 b7 52 be 43 e5 9b be 71 24 1b 3e
       -0.16985445 -0.20577826 -0.3044835 0.1515062
000060 36 79 9f 3e 6c 63 25 3e 15 e6 6a 3d 11 cc 59 be
       0.31147164 0.16151208 0.05734833 -0.21269251
000070 5d 39 29 be fb 10 e1 3d 48 a1 43 3e 6f ee 1d be
       -0.16525789 0.10989567 0.19104493 -0.15422986
000080 72 e8 f8 3d a3 2a 14 bc 0d b1 10 3f e2 ec bb 3e
       0.121537104 -0.0090433685 0.5652016 0.36704165
000090 01 61 c0 3c 5b bf 98 be eb b1 94 3e ff 4e 2b bd
       0.023483755 -0.29833493 0.2904199 -0.041823383
0000a0 d7 25 49 be 3f b2 d2 3d 3c f0 94 3d 56 58 58 bf
       -0.19643341 0.10287904 0.072723836 -0.8450979
0000b0 fe 1e af bb bd 56 da 3e ae e4 36 3e b1 b0 6b bd
       -0.0053442707 0.426443 0.17860672 -0.057541553
0000c0 60 2f 87 3d 0b 73 a4 be 4c 84 e7 bd 01 e4 87 3d
       0.06600833 -0.3211902 -0.113045305 0.06635285
0000d0 23 5c 04 3d 44 53 91 3e f8 88 6c 3e 0d e2 b3 bd
       0.03231443 0.2838384 0.23099124 -0.0878335
0000e0 7d 97 2b 3e 35 56 4c 3c a1 27 64 3e 3a b7 cb 3d
       0.16757007 0.012471725 0.22280742 0.09947057
0000f0 a9 07 69 be e7 57 5b bc 2b 8a 14 3e c8 e4 4b 3c
       -0.22756828 -0.013387657 0.14505832 0.012444682
000100 30 dc f0 3d 90 bf 06 3e b4 18 5f 3d ed ab 88 3e
       0.117607474 0.13159013 0.054466918 0.2669367
000110 e6 6b 85 3e a2 5f 92 3d 5c d9 78 bd 38 55 8a be
       0.26058882 0.07147147 -0.060754165 -0.27018142
000120 af 5c 71 be c8 73 83 3d 04 cf 4d 3e 97 18 48 3e
       -0.23570512 0.06418568 0.20098501 0.1954063
000130 15 ff 3d 3e 68 23 49 be 06 97 25 3e 34 69 90 be
       0.18554337 -0.19642413 0.16170892 -0.28205264
000140 9f 20 41 3e 36 48 c7 3d 64 69 91 3d c6 00 6c 3c
       0.188601 0.0973057 0.0710018 0.014404481
000150 40 22 a4 bd 78 71 5c 3e 18 30 7a be e4 2e 9a 3e
       -0.08014345 0.2152766 -0.24432409 0.301139
000160 ba 1b b5 3d 8a ca 95 3d 4e 7b fd 3d 16 74 3a be
       0.08843179 0.07314022 0.12377034 -0.18208346
000170 fd 1e 2a be c0 85 57 bf 85 cb ab 3f 38 8b cb bd
       -0.16613384 -0.8418846 1.3421484 -0.09938663
000180 68 7f 35 be a4 37 8a be c5 85 db 3e e0 ff 7c 3d
       -0.17724383 -0.26995575 0.42875496 0.06176746
000190 74 db 11 3d b5 af f3 bd 2e 81 58 be 40 d8 1d 3e
       0.035609677 -0.11898748 -0.21143028 0.15414524
0001a0 37 f4 2c 3f 15 7c 9f be 48 3f 00 3e 3c 10 30 be
       0.6756014 -0.31149355 0.1252414 -0.17193693
0001b0 21 f4 70 3e 62 3e 37 be f8 69 a7 3e 44 38 1e be
       0.23530628 -0.17894891 0.32698035 -0.15451151
0001c0 b8 7c c4 be 29 81 87 3c bd 6e 27 3e 8c 35 2a bd
       -0.38376403 0.01654108 0.16350837 -0.041554973
0001d0 dc c6 16 3d d7 db d7 bd 9f 82 95 bd 46 7c e0 3d
       0.03681074 -0.10539978 -0.073003046 0.10961203
0001e0 dc 94 db 3d 64 aa 37 3e b7 71 3c 3e 22 25 1a 3e
       0.10721752 0.17936093 0.18402754 0.15053228
0001f0 34 7f 0f 3f c7 d0 24 be 68 c6 5f 3e 51 b6 cd be
       0.5605347 -0.16095267 0.2185303 -0.4017816
000200 2f da 58 3e 29 12 2c be d9 20 45 be 24 3d 94 3d
       0.2117698 -0.16803803 -0.19250812 0.07238224
000210 8e 2b ac bd 3c ec 06 be 4b 7c 8f 3e 1f b3 d9 3d
       -0.08406745 -0.13176054 0.28024516 0.10629868
000220 5f 31 7d 3e 3c df 82 be 57 75 9f bc 2e 97 6d be
       0.24725865 -0.2556094 -0.019465132 -0.23202202
000230 85 a2 d6 be 13 d8 1a be 0b 71 22 be 7c fc db be
       -0.41920868 -0.15121488 -0.15863435 -0.42966068
000240 5e d0 60 3e a0 d2 58 3d d8 2e a5 3e 3f 0f aa 3d
       0.21954486 0.052935243 0.322623 0.08303689
000250 82 b0 42 bd be 1d 75 be 9e c0 d6 be ce 0f 3c bd
       -0.047531612 -0.23937127 -0.4194383 -0.04591351
000260 a8 75 23 3e ca e8 36 3e 14 a2 5d 3c 7b 1b 2e be
       0.15962851 0.1786224 0.013527412 -0.1700267
000270 94 db 7f be dd 84 82 3e 67 13 54 bd 4e 39 d7 be
       -0.24986106 0.25491992 -0.051776316 -0.42035908
000280 2b d8 5f 3c 05 79 cc bd 32 bd c1 3e c5 55 60 bd
       0.013662378 -0.0998402 0.37839657 -0.054769296
000290 42 4e 0c 3e 57 0a c8 bd 87 54 a3 be b5 3a 6b 3c
       0.13701728 -0.09767597 -0.31900427 0.014357259
0002a0 1a 6b 1b 3e 9f e6 d6 3c d7 79 80 bb be 35 2a be
       0.15177575 0.026233016 -0.0039207744 -0.16622064
0002b0 c2 2f 36 3d 69 70 03 bd 81 6f 16 3e 1a 4b 46 be
       0.04447914 -0.032089625 0.14690973 -0.19364586
0002c0 48 f9 11 be 3d 9f 95 be 91 b5 8b be b4 79 70 be
       -0.1425525 -0.29223052 -0.27286962 -0.23483926
0002d0 cc 14 7f be 0d e3 53 3e 16 77 87 be ea 24 16 3e
       -0.24910277 0.20692082 -0.26458043 0.14662519
0002e0 3d 42 2a 3e 65 23 4f 3e 42 08 16 be af 21 86 3d
       0.1662683 0.20228346 -0.14651588 0.065493934
0002f0 76 be 78 be 2c 82 3b 3d 01 6f 47 be 48 c6 30 bf
       -0.24291405 0.04577844 -0.19475938 -0.69052553
000300 41 66 8e 3e e3 d1 2b bf 05 ca 6d 3f d4 ad 5f 3e
       0.2781239 -0.67117137 0.9288638 0.21843654
000310 0b 9c 7f be 52 c4 8d 3d cb a8 52 3d 5e 2c 8c be
       -0.2496187 0.06922211 0.051430505 -0.273776
000320 92 b6 a6 bd f6 23 09 3d d4 1f 42 be 18 e0 2c 3e
       -0.08140291 0.03348156 -0.18957454 0.1688236
000330 87 66 1a 3f 33 70 16 bc 13 14 83 3c 46 99 eb bd
       0.60312694 -0.009182024 0.016000783 -0.11503844
000340 d3 b2 8f 3c 47 e3 b1 3e 94 75 ab 3e ae a1 9e 3e
       0.017541325 0.3474371 0.33488142 0.30982727
000350 cc 51 a8 be 20 32 48 be ba d4 41 be 82 ef f8 3d
       -0.32874906 -0.19550371 -0.18928805 0.121550575
000360 88 37 87 be b1 75 ca 3e fd 9b b9 be d9 92 78 3e
       -0.26409554 0.39542916 -0.36251822 0.24274768
000370 b1 f3 63 3e 2d 76 9c be 77 15 63 be f5 7c 92 3e
       0.2226093 -0.3055891 -0.22176157 0.2861096
000380 b5 5e df 3e 29 28 93 3d 6b 3f d4 bd 40 cd ba 3d
       0.43626943 0.07185394 -0.103636585 0.091211796
000390 3e ba 96 3e 3f e5 57 3e f3 9d 91 bd 22 9b 97 3c
       0.29438967 0.21083544 -0.071102045 0.01850659
0003a0 f3 6a 05 be a9 3a 5d 3d 98 4a 10 3f 98 08 a5 3e
       -0.13029079 0.05401102 0.5636382 0.3223312
0003b0 67 be 5d 3d 15 e3 b5 be 49 27 2e be fa cc bb be
       0.05413666 -0.35524812 -0.17007174 -0.36679822
0003c0 c6 32 a3 3e 76 df 9e 3e 11 2b c5 be e4 83 ff be
       0.31874675 0.31029862 -0.3850942 -0.49905312
0003d0 82 65 67 be e5 19 0f be 86 3e fa 3b 44 8f 66 3e
       -0.22597316 -0.13974722 0.007636848 0.22515589
0003e0 d2 83 8a be 48 11 e8 3e 67 db c4 bd a3 cb 89 3e
       -0.27053696 0.45325685 -0.0961216 0.26913175
0003f0 f9 13 69 be 82 0a c1 3d 68 17 d9 3c fb e9 34 3e
       -0.22761525 0.09425832 0.026500419 0.17667381

onnx::LSTM_120 f4 [1, 80]
000000 f2 40 64 bd fb 08 f4 bd b3 61 98 3d 0e 96 e9 3e
       -0.055726 -0.119157754 0.0744051 0.45622295
000010 27 ef b2 3e b6 5f a8 bd 70 50 65 3e a9 00 b5 3d
       0.34948084 -0.082213804 0.22393966 0.088380165
000020 f7 e0 85 bc cf ba 11 3d da f3 af 3c a9 31 c8 be
       -0.016342623 0.035578545 0.021478582 -0.39100388
000030 9f a0 78 3e 6c 1e 98 3e 2f 58 94 bb ab 6f 21 be
       0.24280022 0.2971071 -0.004527114 -0.15765254
000040 ec f3 94 be 0f 44 89 3d 9c 33 b7 bd 9a 17 d2 3e
       -0.29092348 0.06702434 -0.089453906 0.41033632
000050 7a ac 8e be d2 dc 1b be 4f 9d 2a be 0c dc 87 3e
       -0.27865964 -0.15220955 -0.16661571 0.2653507
000060 94 fe 91 be 9d f4 46 3e a6 66 3e be fa 71 62 be
       -0.2851454 0.1942925 -0.18593845 -0.22113791
000070 c0 b2 98 be b6 da 18 be 82 3b e4 3d 9c be 87 be
       -0.29823875 -0.14927182 0.11144163 -0.2651261
000080 e5 8e 47 3e 4e 89 a3 be a8 7e f0 bd ed 77 f1 3c
       0.19488104 -0.31940693 -0.11742908 0.02947613
000090 9b fc 8e 3e 60 70 a1 bd 9e e1 e5 3d c6 6f 69 3e
       0.27927098 -0.07882762 0.11224674 0.22796544
0000a0 93 2b 8e bd 6e 56 8f bd 48 c5 94 be 31 e8 d7 bd
       -0.06941905 -0.06998907 -0.29056764 -0.10542334
0000b0 3a 5b 1c be e0 05 78 3c 92 5f dc bd 7e 34 8d 3d
       -0.15269175 0.015138119 -0.10760416 0.06894778
0000c0 e2 47 c0 3d 40 11 26 3f 82 d4 12 3d 0d 3c b5 be
       0.093887106 0.6487007 0.035847194 -0.35397378
0000d0 f7 36 f8 3d bc aa 94 3e 84 06 bc bc 3c e0 ce 3d
       0.12119859 0.2903651 -0.022952326 0.10101363
0000e0 05 3f ba bb 36 e4 e2 bd 0d c7 0a 3d 60 1e 8f 3c
       -0.005683782 -0.11078684 0.033881236 0.017470539
0000f0 2e f2 cc 3d 3a 38 2d be 7a be 2b be e9 5e a8 3e
       0.100071296 -0.1691598 -0.1677188 0.3288491
000100 67 f2 50 bd 18 b6 4b be e8 6b 41 3d 75 5d d2 be
       -0.051012423 -0.19893682 0.047222048 -0.41086927
000110 9e 0a ba be ec 02 03 be 09 aa 91 3d 5e db 8d 3d
       -0.36336225 -0.12794083 0.0711251 0.069266066
000120 fd 43 9a bd 1a 55 be be 5a cc 89 3e d2 bc f4 3d
       -0.07532499 -0.37174302 0.2691372 0.11950077
000130 ef f4 df bd 35 23 17 be df b6 f5 3d 80 cf 1d bd
       -0.10935389 -0.14759524 0.119977705 -0.038527966
