models/CTSH_model.onnx (onnx, 40199 bytes, 5 tensors)

fc.weight f4 [5, 10]
000000 11 a8 4d 3e 82 db 6d bd 52 e6 a9 3e a7 c1 97 bd
       0.20083643 -0.058070667 0.33183533 -0.07409983
000010 f9 b7 ba bb ef f7 69 be 73 48 c9 3e 19 97 76 bd
       -0.005698201 -0.22848485 0.39313087 -0.06020269
000020 a5 9c fb 3e ef 2c 34 3a a9 a9 fd 3d 0e c5 a9 3e
       0.49142948 0.00068731507 0.12385876 0.33158153
000030 05 ff 7b 3e da 22 b4 bd 03 bb 37 be 6b 6e 30 be
       0.24609001 -0.0879571 -0.17942433 -0.17229621
000040 a5 ee e0 3e 08 ee af bd 28 db 2a 3e fb 3b 84 bd
       0.4393207 -0.08590323 0.16685164 -0.06456753
000050 33 26 c4 3d e7 51 ab 3e 3b d5 8a 3e f9 b0 dc bd
       0.095775984 0.33460924 0.27115807 -0.10775942
000060 4e b9 98 bd cc 98 91 bd cc 02 ba 3e bd 5b d5 be
       -0.07457219 -0.07109222 0.3633026 -0.41671553
000070 ec 18 00 3e f8 10 35 3d 62 d3 9f 3e 5f 4f 85 3e
       0.12509507 0.044205636 0.3121596 0.26037118
000080 91 79 92 3e e6 fa f8 3e 2a 02 57 3e d3 d7 1b 3b
       0.28608373 0.4862892 0.2099692 0.0023779764
000090 e1 7b 3c be 04 a0 a0 3e 68 91 56 be f6 92 81 3d
       -0.18406631 0.31372082 -0.20953906 0.06326859
0000a0 bd c2 63 3d 94 75 a9 3e 53 3d 33 3e 34 40 f0 bd
       0.05560564 0.33097517 0.17503862 -0.11730996
0000b0 ec 61 33 be 5a 48 ac bd cb b4 c5 3e 37 67 f8 bd
       -0.17517823 -0.084122375 0.38614497 -0.12129062
0000c0 d5 3c 8d 3e ea 39 d2 bc
       0.27585474 -0.025662381

fc.bias f4 [5]
000000 fb ab 87 3e e5 39 8f 3e 85 bc 89 3e d5 98 0e 3b
       0.26498398 0.27973858 0.2690164 0.0021758575
000010 41 1e 74 3e
       0.23839666

onnx::LSTM_118 f4 [1, 40, 5]
000000 b2 9d 91 be 5f 8b 26 3c 4b d2 a5 be 30 de 55 bf
       -0.28440624 0.010165065 -0.32387003 -0.83542156
000010 18 ea 3e bd 19 c0 48 3e 8f db 40 3e ea c0 00 3f
       -0.046609968 0.1960453 0.18833755 0.50294363
000020 64 f1 d9 3e 0d 0e ad 3d 9e a9 1a 3d f2 01 55 bc
       0.4256698 0.084499456 0.037759416 -0.013000952
000030 bb 68 c1 bb 23 66 3f be 67 f3 1e 3e 82 97 59 be
       -0.0059023774 -0.18691306 0.15522538 -0.21249202
000040 dc 9c 8a be a0 36 b1 be 99 b0 45 3f e0 37 92 3d
       -0.270728 -0.34611988 0.7722259 0.071395636
000050 55 8b 12 3e b6 c6 0c 3e dc cc d9 bd 56 88 13 3e
       0.14310963 0.13747677 -0.10634777 0.14407477
000060 4e 1a 99 be da fd c6 be 36 a0 99 3c c7 3c 6f 3d
       -0.2990288 -0.38865548 0.018753152 0.05840757
000070 25 08 94 3e f1 b5 7f 3c bd 4f fe 3e 20 ef d0 bc
       0.28912464 0.015607343 0.4967021 -0.025504649
000080 98 fa 9b 3e bd 9b ee bd 3a 79 8c 3e 39 4a 85 be
       0.30464625 -0.116507985 0.2743624 -0.2603319
000090 ac e1 4a 3e 0c e9 5d 3e 00 38 2f be 35 65 b4 3e
       0.1981265 0.21670932 -0.17111206 0.35233465
0000a0 df 2d 81 3e 93 73 49 bd fb c5 a1 3e d6 40 68 bd
       0.2523031 -0.049182486 0.3159636 -0.056702457
0000b0 ff e0 e9 bd 08 a2 b0 bd e0 f8 14 3e 13 9e e7 be
       -0.11419868 -0.08624655 0.14548063 -0.4523779
0000c0 4e 00 38 be 56 f1 c7 be c5 24 3e 3d 55 b6 34 be
       -0.17968866 -0.39051312 0.046421785 -0.17647679
0000d0 08 95 f1 be 1c b2 ab bf 4b ff f7 be 9e 65 09 3f
       -0.47184014 -1.341373 -0.4843696 0.5367068
0000e0 95 41 71 3e 3d 05 a2 3c 79 95 b6 bd 90 b0 6c 3e
       0.23560174 0.019777888 -0.089152284 0.23114228
0000f0 3d 57 17 bd e2 c7 cf 3e ff 69 e4 3e 27 44 91 3d
       -0.03694843 0.40582186 0.4461212 0.07093077
000100 04 b0 ff 3e ee 2b 03 be 77 81 34 bd 12 d7 b3 bc
       0.49938977 -0.12809727 -0.04406878 -0.02195314
000110 ec 3e 98 3f 43 eb 8a be 7d d5 73 be 96 b6 b3 3d
       1.1894202 -0.27132615 -0.23811908 0.0877506
000120 e4 55 7c be 5f 03 9c 3e 23 36 be 3d 3f ff ac be
       -0.2464214 0.30471322 0.092876695 -0.33788487
000130 fa e3 a1 be ab 1d ac bd 09 8d a4 3e 91 88 34 3d
       -0.31619245 -0.08404096 0.3213885 0.044075552
000140 cd 11 d6 3e 1f 32 f4 3c ee 32 17 3f b6 3b 5f bd
       0.41810456 0.029809056 0.5906209 -0.054500304
000150 24 b5 bb 3d f5 b3 8e 3e ea ea ed 3d 48 29 54 3e
       0.09165409 0.2787167 0.11617072 0.20718873
000160 36 0d 28 bd 53 c1 43 be 2e e6 ed 3e 72 3d f6 3e
       -0.041028224 -0.19116716 0.46464676 0.48093754
000170 a9 1e 8c 3e cc e8 a2 be 00 00 15 3f 48 29 a4 be
       0.27367142 -0.31818235 0.58203125 -0.32062745
000180 79 78 c0 3d f9 7a 8c 3d 61 da bb be 2b e8 24 3e
       0.09397978 0.06859393 -0.36690047 0.1610419
000190 07 24 d6 bd fd bf 14 3e 76 af 71 3d f3 15 96 be
       -0.104560904 0.14526363 0.059005223 -0.2931362
0001a0 a7 d0 bf be 14 2f 60 bc 59 35 ec bd e1 43 a9 3d
       -0.37463877 -0.013683099 -0.11533613 0.082649
0001b0 e0 c9 51 3d 60 1b 3a 3e 29 0c c1 3e f9 6f 5e 3d
       0.051217914 0.18174505 0.3770459 0.054306004
0001c0 88 c5 38 3e f5 a8 1f bd 97 f7 c2 3e b6 5d 93 be
       0.18044102 -0.03897949 0.3807952 -0.28782433
0001d0 0e 48 27 3d 45 b8 78 bc 93 37 09 3f 8b b4 09 be
       0.0408402 -0.015180652 0.53600425 -0.13447778
0001e0 f1 30 4e 3e 2f c0 ab 3c 0e 05 4b 3d dc 5f 6e be
       0.20135857 0.020965664 0.049565367 -0.23278755
0001f0 27 4c 4a 3c 8c ac 02 3d 8d 5d d2 bd 32 ba e5 be
       0.012347258 0.031902835 -0.1027175 -0.44868618
000200 08 83 83 3e 70 c8 f6 be 3c 12 1b 3e 17 f1 78 3e
       0.25685906 -0.48199797 0.15143675 0.24310718
000210 07 2f b1 3e 8b 00 d8 bd b9 b3 bd 3e 78 76 11 bc
       0.34606192 -0.105469786 0.3705118 -0.008878343
000220 42 93 c7 be e8 85 cb be 45 06 8e 3e 08 22 ad be
       -0.38979536 -0.397506 0.27739158 -0.33815026
000230 44 c5 53 3e 1a b9 b6 3e ab ea 89 3e 71 82 9f 3e
       0.2068072 0.35688096 0.2693685 0.31154206
000240 d8 5f 94 3d a0 06 9d be 20 a4 2b be 9b 5e ae 3d
       0.07244843 -0.30669117 -0.16761827 0.08514138
000250 86 f6 9e be 71 fd d2 be 40 5c 85 be f4 15 8b 3e
       -0.31047457 -0.41208985 -0.26046944 0.27165186
000260 4c e9 34 3e f9 01 9b be 37 ef 88 3e 1e f4 c4 3e
       0.1766712 -0.30274943 0.26745006 0.38467497
000270 6b 8a e2 3e 82 f4 8a 3e 68 e5 64 3e 5b d9 53 3d
       0.4424623 0.2713967 0.22353137 0.05172096
000280 15 02 86 3e 32 c8 d4 3e 2d a4 bd 3d 04 84 6f 3e
       0.26173463 0.41558987 0.0925983 0.23390204
000290 34 3d 76 bd 80 56 d2 3d 8d 7f 98 3d a7 60 8d bd
       -0.06011696 0.10270405 0.074462034 -0.069032006
0002a0 3e ee 8f 3f 8c c6 76 be 40 7e bd be 57 2d 03 3e
       1.1244581 -0.24099177 -0.37010384 0.12810265
0002b0 a7 d8 ec be bc e5 5c 3e 31 9b d9 3d 6c b8 56 3e
       -0.46259043 0.21572012 0.106253035 0.20968789
0002c0 e2 85 10 be 55 db ce bd f1 bc 08 3f ad 15 f7 bd
       -0.14113572 -0.10100428 0.534133 -0.12064681
0002d0 52 7a d2 3d b6 12 52 3e 90 7a c9 3e e8 42 37 3e
       0.10277237 0.2051495 0.3935132 0.17896616
0002e0 b8 87 bb 3e bd 25 a5 be a4 02 78 be 45 95 45 3e
       0.36626983 -0.32255355 -0.24219757 0.19295223
0002f0 59 df 38 3f 48 51 6a be 04 49 f3 3e 57 28 b9 3d
       0.722158 -0.22882569 0.47516644 0.09040897
000300 a1 a7 af 3e 6b a8 8a be a3 66 82 3e 79 7e 5d be
       0.34307578 -0.27081618 0.2546893 -0.21630277
000310 dd de b8 be bb c6 78 bd b7 b0 31 3d ce 0f 46 3e
       -0.3610753 -0.0607364 0.04338142 0.19341967

onnx::LSTM_119 f4 [1, 40, 10]
000000 f0 3a e4 be 61 94 a9 3c ca 41 01 3d 0f f5 25 3f
       -0.44576216 0.020700635 0.031556882 0.64827055
000010 43 6a 71 3c d4 7a f4 3d a6 35 eb be 14 d8 93 3e
       0.014734807 0.1193749 -0.45939368 0.28875792
000020 d8 c1 1f 3d ee 9b ba bd 55 f4 15 3e 9c e5 3a be
       0.039003223 -0.091117725 0.14643987 -0.18251652
000030 dc 7f 2d 3e 4b 12 88 3d 6c d1 47 3e d6 04 0d 3e
       0.16943306 0.06644114 0.19513482 0.13771376
000040 d5 8c 0c be a7 17 b3 be 2c ca 84 3d b7 79 8a 3d
       -0.13725598 -0.34978983 0.06483874 0.067614965
000050 0d 16 39 be 0a 49 06 bd 23 47 ff 3d 2e da bd 3e
       -0.18074818 -0.0327845 0.1246474 0.3708052
000060 e7 63 ad bd 4c d5 44 3e 12 b9 9b 3e 7f 84 cd 3d
       -0.084663205 0.19221991 0.30414635 0.10035037
000070 b6 4e ce 3d 11 97 75 3e 66 7d b3 bd af 63 8f 3e
       0.10073607 0.23983409 -0.08764152 0.2800574
000080 54 bf b0 3e c1 af 40 3f 57 4f 2d 3e c8 3b 1c 3f
       0.34520972 0.7526818 0.16924797 0.6102872
000090 e6 4c 47 be 29 50 fc 3d 42 59 7a 3d 89 8b 83 be
       -0.19462928 0.12319977 0.06112028 -0.25692394
0000a0 1d 46 00 be 51 a4 f6 3d 98 2e bf bd 85 31 e7 bd
       -0.12526746 0.120430596 -0.09335059 -0.11288742
0000b0 a4 c9 10 be 74 8b 93 bc 34 be c3 be e6 e1 cd 3e
       -0.1413942 -0.018010832 -0.3823105 0.4021141
0000c0 40 b4 55 be 58 43 8f be fb 19 be 3d 08 ef 06 3e
       -0.20869541 -0.27981067 0.09282299 0.1317712
0000d0 a8 12 21 bd fd ef 9d bd a6 5d 48 3d 35 3f 79 3e
       -0.039324433 -0.0771179 0.048917435 0.24340518
0000e0 00 30 83 be c6 62 62 3e a9 99 53 3e 7c 74 89 3d
       -0.2562256 0.22107992 0.20664085 0.06711671
0000f0 7a 73 14 be 08 9a b2 3d 8b 2d a6 3c 1b 61 cc 3e
       -0.14497176 0.087207854 0.020285388 0.39917836
000100 b4 3f d9 3c 85 69 24 bd 5b 5d 40 bd db 24 49 3e
       0.026519634 -0.040139694 -0.04696403 0.19642965
000110 4e 16 90 3e 1b 10 75 3e 5d bd d4 be fa 14 84 be
       0.28142017 0.23931925 -0.41550723 -0.25797254
000120 6e 39 9a ba 92 a1 32 3d 66 8c 63 3e aa 49 08 3e
       -0.0011766383 0.043611117 0.22221527 0.1330935
000130 5b c9 18 be 4b 29 a9 3e a4 af 49 be 90 cd 07 be
       -0.14920561 0.33039317 -0.19695908 -0.1326201
000140 c5 26 91 3e 45 dc 6d be 27 3a 50 be e1 99 16 3f
       0.2834989 -0.23228557 -0.20334683 0.5882855
000150 54 a0 29 3e 6d 9c 66 3e 76 7d 33 3e 11 89 ab 3d
       0.16565067 0.22520609 0.17528328 0.08375753
000160 12 28 38 3e 5e fd 54 be 09 67 4c bd 37 8f ec bd
       0.17984036 -0.20799777 -0.04990295 -0.115507536
000170 2e 77 b0 bd af 47 34 3d 69 8d 21 be 45 2b 71 3d
       -0.08616482 0.044013675 -0.157766 0.058879156
000180 2b 13 60 be 56 3e df bc 12 76 eb 3c 58 36 13 be
       -0.21882312 -0.027251404 0.028742824 -0.14376199
000190 12 7c a2 3d c2 4d 86 be 02 33 00 3d bb b7 01 3f
       0.07933821 -0.262312 0.031298645 0.50670975
0001a0 3c d0 34 bd d1 94 87 3e 45 95 1f be 71 a4 fd 3d
       -0.0441439 0.26480725 -0.15584286 0.1238488
0001b0 a9 e2 04 be 1b 60 82 be 7f d4 6c be e5 97 1d bd
       -0.12977089 -0.25463948 -0.23127936 -0.038474936
0001c0 78 d7 f0 bd fd d1 00 3f a7 8d 98 bd 26 d5 9b be
       -0.117598474 0.50320417 -0.07448893 -0.30436057
0001d0 b2 b9 bb 3e c1 2e c4 bd 48 51 c3 3e 25 c5 81 be
       0.36665112 -0.0957923 0.3814795 -0.25345722
0001e0 6e 4d 77 3c 54 76 29 3e 0f 71 9a 3e 95 8f 01 3e
       0.015094144 0.16549045 0.30164382 0.12652428
0001f0 bd 4a b3 3e 3a bc 76 be f0 4d 32 be 69 7c 3b be
       0.35017958 -0.2409524 -0.17412543 -0.18309177
000200 2e bf 82 3e a2 4a 57 bd 5b d5 6d be e4 fa 67 be
       0.25536484 -0.05256141 -0.2322592 -0.22654301
000210 c9 c1 c6 3e 24 36 8f 3e bc 87 9f be 88 60 38 3f
       0.3881972 0.27970994 -0.31158245 0.72022295
000220 54 97 65 be c0 d3 e3 3e 63 91 50 3d 88 ea ad be
       -0.22421008 0.4449749 0.0509199 -0.33967996
000230 91 f0 d9 bd 4c 84 e8 bc 44 8a 6a 3e 7d 27 0d 3d
       -0.106415875 -0.028383397 0.22904307 0.034461487
000240 0e 64 a2 be 7b 2b 8b 3d 0f 67 d3 3c 32 b4 7b 3e
       -0.3171696 0.067954026 0.025805978 0.24580458
000250 55 0e aa 3d 2c b2 5d 3e b1 08 9a be 30 3f 1d 3d
       0.08303515 0.21649998 -0.30084756 0.03839034
000260 b0 3b 26 3e 01 2c 53 bd 26 90 98 bd 05 5a 0f bc
       0.16233706 -0.051555637 -0.07449369 -0.00874949
000270 94 7b 42 3e e6 97 c2 bd cb 53 4a bd 03 c2 09 3e
       0.18992454 -0.095016286 -0.049396317 0.13452916
000280 00 fa 84 3d d3 6e 7e 3e b5 81 db 3e 0f b8 98 bd
       0.06492996 0.24846964 0.42872396 -0.074569814
000290 55 11 27 3e c3 8e 60 3e 63 d6 1c 3c 90 27 5a 3c
       0.16315205 0.2192946 0.009572598 0.0133150965
0002a0 ae 71 f6 3d 26 9b 8e 3e 78 0c d6 be 3a 9d d1 bd
       0.120334014 0.27852744 -0.41806388 -0.10235067
0002b0 62 5a 6c 3e 02 1e 07 3e 9f 35 23 be 82 5e b5 3e
       0.23081353 0.13195041 -0.15938424 0.35423666
0002c0 cd 07 87 3c ab b6 96 3e 02 c0 16 3e d8 b2 69 be
       0.016483212 0.2943624 0.14721683 -0.2282213
0002d0 7d 55 46 be 33 68 21 be 2e ce a2 be 5a ec 98 3e
       -0.19368549 -0.15762405 -0.31797928 0.29867822
0002e0 65 9b df 3e f4 22 23 be 83 9d a0 3e 76 d5 88 3c
       0.43673244 -0.15931302 0.31370172 0.016703349
0002f0 ed a7 00 be 51 93 35 be df fa ab 3d 41 7f 09 3d
       -0.12564059 -0.17731978 0.08397459 0.033568624
000300 a3 15 8f 3d 6c a1 0d 3e 58 01 cb 3c 26 ac 44 3e
       0.06986549 0.13831109 0.024780914 0.19206294
000310 b6 13 b4 3d 09 a6 c4 3e b6 84 74 be 62 1e 34 3e
       0.08792822 0.38407925 -0.2387875 0.17589715
000320 cb b5 ec be 89 e2 8e be e1 15 68 be ef 6c ce 3d
       -0.46232447 -0.27907208 -0.22664596 0.10079371
000330 73 9e 16 3e 26 0e 50 bc 1b 90 2e be 83 2e 99 3c
       0.14708881 -0.012698686 -0.1704716 0.018698936
000340 2c 5b 9b 3c ef e9 37 3e 41 d6 3e 3e e0 69 d8 bd
       0.018964373 0.17960332 0.18636419 -0.10567069
000350 4c 0e bc be ae d2 59 3d a1 b5 47 bd b7 81 94 be
       -0.36729658 0.053179435 -0.0487572 -0.29005215
000360 71 a9 01 bd 26 5b 85 be 17 2e 8c 3e 95 ba 13 be
       -0.031655733 -0.26046103 0.27378914 -0.14426644
000370 7d 7a 36 be ba e6 88 be f9 70 06 bc b2 7b ce 3e
       -0.17820163 -0.2673853 -0.008205646 0.40328747
000380 b4 fd b8 3c a1 6b 3c be 22 ce 08 3e c4 e3 a4 3e
       0.022581913 -0.18400432 0.13359883 0.3220502
000390 39 ed b3 be 05 dd 31 3e 84 5d 30 3d 5c e4 c9 be
       -0.35141924 0.17369469 0.043057933 -0.39432037
0003a0 97 b2 91 be 57 f0 1a be ae 7a 3d be 5c cb 7b 3d
       -0.28456566 -0.15130745 -0.1850383 0.061473235
0003b0 3e 2a 3e bd ff 80 8e bd be 96 b5 be 21 ae c8 be
       -0.046427004 -0.06958198 -0.3546657 -0.3919535
0003c0 fc 6c 83 3d 44 57 fe bd 86 c6 38 3e 6b 33 80 3e
       0.064172715 -0.12418988 0.1804448 0.2503923
0003d0 f0 14 db 3c 52 2f 96 bd 7d ba bf bd 4d a2 0c be
       0.026743382 -0.073332444 -0.09361742 -0.13733788
0003e0 5f bb ac be 0c 0a ce bd 51 cc bb be 39 ea d4 be
       -0.33736703 -0.1006051 -0.3667932 -0.41584948
0003f0 d8 26 95 3d 20 2a 04 be 62 12 2b be 2d d2 cc 3e
       0.072827995 -0.12906694 -0.16706231 0.400041

onnx::LSTM_120 f4 [1, 80]
000000 66 62 70 3d 2e 19 99 bd 72 98 19 bd 5a 50 f8 3e
       0.05868759 -0.07475506 -0.0374989 0.48498803
000010 28 d5 a3 be 94 57 6f 3d 2a 0d 87 3e 14 d9 69 3c
       -0.31998563 0.05843313 0.2637723 0.014272947
000020 47 03 f5 bd 86 a3 0a 3e 5c a8 96 3d 3f 48 79 bc
       -0.11963516 0.13538942 0.07356331 -0.015214979
000030 dd 93 72 3d e2 77 40 3e e3 27 8e 3d 72 0d b2 3b
       0.059223045 0.18795732 0.069412015 0.0054337317
000040 7c 7d ac 3e ee 05 4b 3e dd 4d a9 bc f2 39 a2 3d
       0.33689487 0.19826481 -0.02066701 0.079212084
000050 1e ab b3 bc 0d 36 8c be 1d 7e 80 3e 1c 9b 4e 3e
       -0.021932181 -0.27384987 0.25096217 0.20176357
000060 49 72 3c 3d 92 2c 43 3e f8 c1 8c 3a bc fb 22 3e
       0.04600743 0.19059971 0.001073896 0.15916342
000070 4b 2c b6 bd 78 e2 a9 3d 13 e6 97 be 91 33 22 bb
       -0.08895167 0.082951486 -0.2966772 -0.0024749974
000080 ca ce 62 be 29 45 04 3e b8 1a 19 bc d7 2b 08 3f
       -0.22149196 0.12917008 -0.009344749 0.53191894
000090 1f a9 06 be f8 2d d0 3d 63 91 8f be e6 fa b7 3d
       -0.13150452 0.10165018 -0.2804061 0.08983402
0000a0 62 6c 02 be e3 54 76 3e 6d a8 13 bd 03 72 7d 3e
       -0.12736657 0.24055819 -0.036049295 0.24750523
0000b0 fd c1 08 bd d4 9d 94 3e 7b a1 f1 3d 15 3b b4 3d
       -0.033388127 0.29026663 0.11798378 0.088003315
0000c0 5e 68 bf 3e a1 59 be 3b 05 0d 84 3e f1 b5 1c be
       0.37384313 0.0058090244 0.25791183 -0.1530378
0000d0 ee 3d 5b be 8e 43 17 3e b5 0f 82 be 77 2c 95 3d
       -0.21410343 0.14771864 -0.2540261 0.072838716
0000e0 1d 05 1b be 7a 80 96 3c 1f 90 f5 bd a3 89 00 3e
       -0.1513867 0.01837181 -0.119903795 0.12552504
0000f0 40 12 4b be f5 2d 9b 3e a1 34 75 3e 26 37 df 3d
       -0.1983118 0.303085 0.23945858 0.108991906
000100 31 55 a1 be 3f 17 9c be a1 78 f2 bd 6d 61 47 bd
       -0.31510308 -0.30486485 -0.118394144 -0.048676897
000110 59 18 90 3e a0 69 2a 3e 3e fe fa bc 0e 1c c1 bd
       0.28143576 0.16641855 -0.03063881 -0.09429179
000120 e4 97 bd 3d 68 ae a1 3a de d6 f5 3d 03 33 0a bd
       0.092574865 0.0012335302 0.12003873 -0.033740055
000130 7f a8 09 3c d8 e9 31 3e 1f 4e 4e 3e 6c 8f 0b 3d
       0.008401989 0.1737436 0.20146988 0.034072325
