models/DISCA_model.onnx (onnx, 40199 bytes, 5 tensors)

fc.weight f4 [5, 10]
0	0xbe978214	-0.2959143
1	0x3e842e80	0.25816727
2	0x3e7c429b	0.24634783
3	0x3edaba81	0.42720416
4	0x3ea6d8b2	0.325872
5	0xbef016db	-0.46892437
6	0x3c8b7f07	0.017028345
7	0x3e0f5fc2	0.14001372
8	0x3e754223	0.2395101
9	0x3c26e2a9	0.010185876
10	0xbe986441	-0.29763988
11	0x3ebb885a	0.36627465
12	0xbec89d3a	-0.39182454
13	0x3d27dc2a	0.04098145
14	0xbddf441b	-0.10901662
15	0xbe36c4a6	-0.17848453
16	0x3eb05aae	0.34444183
17	0x3df7b49d	0.12094996
18	0x3e84b884	0.25922024
19	0xbec00538	-0.37503982
20	0xbe3bc9b0	-0.18338656
21	0x3ef973e8	0.48721242
22	0xbe12e250	-0.14344144
23	0xba998643	-0.0011712987
24	0x3ee2478b	0.44195208
25	0x3dc90ece	0.09817277
26	0x3e4fcc8e	0.20292875
27	0xbdff32ec	-0.124608845
28	0x3ee194be	0.44058794
29	0xbd9f1d11	-0.07769216
30	0x3dd145c7	0.10218387
31	0xbe402952	-0.18765762
32	0x3e5f4b2b	0.21806018
33	0x3e3b59aa	0.18295923
34	0x3e379e0d	0.17931385
35	0x3f0e62ec	0.5561969
36	0x3d6a41b2	0.05719156
37	0xbf583e31	-0.84469897
38	0x3f22525d	0.63406926
39	0xbf2a9f19	-0.66649014
40	0xbd3830ed	-0.044968534
41	0x3e9cd444	0.30630696
42	0xbea0b3dc	-0.31387222
43	0xbd1e1e99	-0.0386034
44	0x3e9e8c75	0.30966535
45	0xbe5d7a9b	-0.21628802
46	0x3e8626fd	0.2620162
47	0x3e4d4be1	0.20048477
48	0x3e81466b	0.25249037
49	0xbdb70bca	-0.089377955

fc.bias f4 [5]
0	0x3e9d69e9	0.30744866
1	0x3d36d92c	0.044640705
2	0xbd6f88b3	-0.058479976
3	0xbcd4ee16	-0.025992434
4	0x3c0a26fa	0.008432144

onnx::LSTM_118 f4 [1, 40, 5]
0	0x3ec45b70	0.3835101
1	0x3e703384	0.23457152
2	0x3e49b296	0.19697031
3	0xbebb6bbf	-0.3660564
4	0xbdac8229	-0.084232636
5	0x3dcf9e76	0.10137646
6	0xbd4c3acb	-0.049860757
7	0x3ef62961	0.48078445
8	0x3b575869	0.0032859093
9	0x3ca2e5b7	0.019884927
10	0x3eb61e62	0.35570055
11	0x3e8d2ad3	0.27571735
12	0x3e01839a	0.12647858
13	0xbe97dc26	-0.29660147
14	0x3e02d11a	0.12775078
15	0xbe8b9174	-0.2725941
16	0xbdd16932	-0.102251425
17	0xbe48a039	-0.1959237
18	0xbf0caf52	-0.5495502
19	0x3ce8c7ee	0.028415646
20	0x3e787169	0.24262013
21	0x3e4a0d9d	0.19731756
22	0xbc91fc05	-0.017820368
23	0x3e507e1c	0.20360607
24	0xbde937c5	-0.1138759
25	0x3ea392eb	0.31948027
26	0x3d176027	0.036956932
27	0xbd96d781	-0.07365323
28	0xbe12a51b	-0.14320795
29	0x3eae8491	0.34085515
30	0x3daffa35	0.08592645
31	0x3ef1907f	0.47180554
32	0x3db59b44	0.08867505
33	0x3b39c11b	0.002834386
34	0xbdcf7aa7	-0.10130816
35	0xbec48f34	-0.38390505
36	0x3bee3cf0	0.007270448
37	0xbe366377	-0.1781138
38	0x3d526b33	0.051371764
39	0xbe171126	-0.14752635
40	0xbdddc276	-0.10828106
41	0x3e144bd4	0.14482051
42	0x3ef9881b	0.48736653
43	0x3e1b5757	0.15170036
44	0x3e2f99d3	0.17148523
45	0xbebfc83a	-0.37457448
46	0xbd9530a6	-0.072846696
47	0x3bc2b185	0.005941572
48	0xbfaa2646	-1.329293
49	0xbe6e3c04	-0.23265082
50	0x3d6e31ab	0.058152836
51	0x3e895df6	0.268295
52	0xbde7e7cb	-0.11323508
53	0xbe93cd36	-0.288675
54	0x3f004769	0.50108963
55	0x3be14a70	0.0068753287
56	0x3e58a356	0.21156058
57	0x3e3a8dce	0.18218157
58	0x3da876aa	0.082257584
59	0x3ecc011f	0.39844605
60	0xbd716b51	-0.058940236
61	0x3eec79a3	0.4618655
62	0xbb9a9279	-0.004717168
63	0xbe8320f1	-0.2561107
64	0xbcb49983	-0.022045856
65	0x3da8a700	0.08234978
66	0xbe88b863	-0.26703176
67	0xbe2db20c	-0.1696245
68	0xbe803049	-0.2503684
69	0xbed5939e	-0.41714185
70	0x3eac0987	0.3360102
71	0x3f041354	0.5159199
72	0x3eaf43ba	0.3423136
73	0xbe4b7c5b	-0.19871657
74	0x3e8f9f58	0.28051257
75	0x3ef4a600	0.47782898
76	0x3d8e6053	0.06951966
77	0xbd9cdbde	-0.07659124
78	0x3e60a00a	0.2193605
79	0x3e3e4c19	0.18583716
80	0x3ef1d97b	0.47236237
81	0x3e2e8323	0.17042212
82	0xbb7381c6	-0.0037156208
83	0xbc4ae61f	-0.012383967
84	0x3ebebc6d	0.37253132
85	0xbeb51c3f	-0.35373113
86	0xbd496f45	-0.04917838
87	0x3c4961b6	0.0122913625
88	0x3f373abd	0.71574
89	0xbe7cd64e	-0.24691126
90	0x3eff545b	0.49869046
91	0x3e0bc1b7	0.13648115
92	0x3f04efab	0.51928204
93	0x3f094e28	0.5363488
94	0x3edf81cc	0.43653715
95	0xbe4c4d28	-0.19951308
96	0xbe106de2	-0.14104417
97	0xbec85855	-0.39129892
98	0xbfd3ffed	-1.6562477
99	0xbef05976	-0.46943253
100	0x3e19da04	0.15024573
101	0xbe2cb03d	-0.16864105
102	0xbe1a4379	-0.15064801
103	0xbe95139a	-0.29116517
104	0x3e096349	0.1341678
105	0xbab1230e	-0.0013514475
106	0x3e991db8	0.29905486
107	0xbc46c779	-0.012132519
108	0xbed493fb	-0.4151915
109	0x3e42a843	0.19009499
110	0x3ec69ce1	0.38791564
111	0x3de87634	0.113506705
112	0x3dde9fed	0.10870347
113	0xbea91038	-0.33020186
114	0x3eeacbda	0.4585865
115	0xbe5b0771	-0.21389557
116	0xbe7438b8	-0.23849761
117	0xbe7d0360	-0.24708319
118	0xbbcc8826	-0.006241816
119	0xbe3886c8	-0.18020165
120	0x3e10006e	0.14062664
121	0x3e856d0b	0.26059756
122	0xbd9a9d64	-0.07549551
123	0x3e064bde	0.13114879
124	0xbe00046b	-0.12501685
125	0x3d18fe74	0.03735204
126	0x3e1c3527	0.15254651
127	0xbd9d2687	-0.07673364
128	0xbe07b1da	-0.13251439
129	0x3bfecd6c	0.007775953
130	0x3ec97f1e	0.39354795
131	0x3c8f19b8	0.017468318
132	0x3eabd1bb	0.3355845
133	0x3e8f7b8f	0.28023955
134	0x3ec7742a	0.38955814
135	0xbe7b1ace	-0.24521944
136	0x3e1f5122	0.15558293
137	0xbed45eea	-0.41478664
138	0x3e88080e	0.26568645
139	0x3e029b9a	0.1275467
140	0x3eacf21c	0.33778465
141	0x3c6445d7	0.013932667
142	0x3dd8d914	0.10588279
143	0xbd6a2f99	-0.0571743
144	0x3e240a0e	0.1601946
145	0xbe3bd5e3	-0.1834331
146	0xbe2e2d48	-0.17009461
147	0x3cda7c59	0.026670622
148	0xbf602112	-0.8755046
149	0xbd32ef2b	-0.04368512
150	0xbe98233f	-0.2971439
151	0xbee956d9	-0.45574072
152	0xbe162901	-0.14664079
153	0x3ec57115	0.38562837
154	0xbdedd4e3	-0.116128705
155	0x3edb0f8a	0.42785293
156	0x3db29ec5	0.08721689
157	0x3e1d703c	0.15374845
158	0xbdaa0fd6	-0.08303802
159	0x3eee4a76	0.46541184
160	0x3c42e242	0.011894764
161	0x3e2a830f	0.16651557
162	0xbea5a460	-0.3235197
163	0x3e24de80	0.16100502
164	0xbeb599b0	-0.35468817
165	0xbe2fad3b	-0.17155926
166	0xbd981836	-0.07426493
167	0xbd0b31ce	-0.033983044
168	0xbd39495c	-0.045235977
169	0x3e884095	0.26611772
170	0x3ed29a80	0.411335
171	0x3eda6177	0.42652485
172	0x3e571f09	0.21007933
173	0x3dc1bfbf	0.09460401
174	0x3eaf9364	0.34292138
175	0xbc3929fe	-0.011301516
176	0xbf05d06f	-0.5227117
177	0xbe14834d	-0.14503212
178	0x3e64df8d	0.22350903
179	0xbc97dbd9	-0.018537449
180	0x3d31c94e	0.04340487
181	0x3e0f1355	0.13972218
182	0x3ec7c8c9	0.39020374
183	0xbe264048	-0.16235459
184	0x3dc65419	0.09684009
185	0x3e2bb2a0	0.16767359
186	0xbbb79d28	-0.0056034513
187	0xbb18ba8e	-0.0023304555
188	0xbf29841e	-0.6621722
189	0x3d46e7f0	0.048561037
190	0x3edee653	0.43535098
191	0xbda7ae10	-0.08187497
192	0xbc056726	-0.008142268
193	0x3eb5ae02	0.3548432
194	0x3e331918	0.17490041
195	0xbcc3aeda	-0.023887087
196	0x3d979a5a	0.07402487
197	0x3da9fc0b	0.083000265
198	0xbd199f30	-0.03750533
199	0x3db3db15	0.08782021

onnx::LSTM_119 f4 [1, 40, 10]
0	0xbe371645	-0.17879589
1	0xbdd6a910	-0.10481465
2	0x3e6cb0f5	0.23114379
3	0xbe92ecae	-0.28696197
4	0x3e8a336d	0.2699236
5	0xbdf39cd6	-0.118951485
6	0x3ec09038	0.3761003
7	0xbc56dcc0	-0.013114154
8	0xbe046724	-0.1292997
9	0x3e0885e6	0.13332328
10	0x3d10286b	0.035194796
11	0xbdda0e7f	-0.10647296
12	0xbe86e2d7	-0.2634494
13	0xbe40b2fd	-0.18818279
14	0x3eb76a79	0.3582342
15	0x3d1a5e49	0.037687574
16	0x3eb863b8	0.3601358
17	0x3bc64439	0.0060506132
18	0xbe4b8831	-0.19876172
19	0xbdf45af4	-0.119314104
20	0x3d319056	0.04335054
21	0x3e7f0123	0.24902777
22	0x3dd42c51	0.10360015
23	0xbcbd77dc	-0.023128442
24	0x3e3396c4	0.17537981
25	0x3ed4edeb	0.41587767
26	0xbe07f658	-0.13277566
27	0xbd9ad125	-0.075594224
28	0xbe86bb1f	-0.26314637
29	0xbea68883	-0.32526025
30	0x3e79dfda	0.24401799
31	0xbe6d4346	-0.23170194
32	0x3cef3766	0.02920122
33	0xbe46dc84	-0.19420058
34	0xbe5e48ee	-0.21707508
35	0xbe47ff95	-0.1953109
36	0xbe61ef16	-0.2206386
37	0x3e6e04e0	0.23244047
38	0xbe3423d6	-0.17591795
39	0xba35bcea	-0.00069327524
40	0xbe89484b	-0.26812968
41	0x3e4f8715	0.20266373
42	0x3db8cc9a	0.090234
43	0xbe73ca4f	-0.23807643
44	0x3ea26412	0.31716973
45	0x3eb6a630	0.35673666
46	0x3d68e191	0.056855742
47	0xbe34119e	-0.17584845
48	0xbdc6d6c1	-0.0970893
49	0xbe0ae068	-0.13562167
50	0xbd206152	-0.039155312
51	0x3ee568ec	0.44806612
52	0xbe4eb379	-0.20185651
53	0xbe7642d4	-0.2404893
54	0xbe3ecb6d	-0.18632288
55	0xbe81f0ab	-0.25378928
56	0x3e3d7e29	0.18505158
57	0x3e2c1592	0.16805103
58	0xbdfa7388	-0.12229067
59	0x3eb6db58	0.3571422
60	0xbdd4def1	-0.10394085
61	0xbc4d9353	-0.012547332
62	0x3d77abe9	0.06046668
63	0x3edc8e57	0.43077347
64	0x3d56c5c6	0.052434705
65	0xbd12e948	-0.035867006
66	0xbdf7e1f3	-0.12103643
67	0xbd4887d4	-0.04895766
68	0xbe8ac5d5	-0.2710406
69	0xbdd2ac3c	-0.10286757
70	0x3e997cfd	0.2997817
71	0xbed76d27	-0.42075464
72	0x3dcfc28c	0.10144529
73	0x3ddd7a3b	0.10814329
74	0xbeab5809	-0.33465603
75	0x3e6762fc	0.22596353
76	0xbec314b8	-0.38101745
77	0xbd955fb6	-0.07293646
78	0x3e92002b	0.28515753
79	0x3e8f4fbc	0.2799052
80	0x3d9d2df7	0.07674783
81	0x3e4c389b	0.19943468
82	0x3e70be9f	0.23510216
83	0x3dbd45a0	0.092417955
84	0xbd492e87	-0.049116638
85	0xbe95fda3	-0.29295072
86	0xbba8ba6f	-0.0051491777
87	0x3c4a513b	0.012348468
88	0x3c60ea4c	0.013727736
89	0xbdb5c0b0	-0.08874643
90	0x3cc46528	0.023974016
91	0xbee9da41	-0.45674327
92	0x3e4285fb	0.18996422
93	0xbf0b2eb6	-0.5436815
94	0x3d7ed683	0.062216293
95	0x3d61ca3a	0.0551245
96	0xbdcfbee7	-0.101438336
97	0xbd1c40d3	-0.03814776
98	0xbe8b01cc	-0.27149808
99	0x3ed74a7d	0.42049018
100	0x3e46e1cb	0.1942207
101	0xbc5ac0f8	-0.013351671
102	0x3db9dafc	0.09074971
103	0xbe06b3ce	-0.13154528
104	0x3eab26d0	0.3342805
105	0x3e085da5	0.13316973
106	0x3eb282d7	0.34865448
107	0xbd99ff0f	-0.07519352
108	0xbe5d1a3a	-0.21592036
109	0xbe1ed3ac	-0.15510434
110	0xbe1a19a9	-0.15048851
111	0xbd43fef5	-0.047850568
112	0xbed737b9	-0.420347
113	0xbe7f3348	-0.24921906
114	0x3e629b9b	0.22129671
115	0x3e49a9f6	0.19693741
116	0x3df59e95	0.11993138
117	0xbe8b6d3f	-0.27231786
118	0xbdbb0898	-0.091324985
119	0x3e4c6b48	0.199628
120	0xbd9adaab	-0.07561239
121	0x3e3923a8	0.18080008
122	0x3e158dbb	0.14604847
123	0x3ee3de41	0.44505504
124	0xbdd4e131	-0.10394514
125	0xbe89dbf1	-0.26925614
126	0xbe337c74	-0.17527944
127	0xbe79aebe	-0.24383065
128	0x3e02f822	0.12789968
129	0x3e670877	0.22561823
130	0x3e0d6de1	0.13811447
131	0xbe3e9d4c	-0.18614691
132	0x3e92bf85	0.28661743
133	0x3daea27a	0.08527084
134	0xbd89f8ff	-0.06736945
135	0x3d980dd1	0.0742451
136	0x3d0b7692	0.034048624
137	0x3e8d3272	0.2757755
138	0xbea2431f	-0.31691834
139	0x3ed7098e	0.41999477
140	0x3e371ea1	0.17882778
141	0x3e7406b4	0.23830682
142	0x3da0e4a1	0.078561075
143	0x3ea63d03	0.32468423
144	0xbc52c928	-0.012865342
145	0x3ee6b4fd	0.45059958
146	0x3e29ba0b	0.16574876
147	0xbe00ad70	-0.12566161
148	0xbdb86bff	-0.090049736
149	0xbceb759c	-0.028742604
150	0x3da33e15	0.079708256
151	0x3eb95688	0.3619883
152	0xbdc8b9ca	-0.098010615
153	0xbd337018	-0.043808073
154	0x3eb071ff	0.34461972
155	0xbec7cd18	-0.39023662
156	0x3dd40e6d	0.10354314
157	0xbe2ba4bb	-0.16762058
158	0xbcf2457a	-0.029574145
159	0x3ef5322e	0.47889847
160	0xbd44a5e7	-0.04800978
161	0x3e8b08d9	0.27155188
162	0xbe4c4660	-0.19948721
163	0x3e49e1c8	0.19715035
164	0x3eaa760f	0.33293197
165	0xbe165820	-0.14682055
166	0xbb9f1171	-0.004854374
167	0xbeb21d52	-0.34787995
168	0xbac4c5e6	-0.0015012592
169	0xbe6ac275	-0.22925742
170	0xbe283b63	-0.16428904
171	0xbe969013	-0.29406795
172	0x3dd9d49f	0.106362574
173	0x3e1c386c	0.15255898
174	0xbe80369e	-0.2504167
175	0x3c825abc	0.015912406
176	0xbdc87445	-0.09787802
177	0xbd968f0e	-0.07351504
178	0x3d8f6b21	0.07002855
179	0x3e0592d7	0.13044296
180	0xbe264d42	-0.16240409
181	0x3ea5ceda	0.32384378
182	0x3eb608c9	0.35553578
183	0x3e702cc5	0.23454578
184	0x3e82c2b5	0.25539175
185	0x3df1bf0a	0.11804016
186	0xbd0e6a55	-0.034769375
187	0x3ebc1c12	0.36740166
188	0x3c74b2b9	0.014935189
189	0xbdfbb7df	-0.1229093
190	0x3ebffa1c	0.37495506
191	0xbe933fe0	-0.2875967
192	0xbdbded3c	-0.092737645
193	0xbe654a99	-0.22391738
194	0x3d19c07b	0.03753708
195	0x3eaee2b4	0.34157336
196	0xbdf6ecf6	-0.120569155
197	0xbec685b3	-0.3877388
198	0x3d375149	0.044755254
199	0x3f039a5b	0.514074
200	0x3e8c11b6	0.27357262
201	0xbe9ae932	-0.3025604
202	0xbcc0a729	-0.023517208
203	0x3e43f238	0.19135368
204	0x3c01644e	0.00789745
205	0x3c80ab4a	0.015706677
206	0x3e86220a	0.26197845
207	0x3ddc48a6	0.10756044
208	0x3e0a1fe0	0.13488722
209	0xbcc88c68	-0.024481013
210	0x3bf73412	0.007544049
211	0xbea28ed9	-0.3174961
212	0xbe4284a9	-0.18995918
213	0xbe18e26a	-0.1493012
214	0xbe495690	-0.19661927
215	0x3e6c8b59	0.23100032
216	0xbd8cc9b6	-0.06874411
217	0xbeca9c62	-0.39572436
218	0xbe9e50a6	-0.30920905
219	0xbe6cd85c	-0.2312941
220	0xbe7c767b	-0.24654572
221	0x3d49c06c	0.049255773
222	0x3c254609	0.010087498
223	0x3dbffba0	0.093741655
224	0xbe83e167	-0.25757906
225	0x3e596b06	0.21232232
226	0xbeba09ae	-0.3633551
227	0x3ccb552e	0.02482089
228	0xbe618a1a	-0.22025338
229	0xbd0dfd7e	-0.034665577
230	0x3dee43db	0.11634036
231	0xbf243f6e	-0.64159286
232	0x3d9f154b	0.07767733
233	0xbed114b8	-0.4083612
234	0x3d818929	0.06324989
235	0xbc3be01c	-0.011467006
236	0xbefaabf2	-0.4895931
237	0x3e6033fa	0.21894827
238	0xbe9fd88e	-0.31219906
239	0x3e5d8355	0.2163213
240	0xbe03287a	-0.1280841
241	0x3d7211dd	0.059099067
242	0xbe90b299	-0.2826126
243	0x3ea1c2e7	0.3159401
244	0x3e0c2d93	0.1368926
245	0x3f13d89f	0.5775241
246	0x3e08e20d	0.13367482
247	0x3d100083	0.035156738
248	0xbe553819	-0.20822181
249	0xbe9e3325	-0.30898395
250	0xbb9b072c	-0.0047310796
251	0xbe055579	-0.13020886
252	0x3dd8be38	0.10583156
253	0x3d077cda	0.033078052
254	0x3da951f2	0.08267583
255	0x3b24a266	0.002512121

onnx::LSTM_120 f4 [1, 80]
0	0xbddf1e3c	-0.108944386
1	0x3e858dc1	0.26084712
2	0x3e46410c	0.19360751
3	0xbe2faf02	-0.17156604
4	0x3eb8c126	0.3608486
5	0x3e9ea55e	0.3098554
6	0x3d82070b	0.063489996
7	0x3b325f58	0.0027217474
8	0x3d9a0a27	0.07521468
9	0x3df5d17c	0.120028466
10	0x3da5035e	0.08057283
11	0x3d734b5f	0.05939805
12	0x3ce55546	0.027994763
13	0xbd74bf7b	-0.059752923
14	0xbe7a5282	-0.24445537
15	0x3e95d4b4	0.29263842
16	0xbcfa618c	-0.030564092
17	0xbd3163c3	-0.04330803
18	0xbe8b4dd5	-0.2720782
19	0xbe8dba60	-0.27681255
20	0xbe950bbd	-0.29110518
21	0xbd5cde4b	-0.053922933
22	0x3e767d23	0.24071173
23	0x3ce9d6b5	0.028544763
24	0xbe3e705e	-0.18597552
25	0xbe859e77	-0.26097462
26	0x3e6df57e	0.23238179
27	0x3e4133d7	0.18867432
28	0xbd736b6e	-0.059428625
29	0xbe90d7ca	-0.28289634
30	0xbdde414a	-0.10852297
31	0xbe24b7ec	-0.16085786
32	0xbe8b0360	-0.27151012
33	0xbe24fcaf	-0.16112016
34	0x3dabb17a	0.0838346
35	0x3e8f6c38	0.28012252
36	0xbe1ca208	-0.15296185
37	0xbe17f7f5	-0.14840682
38	0x3eb3975b	0.35076413
39	0x3d642402	0.055698402
40	0xbd36390b	-0.044487994
41	0x3eb2832f	0.3486571
42	0x3e1f1da0	0.15538645
43	0x3d61e425	0.055149216
44	0x3ba19ed2	0.004932263
45	0x3eabe0f0	0.3357005
46	0x3dbfeda0	0.09371495
47	0x3e5292c8	0.20563805
48	0xbe76f04b	-0.24115102
49	0xbdd2442f	-0.10266911
50	0x3e01a883	0.12661938
51	0x3eef6d77	0.46763203
52	0x3e0b1ae5	0.13584478
53	0x3c46e1ef	0.012138828
54	0xbc0a63b9	-0.008446627
55	0xbdc82253	-0.09772172
56	0x3e1cf8e0	0.15329313
57	0xbec4f750	-0.38469934
58	0x3de59798	0.11210555
59	0xbdbdbe07	-0.092647605
60	0xbe45fb5e	-0.1933417
61	0x3dd73ff4	0.10510245
62	0xbdcde74c	-0.10053882
63	0x3beef37a	0.0072922083
64	0xbe101f91	-0.14074542
65	0x3e0b8c4d	0.13627739
66	0xbe6f9b74	-0.23399144
67	0xbe929492	-0.28628975
68	0xbe05f2f7	-0.13080965
69	0x3b5fa7c4	0.0034127096
70	0x3e78c0a8	0.24292243
71	0xbd027b9d	-0.031856168
72	0xbe97dc6e	-0.29660362
73	0xbd0e12b2	-0.034685798
74	0xbe71c5c0	-0.23610592
75	0xbcfdbe2d	-0.030974472
76	0x3e895ea8	0.2683003
77	0xbdef83d6	-0.116950676
78	0x3b75c11f	0.0037499142
79	0x3ed714bc	0.42008007
