models/DWDP_model.onnx (onnx, 40199 bytes, 5 tensors)

fc.weight f4 [5, 10]
0	0xbeae88aa	-0.3408864
1	0xbe5eca58	-0.21756876
2	0x3d0b4785	0.034003753
3	0x3e034ea1	0.12822963
4	0x3e154e10	0.1458056
5	0xbe9bdc43	-0.30441484
6	0xbd6d79c4	-0.057977453
7	0xbee9ceb6	-0.4566552
8	0x3d00f614	0.03148468
9	0x3e4605ad	0.19338103
10	0xbecee0f3	-0.40405998
11	0x3da71fcd	0.081603624
12	0x3e2a46da	0.1662859
13	0xbd5ee509	-0.054417644
14	0x3cefd317	0.02927546
15	0x3dbbd3ba	0.09171243
16	0xbec67c0a	-0.3876651
17	0xbea0779c	-0.31341255
18	0xbdcb5d1d	-0.09929869
19	0xbd44c968	-0.04804364
20	0xbe77efbc	-0.24212545
21	0x3e0d7614	0.13814574
22	0xbd95e5ce	-0.073192224
23	0xbe9d2122	-0.3068934
24	0x3ed00a9b	0.4063309
25	0xbe8aac5e	-0.2708463
26	0xbb3a5621	-0.0028432684
27	0xbec4a718	-0.38408732
28	0xbe500ead	-0.20318098
29	0x3dd5c1a3	0.10437324
30	0x3cf698ba	0.030102123
31	0xbee99382	-0.45620352
32	0x3e68fb2e	0.22752067
33	0x3e153403	0.14570622
34	0x3edbd860	0.4293852
35	0x3e784a8b	0.24247186
36	0xbebdc77d	-0.3706626
37	0x3ea90248	0.33009553
38	0xbea8cd8f	-0.3296933
39	0x3d8e9af1	0.069631465
40	0x3dd43665	0.103619374
41	0xbe1868a9	-0.14883675
42	0x3d094b71	0.033519212
43	0xbe719669	-0.23592533
44	0x3dfcf5b4	0.12351552
45	0xbe10ff24	-0.14159828
46	0xbed3e9f7	-0.4138944
47	0xbe742045	-0.23840435
48	0x3c5d518b	0.013508211
49	0xbc652973	-0.013986933

fc.bias f4 [5]
0	0x3ea16aba	0.31526738
1	0x3eac5760	0.33660412
2	0x3d09bbd6	0.0336264
3	0x3dcc0037	0.099609785
4	0x3ec1c54c	0.37845838

onnx::LSTM_118 f4 [1, 40, 5]
0	0x3c8500f7	0.016235812
1	0x3f121df0	0.5707693
2	0x3ebc5ebc	0.36791027
3	0x3e99f2bb	0.30068
4	0x3d86294a	0.06550844
5	0xbe0ea9b0	-0.13931918
6	0xbeaac95e	-0.33356756
7	0xbe06184c	-0.13095206
8	0xbea17c85	-0.31540313
9	0xbe08ec81	-0.13371469
10	0x3b8651aa	0.0040990906
11	0xbec3c44d	-0.38235703
12	0x3d009336	0.03139039
13	0xbe793a95	-0.24338754
14	0xbec54ac9	-0.3853362
15	0x3eaf1f7d	0.3420371
16	0xbde7c1a5	-0.11316232
17	0xbe059f58	-0.13049066
18	0xbba5b236	-0.005056645
19	0x3d1ce5ff	0.03830528
20	0x3ef45fd9	0.47729376
21	0xbd31aff8	-0.043380708
22	0x3e852fed	0.26013127
23	0x3dcff36e	0.101538524
24	0xbce9651d	-0.028490597
25	0x3eb26317	0.34841225
26	0x3eb6da9c	0.3571366
27	0x3e5a9e60	0.21349478
28	0x3ec4f1c1	0.38465694
29	0x3e6578dd	0.22409387
30	0x3e4d7f28	0.20068038
31	0x3f0a0e5f	0.5392818
32	0x3de05beb	0.10955032
33	0xbf676021	-0.90381056
34	0x3ef4f9b6	0.47846764
35	0x3e6a4a30	0.22879863
36	0x3f1f5e21	0.62253004
37	0x3e9f7669	0.31145027
38	0x3df6accc	0.12044677
39	0x3f2641b5	0.6494401
40	0x3cc50365	0.02404947
41	0x3dd3575c	0.10319397
42	0xbe2c83e4	-0.16847187
43	0x3dc8e86a	0.098099545
44	0xbe2d7bec	-0.16941804
45	0xbebf7a49	-0.37397984
46	0xbebb9def	-0.3664393
47	0xbe959970	-0.29218626
48	0x3ed3a677	0.4133794
49	0xbed43534	-0.4144684
50	0x3ebb4d5e	0.36582464
51	0x3f08fd58	0.5351157
52	0x3d8e99d8	0.06962937
53	0x3ebc5799	0.36785582
54	0x3f272013	0.65283316
55	0x3d3aa623	0.045568597
56	0xbe9e4bb0	-0.3091712
57	0x3d1a18e0	0.03762138
58	0xbeccb956	-0.3998515
59	0x3e0f69b6	0.1400517
60	0xbdc2bb1a	-0.09508343
61	0xbccdd610	-0.025126487
62	0xbe40f396	-0.1884292
63	0xbd005f9a	-0.031341173
64	0x3d6cd5f8	0.057821244
65	0x3d66b293	0.056322645
66	0xbe6dde5d	-0.23229356
67	0x3e1182ae	0.14210007
68	0xbe8d54f9	-0.27603891
69	0x3ed8cfd6	0.42346066
70	0x3ea84498	0.32864833
71	0x3db2c808	0.08729559
72	0x3ef06be2	0.46957308
73	0x3ec9b1d2	0.3939348
74	0x3e8e74fa	0.2782362
75	0x3cfbf08a	0.030754346
76	0x3f0a3989	0.5399404
77	0x3df86e58	0.121304214
78	0xbd463c13	-0.048397135
79	0x3ecfc42e	0.4057936
80	0x3e6f9f9a	0.23400727
81	0x3e185f06	0.14879999
82	0x3e9422ec	0.28932893
83	0xbecb7940	-0.39740944
84	0x3f0a2d95	0.539758
85	0x3f05c830	0.52258587
86	0x3f3ba5cc	0.7329986
87	0x3f13606d	0.5756901
88	0x3d365b6a	0.044520773
89	0x3eac3227	0.33632013
90	0xbde099dc	-0.10966846
91	0x3e8a547e	0.27017587
92	0xbe069d3d	-0.13145919
93	0xbe9f7f0a	-0.3115161
94	0x3e9866ba	0.29765874
95	0x3dde98fe	0.10869025
96	0xbe2746b1	-0.1633556
97	0xbdd9b58a	-0.10630329
98	0x3f065093	0.52466697
99	0x3e09fcf5	0.13475402
100	0xbd37cff7	-0.044876065
101	0x3de4187d	0.11137483
102	0x3edd0fa0	0.43175983
103	0x3e444b1c	0.19169277
104	0x3edd2d87	0.43198797
105	0xbe5b04d0	-0.21388555
106	0x3e32db83	0.1746655
107	0xbe882702	-0.2659226
108	0xbeed4857	-0.46344253
109	0x3e43ae87	0.19109546
110	0xbe8d964f	-0.2765374
111	0x3d9c869e	0.07642864
112	0x3e475f79	0.19470014
113	0x3d7e66e6	0.06210985
114	0xbe60d38e	-0.21955702
115	0xbd896ac4	-0.06709817
116	0x3e6fe5d6	0.23427519
117	0x3e02d911	0.12778117
118	0xbe3e6bad	-0.18595763
119	0xbe02a047	-0.12756453
120	0x3c058594	0.008149523
121	0xbb1aedf6	-0.002364037
122	0xbde41a39	-0.11137814
123	0xbd119a52	-0.035547562
124	0xbd8fd61b	-0.07023259
125	0xbd19db25	-0.037562508
126	0x3d862b93	0.0655128
127	0x3e469a53	0.19394808
128	0x3e04e143	0.12976556
129	0x3ed51b10	0.4162221
130	0xbb36ec6f	-0.0027911921
131	0x39f4f059	0.0004671838
132	0x3ef83dcf	0.48484656
133	0xbeddd49c	-0.4332627
134	0x3e99535d	0.29946414
135	0xbe57ca94	-0.21073371
136	0x3dfb8dd3	0.1228291
137	0x3e6d0a24	0.231484
138	0x3d0b3305	0.033984203
139	0x3edc6bb5	0.43050924
140	0xbe99adaf	-0.30015323
141	0x3e3b1c1b	0.1827244
142	0xbe9c30ed	-0.30506077
143	0xbe20a65b	-0.1568846
144	0x3e6393f7	0.22224413
145	0xbf563ac6	-0.8368343
146	0xbe7ad118	-0.24493825
147	0xbf30c0b4	-0.6904404
148	0x3e9a165f	0.30095193
149	0xbedf4d41	-0.43613628
150	0x3de18cd6	0.110131904
151	0x3dd0299d	0.10164187
152	0xbed9af19	-0.425164
153	0x3d658c6d	0.056042124
154	0xbea2f12a	-0.3182462
155	0x3eb83a98	0.35982203
156	0xbdc45a8d	-0.09587584
157	0x3cf91df0	0.030409783
158	0xbd4a529c	-0.04939519
159	0xbd5ce396	-0.05392798
160	0xbe2da213	-0.16956358
161	0x3d10c2f5	0.035342176
162	0xbea5bf44	-0.32372487
163	0xbd904a24	-0.07045391
164	0x3ce15177	0.027504666
165	0xbebb9327	-0.36635706
166	0xbd0f6988	-0.03501275
167	0xbdf7225c	-0.120671004
168	0xbe6c341c	-0.23066753
169	0xbd99a4db	-0.07502147
170	0x3e6b902c	0.23004216
171	0x3e68b025	0.22723444
172	0x3e2a236e	0.16615078
173	0x3e143a00	0.1447525
174	0x3e8dd6e1	0.27703002
175	0xbe20bba6	-0.15696582
176	0xbe0b94ad	-0.13630934
177	0xbe14c8ad	-0.14529677
178	0xbea4181f	-0.32049653
179	0xbe46b310	-0.19404244
180	0x3cad057e	0.021120783
181	0xbe1eeb31	-0.15519406
182	0xbeded6e0	-0.43523312
183	0xbfc9737a	-1.5738366
184	0xbf06db23	-0.52678126
185	0x3b1b97cf	0.0023741608
186	0xbf051f6a	-0.5200106
187	0xbf01f935	-0.50770885
188	0x3d19dac8	0.03756216
189	0xbf215533	-0.6302063
190	0xbe2439ba	-0.16037646
191	0x3d8b77d1	0.068099625
192	0xbec7afd9	-0.3900135
193	0xbe895173	-0.26819953
194	0xbd250ef3	-0.04029746
195	0xbeaa4250	-0.33253717
196	0xbedd71fb	-0.43251023
197	0xbf054ebd	-0.5207327
198	0x3ea62b2b	0.3245481
199	0xbec941bf	-0.39307973

onnx::LSTM_119 f4 [1, 40, 10]
0	0xbded92f8	-0.11600298
1	0xbe75a691	-0.23989321
2	0x3e98de9d	0.2985734
3	0x3e16b0cb	0.14715879
4	0x3e80470c	0.25054204
5	0x3e9164d3	0.28397235
6	0xbdd0bb83	-0.10192015
7	0xbe388241	-0.18018438
8	0x3e6dd15f	0.232244
9	0x3e08e7b0	0.13369632
10	0x3d932017	0.07183855
11	0x3db123b2	0.086493865
12	0xbd6d4cbf	-0.05793452
13	0x3e20e762	0.15713266
14	0x3e23aea5	0.1598459
15	0xbf06db6f	-0.5267858
16	0x3ec3b949	0.382273
17	0xbd882741	-0.06648112
18	0xbde08658	-0.10963124
19	0xbec13fbc	-0.37743938
20	0x3da1d736	0.07902376
21	0xbd828e95	-0.063748516
22	0xbedfff24	-0.43749344
23	0x3e1e405a	0.15454236
24	0x3e8c0c0d	0.27352944
25	0xbe4af99c	-0.19821781
26	0xbe1c8fc4	-0.15289217
27	0x3e76024f	0.24024318
28	0xbe575723	-0.21029334
29	0xbe6072f9	-0.21918859
30	0xbde62b8a	-0.11238773
31	0xbe4c52ce	-0.19953462
32	0x3d1e7a6a	0.038690962
33	0x3e96fe04	0.29490674
34	0xbd273e21	-0.040830735
35	0xbe8116d3	-0.25212726
36	0x3e4a39ce	0.19748613
37	0xbd1243e8	-0.03570929
38	0x3db4c0e7	0.08825856
39	0x3dddcc7f	0.1083002
40	0xbe8c5cca	-0.27414542
41	0xbe8c0784	-0.27349484
42	0x3d67cb2e	0.05659025
43	0xbd97559f	-0.07389378
44	0x3eb2d1de	0.3492574
45	0xbeafb95a	-0.343211
46	0xbed5e277	-0.4177434
47	0x3e6340cf	0.22192691
48	0x3eb6f25a	0.35731775
49	0x3e310bd9	0.17289676
50	0xbe5fee8f	-0.21868347
51	0xbee305a6	-0.44340247
52	0x3f356207	0.708527
53	0x3e992840	0.2991352
54	0xbe8095c9	-0.25114277
55	0x3d548ebd	0.05189394
56	0xbdaf5351	-0.08560813
57	0x3e9c2e26	0.30503958
58	0xbd691338	-0.056903094
59	0x3eba2f55	0.36364236
60	0x3dbf6dd4	0.0934712
61	0x3d1c839b	0.038211446
62	0x3e9cc5d9	0.30619696
63	0xbe3823bd	-0.17982383
64	0xbc0374ab	-0.008023421
65	0x3df298f6	0.11845581
66	0xbe65305d	-0.2238173
67	0xbebe3a13	-0.37153682
68	0x3f5a2129	0.8520685
69	0x3f7975ac	0.9744518
70	0xbf42794d	-0.7596634
71	0x3dc21dfc	0.09478375
72	0xbe1cb31a	-0.15302697
73	0xbf20e0b7	-0.6284289
74	0x3ed0dffb	0.40795884
75	0xbf498121	-0.7871266
76	0xbf031f76	-0.5121988
77	0xbed8fa83	-0.42378625
78	0xbe9e885f	-0.30963418
79	0xbc3464ba	-0.011010343
80	0x3ce7a694	0.028277673
81	0x3ec36612	0.3816381
82	0xbe5d87f6	-0.21633896
83	0x3e8010c5	0.25012794
84	0xbdbe26be	-0.09284733
85	0x3e1c6fa9	0.1527697
86	0xbe0c6d52	-0.13713577
87	0x3ebbe8f5	0.3670117
88	0xbed5b446	-0.417391
89	0x3f349125	0.7053397
90	0x3e575107	0.21027003
91	0xbf9231e0	-1.1421471
92	0x3fb309ce	1.3987367
93	0x3e8f68e6	0.2800972
94	0xbed379d2	-0.4130388
95	0x3ed2bd11	0.4115987
96	0xbdcd91a7	-0.100375466
97	0x3eaaa957	0.3333232
98	0xbe9b5b22	-0.30342966
99	0x40072e2d	2.1121933
100	0x3df50563	0.11963918
101	0xbf2543ec	-0.64556766
102	0x3f11b5b4	0.5691788
103	0x3da5e265	0.08099822
104	0x3e13e249	0.1444179
105	0xbd47137d	-0.04860257
106	0xbd3e5fe1	-0.046478156
107	0x3e59079b	0.21194308
108	0x3eafba59	0.3432186
109	0x3eb59a89	0.35469463
110	0x3de93781	0.1138754
111	0x3e9f6636	0.31132668
112	0xbe9947ca	-0.29937583
113	0xbe8b0bd6	-0.27157468
114	0x3e6b7627	0.2299429
115	0xbe47218e	-0.19446394
116	0x3ecb1367	0.3966324
117	0xbdbd1711	-0.09232915
118	0xbe7a1582	-0.24422267
119	0xbf1473e6	-0.57989347
120	0xbecb5517	-0.39713356
121	0x3dbb91f4	0.09158698
122	0xbc5e726e	-0.013577087
123	0xbeb20de8	-0.34776235
124	0x3e06343c	0.13105863
125	0x3d915be5	0.070976056
126	0x3eae1a88	0.34004617
127	0x3ef4ec99	0.4783676
128	0xbe81b0d4	-0.25330222
129	0xbdb95ba4	-0.09050682
130	0x3e292468	0.16517794
131	0xbd33c9ce	-0.043893628
132	0x3eaac9bf	0.33357045
133	0xbda0d138	-0.07852405
134	0x3de490b2	0.11160411
135	0xbe4807bc	-0.195342
136	0x3ddb204b	0.10699519
137	0x3dcfa17c	0.101382226
138	0x3deb8380	0.11499691
139	0x3d17fbc5	0.03710534
140	0xbd7abe7b	-0.061216813
141	0xbe2a385f	-0.16623066
142	0x3eb27e7f	0.34862134
143	0xbe97a2d9	-0.2961643
144	0xbc1885fd	-0.009309289
145	0xbe8f9cef	-0.28049418
146	0x3e05fac1	0.13083936
147	0x3bef0792	0.0072946036
148	0x3e2068db	0.15664999
149	0x3e3d5f2f	0.18493341
150	0xbe6acd3d	-0.22929855
151	0xbe8d547c	-0.2760352
152	0x3ea08919	0.31354597
153	0x3eace28e	0.33766598
154	0xbe1b4fb0	-0.15167117
155	0xbe92abf5	-0.28646818
156	0xbe499813	-0.19686918
157	0xbde4324d	-0.111424066
158	0x3e970a0a	0.29499847
159	0x3e47244d	0.19447441
160	0xbe8c4ede	-0.2740392
161	0x3ba88e54	0.00514392
162	0x3e0e1262	0.138742
163	0xbe5aaf29	-0.21355881
164	0x3dbf5977	0.09343236
165	0xbe357e90	-0.17724061
166	0x3c6fec34	0.014643718
167	0xbe870c46	-0.2637655
168	0x3e9d4ede	0.30724233
169	0x3f16b852	0.58875
170	0xbe86fd54	-0.2636515
171	0x3ec72ea1	0.38902763
172	0x3d9adb7a	0.07561393
173	0xbdc208a2	-0.09474303
174	0x3ec1ded7	0.37865326
175	0xbebdf058	-0.3709743
176	0xbdc007ef	-0.09376513
177	0xbe5ab07e	-0.21356389
178	0xbe598604	-0.21242529
179	0xbc8d4c5e	-0.017248329
180	0xbe294c48	-0.16533005
181	0xbb7ad4d9	-0.003827384
182	0xbe210dcf	-0.15727924
183	0x3d978957	0.07399242
184	0xbdc3556c	-0.09537777
185	0x3e98a265	0.29811397
186	0xbe3a84f2	-0.18214777
187	0x3f0aacea	0.54170096
188	0xbdbcfcd9	-0.09227914
189	0x3efecf6d	0.49767628
190	0x3d13ab4b	0.03605203
191	0xbf5760a3	-0.8413183
192	0x3fc105d8	1.5079908
193	0x3db2f5e8	0.08738309
194	0xbdee33de	-0.11630987
195	0xbe2687d5	-0.16262753
196	0xbe5b2230	-0.2139976
197	0x3ec88b77	0.39168903
198	0xbea41aaa	-0.32051593
199	0x400ff569	2.2493536
200	0xbe06db69	-0.13169636
201	0xbec95af0	-0.39327192
202	0x3eb926e7	0.36162493
203	0xbdf94ece	-0.12173234
204	0xbd78c3e0	-0.060733676
205	0xbc4eeaa1	-0.012629182
206	0x3e1527da	0.14565983
207	0x3e0ebf8d	0.13940258
208	0x3f189ae5	0.5961135
209	0x3ed85fba	0.42260534
210	0xbe612d48	-0.2198993
211	0xbdb97f44	-0.09057477
212	0x3da0e811	0.07856763
213	0x3e153da9	0.14574303
214	0x3d68bbe2	0.056819804
215	0xbed4807a	-0.4150427
216	0x3e104bb1	0.14091374
217	0xbe1fca3f	-0.15604495
218	0x3d54ce94	0.05195482
219	0xbe074206	-0.1320878
220	0xbda1db98	-0.07903212
221	0xbd960130	-0.07324445
222	0xbeb32717	-0.3499076
223	0x3ea6c245	0.3257009
224	0xbea0c3b5	-0.31399313
225	0x3e88c3c7	0.26711866
226	0x3d7d2d21	0.061810616
227	0x3eb29eac	0.34886682
228	0xbdfb2193	-0.12262263
229	0x3dc5b238	0.09653133
230	0x3e841a30	0.2580123
231	0x3d6a2f7f	0.057174202
232	0x3e790a23	0.24320273
233	0x3cb33165	0.02187414
234	0x3d326136	0.04354974
235	0xbe87f5c6	-0.26554698
236	0xbe60862a	-0.2192618
237	0x3e3e79f0	0.18601203
238	0x3ed872d7	0.42275116
239	0x3d4cfc62	0.05004538
240	0xbcb65c2c	-0.022260748
241	0xbc91dbb9	-0.017804967
242	0x3f147bee	0.580016
243	0x3e8a3b3f	0.26998326
244	0xbc0c021d	-0.008545426
245	0x3e1b82a2	0.15186551
246	0xbe322b95	-0.17399438
247	0x3eb82a09	0.3596957
248	0x3ef87415	0.48526064
249	0x3f175794	0.5911801
250	0x3d3b0e5f	0.045668002
251	0xbf36f3e3	-0.7146589
252	0x3efa84e4	0.48929513
253	0xbe49becc	-0.1970169
254	0xbe218662	-0.15773919
255	0x3e1471ab	0.14496486

onnx::LSTM_120 f4 [1, 80]
0	0xbe452c92	-0.19255283
1	0xbea10bb9	-0.31454256
2	0x3d403170	0.046922147
3	0x3dc6dde1	0.09710289
4	0x3e4b2387	0.19837771
5	0x3e8b7f79	0.2724569
6	0x3eb90cfe	0.36142725
7	0x3efaba2c	0.48970163
8	0xbe9ea083	-0.30981836
9	0x3f0eda57	0.5580191
10	0xbe3907da	-0.18069401
11	0x3df23097	0.11825674
12	0xbe2866cb	-0.16445462
13	0xbe524906	-0.20535669
14	0x3d7c0a9a	0.061533548
15	0x3e8f9312	0.28041893
16	0x3d9f414b	0.077761255
17	0x3eb7619b	0.35816655
18	0x3dcf1f41	0.10113383
19	0x3ee1e6e0	0.44121456
20	0xbd8131b1	-0.06308306
21	0xbe88d5d6	-0.26725644
22	0xbeb6e960	-0.35724926
23	0x3d8387d6	0.06422393
24	0xbe08a1b8	-0.13342941
25	0x3e4b5926	0.19858226
26	0x3e15fe5d	0.14647813
27	0xbddbdc58	-0.107353866
28	0xbe9da37f	-0.307888
29	0x3e9d3ec0	0.30711937
30	0xbe2df21c	-0.16986889
31	0x3e1df432	0.15425184
32	0x3de6bced	0.112665035
33	0xbd5efcaa	-0.054440178
34	0x3e5cfa96	0.21579966
35	0xbe6c3ffb	-0.23071282
36	0x3b32ab62	0.0027262797
37	0x3d929f09	0.0715924
38	0x3d99d0aa	0.07510503
39	0x3ea09860	0.31366253
40	0x3e56a044	0.20959574
41	0x3d77f16f	0.060532983
42	0x3cb8987d	0.02253365
43	0x3d43eef3	0.0478353
44	0x3d22cab9	0.039744113
45	0xbd7a1a25	-0.06106009
46	0xbdfd976e	-0.123823985
47	0x3eaf68bf	0.34259602
48	0xbe109ea0	-0.1412301
49	0x3e39befa	0.18139258
50	0x3d7a2049	0.061065946
51	0xbea27375	-0.31728712
52	0xbdf7955d	-0.12089036
53	0xbe27b54d	-0.16377755
54	0x3ec7dd43	0.39035997
55	0x3e4e85ca	0.20168224
56	0xbe553be4	-0.20823628
57	0xbd0e18ee	-0.034691744
58	0x3e57c18e	0.21069929
59	0x3f1c9395	0.6116269
60	0xbe1acf1a	-0.15118065
61	0xbe04f087	-0.12982379
62	0xbde708f0	-0.112810016
63	0xbdb89ca9	-0.090142556
64	0xbd62e587	-0.055394676
65	0xbbc74bc0	-0.006082028
66	0xbdf79806	-0.12089543
67	0x3e781fd9	0.24230899
68	0x3db3b4e9	0.0877474
69	0x3e7aede4	0.2450481
70	0xbe3dff6f	-0.18554471
71	0xbcc4ed0a	-0.02403881
72	0x3d94b1a3	0.07260444
73	0xbe77bdd6	-0.2419351
74	0x3edf3f48	0.43602967
75	0xbcdcde7a	-0.026961554
76	0xbe7a4bcf	-0.24442981
77	0x3e79e59f	0.24404
78	0xbe56d51e	-0.20979735
79	0xbdfda775	-0.123854555
