models/EMN_model.onnx (onnx, 40199 bytes, 5 tensors)

fc.weight f4 [5, 10]
000000 9d 92 1b bf b5 52 66 bd 1b 09 64 3e 60 83 1c be
       -0.6077059 -0.05623122 0.22269098 -0.1528449
000010 b6 a8 c0 3d 54 8e 10 3e 60 f0 b5 3e 50 2c 92 be
       0.09407179 0.14116794 0.35534954 -0.28549433
000020 fd cf 28 bc 02 0c 82 3c 18 0c 8d bd 03 df 66 3e
       -0.0103034945 0.015874866 -0.06887072 0.2254601
000030 54 bc b0 3e ee 8a 2c 3e ba 8a 8a 3d 1e ab 0a bc
       0.34518683 0.16849872 0.06764741 -0.008463649
000040 b6 f8 71 3e ff f7 3d 3e cc 05 bb be 8e d9 02 bf
       0.23630032 0.18551634 -0.3652786 -0.5111321
000050 3d ae a3 be 17 5d 46 3e 3c c2 bf 3e 00 77 09 3e
       -0.3196887 0.19371448 0.37452877 0.13424301
000060 94 bc 0d bf a9 33 77 be 10 9f a9 3c 3a b2 3a 3c
       -0.5536587 -0.241408 0.02070573 0.011395032
000070 27 80 54 be 8c ff 90 be fb 84 6a 3d 54 10 9d be
       -0.20752011 -0.28319967 0.057255726 -0.3067652
000080 c4 c2 ae be af f7 95 3d c2 e5 db 3d 3d fe 41 3e
       -0.3413297 0.073226325 0.10737182 0.1894464
000090 f2 f0 4e 3e 22 da 82 3d db 86 d4 3e 1d 98 d5 be
       0.20209101 0.06389262 0.41509137 -0.41717616
0000a0 d7 c4 d9 bd 15 3f b5 3e 14 82 c5 3e 7b 5c a3 bd
       -0.10633247 0.3539969 0.38575804 -0.079766236
0000b0 ac 9e 03 bf 5a 76 57 be c6 24 96 3e 2d fa 0d 3d
       -0.5141399 -0.21041241 0.2932493 0.034662414
0000c0 5d 7f 80 be 29 3e 9e be
       -0.2509717 -0.309068

fc.bias f4 [5]
000000 e6 00 34 3e 0b 0d f4 3d 80 96 ae 3e d8 76 b3 3d
       0.17578468 0.1191655 0.34099197 0.08762902
000010 a8 ca 7d 3e
       0.24784338

onnx::LSTM_118 f4 [1, 40, 5]
000000 f4 4a 40 bc a5 a8 5d 3e f9 1d ed 3e 60 2a d9 3e
       -0.01173662 0.21646364 0.4631193 0.42415142
000010 29 1a b7 3e cf f3 f2 3b d8 eb 3d be 39 f9 b9 be
       0.35762146 0.007414318 -0.18546999 -0.36322954
000020 35 0b 01 be b2 ea e3 be 52 2e 9f 3e eb fd cf 3e
       -0.12601931 -0.44514996 0.31090027 0.40623412
000030 3b 73 0f 3f 17 73 6d 3d 1c 9b 1e 3e e4 c7 7d be
       0.560352 0.057971086 0.15488857 -0.24783283
000040 be 54 fa 3d 28 e4 75 bc 34 e3 fc be 75 91 b1 be
       0.122231945 -0.01500801 -0.49392092 -0.34681287
000050 85 a7 e6 be 98 f9 af bd a8 72 26 bc 65 ba 93 bd
       -0.45049682 -0.08592528 -0.010159172 -0.07213286
000060 5c 29 d8 be 10 15 3e be aa 27 3b bb 30 04 84 bd
       -0.42219055 -0.18562722 -0.0028557577 -0.06446111
000070 cf 9a 3b be 1a 15 db be 68 6b 3c be b6 5c a3 3e
       -0.18320774 -0.42789537 -0.18400347 0.3190667
000080 b6 18 d3 3e 11 b7 4c 3e 95 ee d3 3e 59 64 e8 bd
       0.4122979 0.1999171 0.4139296 -0.11347265
000090 08 2d 90 be 8a 3c 4b bb 20 28 bb 3d d9 28 d7 bd
       -0.28159356 -0.0031011426 0.091385126 -0.10505838
0000a0 82 6d 9e 3e 1b aa a1 3e f6 dc 16 3e 89 f9 87 be
       0.30942923 0.31575093 0.14732727 -0.26557568
0000b0 7f 4d 07 3f f7 08 a9 3e 38 33 4c 3e a0 df 8a 3e
       0.52852625 0.33014652 0.19941413 0.27123737
0000c0 8f 4e 7f 3e 66 12 19 3f 34 5e df 3e 49 fe 01 3e
       0.24932311 0.597937 0.4362656 0.12694658
0000d0 04 00 1b 3f 16 0d 1b 3e 05 c9 0e 3e ce 97 a0 bd
       0.605469 0.1514171 0.1394387 -0.078414544
0000e0 b0 e0 a4 be 01 86 a0 be aa d1 dd 3e e3 13 ca be
       -0.32202673 -0.31352237 0.43324023 -0.39468297
0000f0 0b 71 0f 3f ec aa 2b 3f 2c bf ad 3e 65 f8 dd bd
       0.56031865 0.6705768 0.33934915 -0.10838393
000100 f4 23 84 3e 8e 70 f4 be ef a9 77 be 50 7b cc be
       0.2580868 -0.47742122 -0.24185918 -0.3993783
000110 63 74 02 bf 33 90 63 bd 50 30 1d be df d9 b8 be
       -0.5095884 -0.05555744 -0.15350461 -0.36103722
000120 fb f6 c4 be 78 98 91 bc 1d a8 f1 be d4 0f dc be
       -0.3846968 -0.017772898 -0.47198573 -0.42980826
000130 55 b0 c0 be dc 21 2a 3d 8f fc be 3d ac 0a 2b bd
       -0.3763453 0.041536197 0.093255155 -0.041758224
000140 46 47 61 3e a4 77 c2 3e 9c a9 fc 3e 07 1c 88 3e
       0.21999845 0.37981904 0.49348152 0.26583883
000150 1b 05 61 3e 53 9f c0 be 24 e0 12 be 7f 5c 48 bd
       0.21974604 -0.37621555 -0.14343315 -0.048916336
000160 11 b9 7c bd 63 64 fc 3d 91 f6 a5 3e a6 66 9c 3e
       -0.06169993 0.12323835 0.32414678 0.30547065
000170 e4 7a 5c 3e 38 bb 1f bf 5a b8 3c 3f e0 d5 a6 3d
       0.21531254 -0.6239505 0.737188 0.08146262
000180 71 aa a1 3e 9b f6 e8 3d 44 51 19 3f 8d d9 f4 3e
       0.3157535 0.11375161 0.59889627 0.47822228
000190 a2 75 78 3e 1b a9 2e 3e 2d 14 8f 3e a7 4b 94 bd
       0.24263623 0.17056696 0.2794508 -0.07240992
0001a0 f0 2d 39 bd 31 83 bc 3c 3b 60 d7 be c3 ca d3 3d
       -0.045209825 0.023011776 -0.42065606 0.10341408
0001b0 ae 8b a8 bd 58 06 d9 bd c8 cf 88 3e 31 3b be bd
       -0.08229767 -0.10596913 0.26721025 -0.092886336
0001c0 6e 8a 8a 3c e3 95 1c bf 19 9e bb 3e 72 50 ad be
       0.016911712 -0.6116621 0.36644056 -0.33850437
0001d0 ba 3b 4a bd 64 72 a5 be 50 9b d0 be 5e 49 a0 3d
       -0.049373366 -0.32313836 -0.40743494 0.07826494
0001e0 32 19 e6 bc 0e 13 ff be c4 ac a6 be 80 ed f3 be
       -0.028088186 -0.49819225 -0.32553685 -0.47642136
0001f0 56 37 88 be 10 6d c6 be df 68 7d bd bc 8d 83 be
       -0.26604718 -0.38755083 -0.06186759 -0.25694072
000200 35 55 21 bd 7d d5 60 bd 60 94 98 bc 57 5a ed 3e
       -0.0393879 -0.0548911 -0.018625438 0.46357986
000210 c8 ae 51 3d 79 6e 9a 3e 20 00 c2 bc 8c 98 1b be
       0.051192075 0.3016241 -0.0236817 -0.15194911
000220 6a 01 c0 3d 00 fd d8 be 3a 09 0d be 93 b5 13 3d
       0.0937527 -0.42380524 -0.13773051 0.036061835
000230 ca be 02 3d f4 b4 6e 3e 41 26 70 3e 77 8c 77 bf
       0.031920232 0.23311216 0.23452093 -0.9669871
000240 e1 f5 e1 3d 33 d5 07 be ff a4 ff 3d f9 98 29 3e
       0.11033226 -0.13264923 0.124826424 0.1656226
000250 b1 37 95 3c 13 4d 1f 3e 51 5a ee bd 7e c4 f2 be
       0.018215032 0.15556745 -0.1163832 -0.47415537
000260 55 b7 ab be bf a6 8c 3d 14 42 24 bf 1a 81 9c bd
       -0.3353831 0.06867742 -0.6416333 -0.07641812
000270 95 7f 11 3e 8c a1 00 be e3 5b c8 be 33 4d 36 3e
       0.14208825 -0.12561625 -0.39132604 0.17802887
000280 bc d6 41 3e 3b be 8a 3e b8 3f ac 3e 40 61 56 be
       0.18929571 0.2709826 0.33642364 -0.20935535
000290 52 35 8a 3e bb bb e8 3d 97 4d e6 be 40 c1 83 be
       0.26993805 0.11363932 -0.4498107 -0.25733376
0002a0 cb 40 0e be df 77 20 3e 77 f4 8d bd f9 8a dd 3d
       -0.13891904 0.15670727 -0.069313936 0.108175226
0002b0 ef 1b 9e 3c 7d 5a 87 bc 0f fb c9 bc 70 44 d4 3d
       0.01930043 -0.01652264 -0.024655847 0.10364616
0002c0 c0 9f e6 3d f6 08 a9 bd 56 b1 81 3d a1 a5 9c bb
       0.11260939 -0.08253662 0.06332652 -0.0047804867
0002d0 00 ac a9 3e 3f 2a ae 3e c7 ec 0c 3e 29 0a e8 3c
       0.33139038 0.34016606 0.13762198 0.028325157
0002e0 db b5 b1 3e 41 1c 8f 3e 5b 04 db bd ca 3a 09 bc
       0.34709057 0.27951244 -0.1069419 -0.008375833
0002f0 53 98 97 3e ab 79 0c be f8 a0 dc 3d 5c 26 46 3d
       0.29608402 -0.13718288 0.1077289 0.048376426
000300 10 2c d9 be cf 6b eb 3e fe ef dd be 52 2c a3 be
       -0.4241643 0.4598069 -0.43347162 -0.3186975
000310 b8 58 4a be a3 8a eb be b7 63 46 bf 64 37 89 be
       -0.19760406 -0.4600421 -0.774959 -0.26800072

onnx::LSTM_119 f4 [1, 40, 10]
000000 5d b3 62 3e 95 88 37 be 1f 00 a9 bd 3d da 6e 3e
       0.22138734 -0.17923196 -0.08251976 0.23325439
000010 4e b5 e3 3e 83 bf 56 3c d0 b0 ef 3e 89 91 98 3e
       0.44474262 0.013107183 0.46814585 0.29798535
000020 d6 a6 87 be 0f f2 c2 be 50 54 e7 be 23 65 6d be
       -0.26494473 -0.380753 -0.45181513 -0.23183112
000030 13 20 b3 3e 74 1e 47 be ea b4 e8 bc 0b d2 2a 3e
       0.34985408 -0.1944521 -0.028406579 0.16681688
000040 50 12 ba 3e 4f cb 14 3e bc c2 bb be 9b 14 e4 bc
       0.36342096 0.14530681 -0.36672008 -0.027841857
000050 a2 46 1a 3e 40 e2 60 3d c9 8f a5 be ec 88 45 3d
       0.15066007 0.05490327 -0.32336262 0.048226282
000060 78 8c 44 3e a1 f4 8a be 66 6d 15 3e 40 c3 a6 bd
       0.1919421 -0.27139762 0.14592513 -0.0814271
000070 38 17 6e bc 46 94 8e 3d 5c 79 a7 3e 25 c6 57 3e
       -0.014531903 0.06961875 0.32709777 0.2107168
000080 a6 01 fb bd ed 91 d0 be 9c 14 72 bd 24 c6 5f 3e
       -0.12256174 -0.40736333 -0.059101686 0.21852928
000090 5b 87 6a be d7 72 d1 bd b7 fb ac 3e e7 0f d7 bd
       -0.22903197 -0.10226982 0.33785793 -0.1050108
0000a0 63 76 f5 bd 5b d8 86 be 9f 62 2a 3d 07 2c 27 be
       -0.11985471 -0.2633694 0.04159796 -0.16325389
0000b0 ee 39 a6 bb 81 37 2f 3e 81 5e b8 be 30 83 eb bd
       -0.0050728237 0.17111017 -0.360096 -0.114996314
0000c0 f8 cb 7b 3e 31 cf 86 3e 4f 15 46 bd f8 3a 1a 3d
       0.24589527 0.2632995 -0.048360165 0.037653893
0000d0 c6 96 d6 3d 80 84 1d 3d b1 d4 5a 3e e1 14 3a 3e
       0.104779765 0.03845644 0.21370198 0.18172027
0000e0 5c 94 86 be 3a 52 a0 3b b1 3b d1 3d c6 1a a8 3e
       -0.26285064 0.0048926147 0.10216463 0.32832927
0000f0 dd 31 15 be 3c 30 d1 3e 2c 70 50 be a9 1c ed bc
       -0.14569803 0.40857112 -0.2035529 -0.02894433
000100 1b 4a 9b 3d 6f 9c bf 3d c7 b8 01 be 4e 47 b7 be
       0.07582494 0.09356009 -0.12668143 -0.3579659
000110 ab a7 a6 3c 42 e5 1c be f9 40 90 3e 54 dd 86 be
       0.020343622 -0.1532183 0.2817457 -0.26340735
000120 d6 b5 6c bd 0b 02 83 be 83 58 d4 3d b6 b6 64 3e
       -0.0577906 -0.25587496 0.10368445 0.22335324
000130 dd 31 24 3d 9f 32 10 3e 93 5d 55 bd 51 c8 6a 3e
       0.040086616 0.1408181 -0.052091192 0.22927977
000140 6c 58 78 3e 43 d1 11 bf 82 73 74 3e 4c b4 3b 3d
       0.2425248 -0.56959933 0.23872188 0.04582624
000150 2f fe 44 3d f7 1f 91 3c c7 bb 2a be fc 35 91 3e
       0.04809397 0.017715437 -0.16673194 0.283615
000160 58 36 59 3e 85 bd 3c be 06 a0 54 be 32 04 78 be
       0.21212137 -0.18431671 -0.20764169 -0.2422035
000170 e9 61 b1 bd 2d 80 c9 3e 7b cb 95 be cb 06 99 bd
       -0.08661253 0.39355603 -0.29256806 -0.07471999
000180 cf 0c 31 3d 0e 00 91 bd ac 57 63 bd eb 9e a2 3c
       0.043225106 -0.070800886 -0.055503532 0.019851169
000190 08 d4 17 3e d5 77 28 bd a1 95 39 3e 67 d0 19 3e
       0.14826977 -0.041129906 0.18123485 0.15020905
0001a0 9b 9b 62 3e 84 1f 0a 3e 54 38 18 bb 28 cd de 3d
       0.22129671 0.13488585 -0.0023226934 0.10878974
0001b0 3a 3d 0f bf 1e 6d 32 3d b3 1b 20 bf 16 94 2a be
       -0.559528 0.043561094 -0.62542266 -0.16658053
0001c0 9c 03 bf 3e a8 53 b2 be 6c 9f 15 be cd 92 27 be
       0.3730744 -0.3482945 -0.14611596 -0.16364594
0001d0 64 22 aa 3e ac 2c a9 3d 96 8b b4 bd 02 2c 8a bd
       0.33229363 0.082604736 -0.088156864 -0.06746675
0001e0 b0 dd 52 be c2 fd ce 3e 4b 3f c2 3e 41 a4 41 3e
       -0.2059238 0.40427977 0.37938914 0.18910314
0001f0 25 89 9d be 2f ac 9e be 56 07 95 3e 7d 3b 8f be
       -0.30768695 -0.3099074 0.2910716 -0.27975073
000200 30 70 69 be 97 9a e0 bd d4 01 0a 3e a1 42 57 3e
       -0.22796702 -0.10966986 0.1347726 0.2102151
000210 e4 f7 b5 be 6f 1e 6e bd 85 ea 3b 3e 72 d1 c2 3e
       -0.35540688 -0.058134492 0.18351181 0.3805042
000220 7e d0 11 be 0c 2c d8 bc 59 c0 da 3d 1b 0f 60 3e
       -0.1423969 -0.02638819 0.10681219 0.21880762
000230 69 08 53 3e 85 fe 82 be b5 2e 45 be 86 77 5d be
       0.20608677 -0.25584808 -0.19256099 -0.21627626
000240 e1 a5 8c 3e 84 1a d2 bd 72 58 0c 3e 61 6f be 3e
       0.27470306 -0.10258964 0.13705614 0.3719435
000250 af 89 8f 3e a3 8f 07 be 26 4d 34 3d 85 1c 39 be
       0.28034732 -0.13238387 0.044018887 -0.18077286
000260 bf ad 4a 3d bb 57 3e bd 22 78 21 be 99 77 b1 3d
       0.049482103 -0.046470385 -0.15768483 0.086653896
000270 50 62 ed bd 0f d7 b7 bd d2 32 ef bb d6 14 8b 3e
       -0.11591017 -0.08976566 -0.0072997594 0.27164334
000280 c8 55 8d be 1f 63 20 3f b3 ea 0a 3e eb 8c 34 bd
       -0.27604508 0.62651247 0.13566093 -0.044079702
000290 5b 7b 4e be c5 72 dc bc 60 6e 2e 3e 43 0c 58 3e
       -0.20164244 -0.026910195 0.17034292 0.21098427
0002a0 72 cd e0 be 0c e8 7e be 9d 4b c5 bb 91 f2 3a bd
       -0.43906742 -0.24893206 -0.0060209767 -0.045641486
0002b0 e8 17 dc be 71 e3 61 3e f2 84 ec 3d 9d 13 24 3e
       -0.4298699 0.22059418 0.11548795 0.16023107
0002c0 18 3d 8a bd 97 06 6a 3d e4 88 c3 3c 1e ca 62 bd
       -0.06749934 0.05713519 0.023868985 -0.055368535
0002d0 1c ed 94 3d 12 65 92 be f6 e0 c7 bd 11 99 be 3d
       0.072717875 -0.28592736 -0.09759705 0.09306539
0002e0 8d 95 41 3e e3 00 9a 3e c2 b3 8d be a0 d6 20 3e
       0.18904705 0.30078802 -0.27676207 0.15706873
0002f0 f9 2e 95 3e 65 d7 81 be e2 40 96 be 8e c7 d9 bc
       0.291374 -0.25359645 -0.29346377 -0.026584413
000300 d9 72 9f 3e 74 bf 64 3e 3e 20 2b 3e e0 4e 10 be
       0.3114231 0.22338659 0.16711518 -0.14092588
000310 34 5f 91 3e de 77 f5 bb cd 27 88 3e 0d cd 85 be
       0.28392947 -0.007491096 0.26592866 -0.26133004
000320 36 c1 91 3e d1 f9 07 3e 00 54 8b be 76 33 c3 3d
       0.2846772 0.13278891 -0.27212524 0.095313
000330 80 6e 9d be 78 38 02 bf 16 03 c4 be 2d 21 83 3e
       -0.30748367 -0.50867414 -0.38283604 0.2561125
000340 ad 0d 95 3e 30 75 c4 bd e3 6a 06 be 01 a0 71 3e
       0.29111996 -0.09592664 -0.13126712 0.23596193
000350 81 66 1a 3e 06 fa 2f 3e 6a d5 90 3e cb 94 f9 bd
       0.15078165 0.1718522 0.28287822 -0.12186583
000360 fd 43 41 3d c2 f9 a6 3e a6 2c 1e be 56 57 55 be
       0.04718398 0.32612425 -0.1544672 -0.20834097
000370 51 84 c1 3e 79 c6 ed 3e b5 b3 14 be 2c 03 14 3f
       0.37796262 0.46440485 -0.14521678 0.5781734
000380 51 31 18 bf 9c c4 bd bd 8c e3 cf be ac 46 81 3e
       -0.5945025 -0.09266016 -0.40603292 0.2524923
000390 54 de b1 3d 87 a5 d2 bd 42 b3 a1 bd 23 aa 33 3c
       0.08684984 -0.10285478 -0.07895519 0.010965857
0003a0 f9 7a a5 3d 45 a4 00 3e 41 63 e0 bd 16 8c 28 3d
       0.08080096 0.12562664 -0.10956431 0.04114922
0003b0 e5 fa 9b 3d c1 07 b7 3e cf 70 8c 3e 5f 75 09 be
       0.07616214 0.35748103 0.27429816 -0.1342368
0003c0 ed 4f 10 3e af ef f3 bd 15 24 c4 3c 60 94 b0 be
       0.1409299 -0.119109504 0.023942987 -0.344882
0003d0 5e 33 01 bc 7a 17 a2 bd c8 bb 08 be 2d b4 30 be
       -0.007885782 -0.07914634 -0.13352883 -0.17256232
0003e0 4d a3 8a 3d 8e 89 bc 3e db 77 b2 3e 1e 49 59 3e
       0.067694284 0.36823696 0.34857067 0.21219298
0003f0 62 8e d6 bd d4 7c c4 be ab d7 06 bd af b6 8c bd
       -0.10476376 -0.38376486 -0.03292052 -0.06870782

onnx::LSTM_120 f4 [1, 80]
000000 51 ed a3 3e d3 b8 13 3e 1c da c9 bd ef 36 76 3d
       0.32016996 0.14425974 -0.09856054 0.060110983
000010 31 8a 6f 3e 72 a9 e1 be b9 56 83 be 22 67 d0 3c
       0.2339256 -0.4407459 -0.25652102 0.025439803
000020 99 5e 0d be 45 85 c2 bc be 34 77 3d c1 d8 9e 3e
       -0.13805617 -0.023745188 0.060353033 0.31024745
000030 6e 2e 36 3e 8c f8 d5 be 18 a9 03 3e 8d a6 59 3d
       0.17791149 -0.4179119 0.12857473 0.05313735
000040 29 4e 51 3e 9c a1 26 be b7 19 99 3e 26 16 e2 3e
       0.20439972 -0.16272587 0.2990243 0.44157523
000050 83 1c 4b 3c 3f a6 ad bd 83 4b da 3d 74 df 80 be
       0.012396934 -0.084789746 0.10658934 -0.2517048
000060 f4 b9 63 3e 96 db c3 bd 23 53 79 3d 28 5e da bd
       0.22238904 -0.09563367 0.0608703 -0.1066249
000070 0d ea ef bd 5d 1e 94 bc 82 95 86 3e 43 30 3b be
       -0.117145635 -0.018080885 0.2628594 -0.18280129
000080 5b f6 f0 3a be 3f f6 3d 5e cc f3 3c 3f 29 a0 bd
       0.0018383967 0.120238766 0.029760536 -0.07820367
000090 06 eb 2b 3e 47 d3 52 bb 61 ed 89 bd 1d 56 a0 bb
       0.16788873 -0.0032169388 -0.067347296 -0.004893078
0000a0 b7 8d 7d bc 1a 76 fb 3d 16 c4 bf 3d 20 00 7c bd
       -0.015475682 0.122783855 0.09363572 -0.061523557
0000b0 b4 17 be bc 8d 2f ea be ad 8f 9c 3e 6b 4a c9 be
       -0.023204662 -0.45739403 0.30578366 -0.3931459
0000c0 cd c3 94 3e ff 2c 82 3e 20 9b 00 3f b1 af 51 be
       0.29055634 0.25424954 0.502367 -0.20477177
0000d0 7a 95 c4 3e 81 e9 b1 bc 7a 53 83 be ee 48 e8 be
       0.38395292 -0.021717789 -0.25649625 -0.4536814
0000e0 6d 49 94 bc bb c0 24 be 80 9e be 3d 7b 7b 1a 3e
       -0.018101418 -0.16089146 0.09307575 0.15086167
0000f0 93 01 8c 3d f0 80 8f be dc f6 58 3d 63 60 ec be
       0.06836238 -0.2802806 0.0529698 -0.46167287
000100 6d fe e6 bd ba 77 8a 3c 91 31 44 be f3 86 d9 3d
       -0.112789966 0.016902793 -0.19159533 0.10621443
000110 86 19 8a 3d 86 74 4c 3e 0b 86 64 bc 39 d0 0e be
       0.067431495 0.19966325 -0.013947974 -0.13946618
000120 f5 88 30 3d 90 c2 87 bd 77 b2 cf 3e 1a ed aa bd
       0.043099362 -0.06628907 0.40565845 -0.08346005
000130 e3 8b 9f 3d f0 e5 81 bd b5 08 5d 3c dd d5 3f 3d
       0.07790353 -0.06342685 0.013490845 0.046834815
