models/MS_model.onnx (onnx, 40199 bytes, 5 tensors)

fc.weight f4 [5, 10]
0	0x3f12e249	0.57376534
1	0x3eaa2b38	0.33236098
2	0xbc6c271d	-0.014413622
3	0x3ebecf94	0.37267745
4	0x3e8723fa	0.26394635
5	0x3e6935be	0.22774407
6	0x3ee86007	0.45385763
7	0xbf0416e0	-0.51597404
8	0xbdbed1af	-0.09317338
9	0xbd6ad378	-0.05733058
10	0x3ef9fb2c	0.4882444
11	0x3e176285	0.14783676
12	0x3eac7195	0.33680406
13	0x3ea2d0d4	0.31799948
14	0xbd776133	-0.06039543
15	0x3eb82db1	0.3597236
16	0x3ea40fb2	0.32043225
17	0xbe2ef3e8	-0.1708523
18	0xbde4a0de	-0.111634955
19	0xbeab26e3	-0.33428106
20	0xbe05de7a	-0.1307315
21	0x3ed3fbb7	0.4140298
22	0xbb970702	-0.0046089897
23	0x3d9d66b2	0.07685603
24	0x3dd31cc4	0.10308221
25	0x3ee2e870	0.4431796
26	0x3dcad499	0.09903831
27	0x3c9c426f	0.019074647
28	0xbeeb0328	-0.45900846
29	0xbe4ab5ca	-0.1979591
30	0xbed0058a	-0.40629226
31	0xbe930d06	-0.28720874
32	0xbedfb724	-0.43694413
33	0x3ea219c2	0.31660277
34	0xbebf1c9f	-0.37326524
35	0xbe2b26c3	-0.16714005
36	0x3d3430f9	0.043992016
37	0xbe8390ea	-0.25696498
38	0xbe928689	-0.28618267
39	0x3d331fac	0.043731377
40	0xbd125865	-0.03572883
41	0x3ede8174	0.4345814
42	0x3e245d2c	0.16051167
43	0x3ec18fb0	0.37804937
44	0xbd8f6a9c	-0.07002756
45	0xbc2094f2	-0.009801136
46	0x3eb8d76f	0.36101863
47	0xbe598010	-0.21240258
48	0xbeec6882	-0.46173483
49	0xbec1bbbc	-0.37838542

fc.bias f4 [5]
0	0x3ec6e4b0	0.3884635
1	0x3e7cafbc	0.24676412
2	0xbe0fa93d	-0.14029403
3	0xbc7defe1	-0.015499086
4	0xbd16e0a5	-0.03683533

onnx::LSTM_118 f4 [1, 40, 5]
0	0xbe176323	-0.14783911
1	0x3d174151	0.036927525
2	0xbec8f554	-0.3924967
3	0x3eaf42ae	0.3423056
4	0xbd1846ce	-0.0371769
5	0x3e389dc9	0.1802894
6	0xbc688160	-0.014191002
7	0x3e290c4d	0.16508599
8	0xbebdf050	-0.37097406
9	0x3e0378c1	0.12839033
10	0x3e324e56	0.17412695
11	0xbeb8fadc	-0.3612889
12	0xbed50ab2	-0.41609722
13	0x3f279e79	0.65476185
14	0xbe24f792	-0.16110066
15	0x3ebafb14	0.36519682
16	0x3d9d751e	0.07688354
17	0x3eb619a9	0.35566452
18	0x3f221537	0.6331362
19	0x3e7e854d	0.24855538
20	0xbe411164	-0.1885429
21	0xbea4c8f9	-0.3218458
22	0xbe90c1ce	-0.2827286
23	0x3f69751d	0.91194326
24	0xbe76a8e6	-0.24087867
25	0x3e076661	0.13222648
26	0x3ed1f017	0.41003487
27	0x3ef21925	0.4728481
28	0x3ca22f43	0.019797927
29	0x3e93c7df	0.28863427
30	0xbe6bc1db	-0.23023169
31	0x3e2312b1	0.15925099
32	0xbeb34c14	-0.3501898
33	0x3e877966	0.26459807
34	0xbeae5f50	-0.34057093
35	0xbe75efc5	-0.24017246
36	0xbe11f0b7	-0.14251982
37	0xbe8b6638	-0.27226424
38	0xbeb81edc	-0.35961044
39	0xbec177f9	-0.37786844
40	0x3e6cdaca	0.23130336
41	0xbd8c16f3	-0.06840315
42	0x3e5a24d7	0.21303116
43	0x3e1a034b	0.15040319
44	0x3e574500	0.21022415
45	0x3e5d4b31	0.21610714
46	0x3eac0d08	0.33603692
47	0x3e574b84	0.210249
48	0xbeba12b2	-0.36342388
49	0x3eb8a177	0.36060688
50	0x3da14c29	0.078758545
51	0xbef435c1	-0.4769726
52	0xbe9d395a	-0.30707818
53	0x3eacbe91	0.3373914
54	0xbdcdcc03	-0.10048678
55	0x3eafb8b1	0.34320596
56	0x3d1b4b8d	0.037913848
57	0x3ed61057	0.4180934
58	0xbe8c5ad4	-0.27413046
59	0x3f04bcc1	0.51850516
60	0xbe16848f	-0.14699005
61	0xbe88c900	-0.2671585
62	0xbe73af29	-0.23797287
63	0x3f137616	0.5760206
64	0xbe8fc07c	-0.2807654
65	0xbc6b1bf7	-0.014349929
66	0x3eb64219	0.35597304
67	0x3e6fb287	0.23407947
68	0x3eba0046	0.36328334
69	0x3e9121b0	0.28346014
70	0x3db740ac	0.08947882
71	0xbe2eb0e2	-0.17059663
72	0xbe726743	-0.23672204
73	0x3f3c8776	0.73644197
74	0xbee2593c	-0.44208705
75	0x3f1e0ea0	0.61741066
76	0x3e8895f5	0.26676908
77	0x3f1848bf	0.59486
78	0xbef251d6	-0.4732806
79	0x3f1af5bf	0.6053123
80	0xbe640519	-0.2226757
81	0xbd9f459c	-0.07776949
82	0xbe748915	-0.23880418
83	0xbbd19025	-0.006395357
84	0xbe744bff	-0.23857115
85	0xbe835fc6	-0.25659007
86	0xbe3671ee	-0.17816898
87	0xbe99fa0d	-0.30073586
88	0xbf4e8701	-0.8067475
89	0xbe027a1a	-0.1274189
90	0x3e148acb	0.1450607
91	0x3e31659e	0.1732392
92	0x3ed7b782	0.42132193
93	0x3ebeb7b6	0.37249535
94	0x3ead8cb5	0.33896413
95	0x3edceed0	0.4315095
96	0x3e3082be	0.17237374
97	0x3e68f91a	0.22751275
98	0xbdd8a794	-0.10578838
99	0x3dc5d3a7	0.0965951
100	0xbea9f75d	-0.33196536
101	0xbe772336	-0.24134526
102	0x3d878864	0.06617811
103	0xbe2443cb	-0.16041486
104	0xbeaa7211	-0.3329015
105	0x3ec8d2e3	0.39223394
106	0x3ebde70f	0.37090346
107	0x3e04525f	0.12922047
108	0xbea47e31	-0.32127526
109	0x3e1b60ab	0.15173595
110	0x3d558bd4	0.052135304
111	0xbdb874f3	-0.09006681
112	0xbe350941	-0.17679311
113	0x3d7c9a3b	0.061670523
114	0xbe383b41	-0.17991354
115	0x3e989c09	0.29806545
116	0x3ee95e1d	0.45579615
117	0xbd1f11c4	-0.038835302
118	0x3d0572a2	0.032580025
119	0x3eadce2b	0.33946356
120	0x3c9437c7	0.018093003
121	0xbd647a75	-0.055780847
122	0xbdc1631d	-0.094427325
123	0x3dbdc760	0.092665434
124	0xbe58fab3	-0.21189384
125	0x3dfea1f1	0.124332316
126	0x3e146daf	0.14494966
127	0x3e055079	0.13018979
128	0xbf0bb632	-0.54574883
129	0x3f165082	0.58716595
130	0xbef97413	-0.4872137
131	0xbee8d2d2	-0.45473343
132	0xbd3ae4b8	-0.04562828
133	0xbe5729ea	-0.21012083
134	0xbdc05fbe	-0.093932614
135	0xbc6d762a	-0.014493505
136	0x3cced417	0.025247617
137	0x3e26fadc	0.16306633
138	0xbf20341e	-0.62579525
139	0xbe8e3534	-0.27774966
140	0x3e400b0c	0.18754214
141	0xbd2837f1	-0.041068975
142	0xbe3d7647	-0.1850215
143	0x3e195fb1	0.1497791
144	0x3ec36173	0.38160285
145	0x3ea443a8	0.32082868
146	0x3e673009	0.22576918
147	0x3db6daaa	0.089284256
148	0xbdd94249	-0.10608346
149	0x3cf67857	0.03008668
150	0x3e45b8fe	0.1930885
151	0x3e668170	0.22510314
152	0x3e5eee33	0.21770553
153	0xbec643c7	-0.38723585
154	0xbd886c70	-0.06661308
155	0xbda8398a	-0.082141
156	0x3e7c7b67	0.2465645
157	0x3ee2cc20	0.4429636
158	0xbebd6ff8	-0.36999488
159	0xbd3b38a0	-0.0457083
160	0xbdc5ac6c	-0.096520275
161	0x3d8dc9e5	0.06923274
162	0x3e0714fa	0.13191596
163	0xbee8a889	-0.45441082
164	0x3e55c34a	0.20875278
165	0xbde095c0	-0.109660625
166	0x3eb76d85	0.35825744
167	0x3e5e2d91	0.2169707
168	0x3ec0a630	0.3762679
169	0x3dc37a8a	0.09544857
170	0xbe91fd80	-0.28513718
171	0xbc4d083b	-0.012514169
172	0x3e527a62	0.20554498
173	0xbf341a30	-0.7035246
174	0xbc93e727	-0.018054558
175	0xbdb0a802	-0.08625795
176	0x3e94e5c0	0.29081535
177	0x3d8d6bd9	0.06905336
178	0xbd563331	-0.052294914
179	0x3ef0a03b	0.46997246
180	0x3d930b5f	0.07179903
181	0x3e4f9eef	0.20275472
182	0x3db61319	0.08890361
183	0x3dc6b34a	0.097021654
184	0x3ec02134	0.37525332
185	0xb8e079e4	-0.00010703856
186	0x3e86a842	0.26300246
187	0x3e4b722f	0.19867776
188	0x3d94a813	0.0725862
189	0xbe447fdc	-0.191894
190	0x3dad6939	0.08467335
191	0xbecc701e	-0.3992929
192	0xbd984929	-0.07435829
193	0xbebea61d	-0.3723611
194	0xbe99343f	-0.29922673
195	0xbe2d2ff5	-0.16912825
196	0x3d95b899	0.073106
197	0xbedb82ab	-0.4287313
198	0xbe06c689	-0.13161673
199	0xbecdb32a	-0.40175754

onnx::LSTM_119 f4 [1, 40, 10]
0	0x3daa60a6	0.083192155
1	0xbe323b67	-0.17405473
2	0xbd216921	-0.0394069
3	0xbdcb7461	-0.09934307
4	0xbe7e7ec9	-0.24853052
5	0xbccf29fd	-0.025288576
6	0xbef9c510	-0.4878316
7	0x3eac7741	0.33684734
8	0x3cbbcbf2	0.022924397
9	0x3ec1ec79	0.37875727
10	0x3e3be1c8	0.18347847
11	0xbe17c11b	-0.14819758
12	0x3e89ec20	0.26937962
13	0x3df41260	0.11917567
14	0xbdc6877e	-0.09693812
15	0xbe629c3d	-0.22129913
16	0x3de743fe	0.11292265
17	0xbebaff53	-0.36522922
18	0xbe7ab362	-0.24482492
19	0x3e312fc8	0.17303383
20	0xbd4af0c2	-0.04954601
21	0x3e730537	0.23732458
22	0xbcaa76b0	-0.020808548
23	0x3d26b84c	0.040703103
24	0xbec2ed4e	-0.38071674
25	0x3e464d6a	0.19365469
26	0xbe327440	-0.17427158
27	0x3e56f950	0.20993543
28	0x3e11fcfc	0.14256662
29	0xbe97dc74	-0.2966038
30	0xbd9f5036	-0.07778971
31	0xbe6eb4b9	-0.23311128
32	0x3de2c6b6	0.11073057
33	0xbe02f499	-0.12788619
34	0x3e2703e4	0.16310078
35	0x3d78fc2f	0.060787376
36	0x3eed1dc8	0.46311784
37	0xbd91f1ba	-0.07126184
38	0x3e8a6582	0.2703057
39	0xbe84618a	-0.25855666
40	0xbecce173	-0.40015754
41	0x3e89d974	0.26923716
42	0xbe7185be	-0.23586175
43	0xbe66ce90	-0.22539735
44	0xbe762057	-0.24035774
45	0x3ec9ec8f	0.39438292
46	0xbf003719	-0.5008407
47	0x3de0318a	0.10946949
48	0x3e8e725f	0.27821633
49	0x3e567d26	0.20946178
50	0x3ecff10b	0.4061359
51	0x3d159a91	0.03652436
52	0x3e542e0d	0.20720692
53	0x3e7ce159	0.24695338
54	0xbebcf76e	-0.36907524
55	0xbe575a57	-0.21030556
56	0x3e8cbff2	0.27490193
57	0xbd9def98	-0.077117145
58	0xbec2235d	-0.37917605
59	0xbec49701	-0.38396457
60	0xbe7bdd02	-0.24596027
61	0x3ddcbcf5	0.10778228
62	0xbf0e05c2	-0.55477536
63	0x3ed05a2d	0.406938
64	0xbd83ecdb	-0.06441661
65	0x3e16fa55	0.14743932
66	0xbe9f22db	-0.3108128
67	0x3e64b055	0.2233289
68	0xbd801385	-0.06253723
69	0xbe764539	-0.24049844
70	0xbe7191fa	-0.23590842
71	0x3eca201a	0.39477617
72	0xbda88bd4	-0.08229795
73	0xbe49ebdd	-0.19718881
74	0x3dc50520	0.09620118
75	0x3c9d8e75	0.019232968
76	0x3e2e0bcd	0.16996689
77	0xbe8bfb6b	-0.27340254
78	0x3e38ff17	0.18066059
79	0xbe370d92	-0.1787627
80	0x3ed2c17f	0.4116325
81	0xbe3dd29f	-0.18537377
82	0x3e424345	0.18970974
83	0x3dc83a38	0.09776729
84	0x3e885fd4	0.2663561
85	0xbe8d1866	-0.27557677
86	0x3e5ed456	0.21760687
87	0xbe6fedda	-0.23430577
88	0xbdf1d8ff	-0.11808967
89	0xbe49482e	-0.1965644
90	0xbd007897	-0.031365003
91	0xbe0c6fca	-0.13714519
92	0x3d37ce74	0.044874623
93	0xbdf1ef36	-0.11813204
94	0x3de7cdfe	0.11318587
95	0xbe51d1ce	-0.2049019
96	0x3e714525	0.23561533
97	0xbea61594	-0.32438338
98	0x3da305ad	0.07960067
99	0x3eca8e96	0.3956191
100	0x3d22c4bc	0.0397384
101	0xbe82c09a	-0.25537568
102	0xbedba53d	-0.42899504
103	0xbea26783	-0.31719598
104	0xbe837458	-0.256747
105	0xbd8e9f48	-0.06963974
106	0xbe9aa1fe	-0.30201715
107	0x3ef574d6	0.479407
108	0x3e543460	0.20723104
109	0x3ea9fb27	0.33199427
110	0xbced24bf	-0.028948186
111	0x3ecf15cd	0.4044632
112	0x3f087f07	0.5331883
113	0x3dc9d8d7	0.09855812
114	0x3e3a4200	0.1818924
115	0x3e9d6daf	0.30747744
116	0x3e9e9228	0.30970883
117	0xbd6285f8	-0.055303544
118	0x3e01e8e6	0.126865
119	0xbdc2c0a9	-0.09509403
120	0xbde43b3c	-0.111441106
121	0x3e8fc44e	0.28079456
122	0xbe9c4d2d	-0.3052763
123	0xbc508633	-0.012727308
124	0xbe713df9	-0.23558797
125	0x3ebb36c1	0.3656521
126	0xbd9f3013	-0.07772841
127	0x3ca58375	0.020204285
128	0x3e1c94a5	0.15291078
129	0x3e446270	0.19178176
130	0x3e6df392	0.23237446
131	0x3e063327	0.1310545
132	0x3ebf8a09	0.3741
133	0x3d159bb5	0.036525447
134	0xbe808e9c	-0.25108802
135	0xbc414746	-0.011796778
136	0x3ed291bc	0.41126812
137	0x3b7ddd05	0.0038736474
138	0xbec1cf3d	-0.37853423
139	0xbed58b74	-0.41707957
140	0xbea6af18	-0.3255546
141	0xbc869cdb	-0.016432216
142	0xbe1c7185	-0.1527768
143	0x3e609e5d	0.21935411
144	0xbe4d6f65	-0.20062025
145	0xbdba251a	-0.09089108
146	0xbea8f64b	-0.33000407
147	0x3e09f111	0.13470866
148	0xbd267621	-0.04064
149	0xbe597f2a	-0.21239915
150	0x3dddbc4e	0.10826932
151	0x3e342aed	0.175945
152	0x3f0d3420	0.5515766
153	0x3e65bc43	0.22435097
154	0xbdf3e2ea	-0.11908515
155	0xbdbcdca7	-0.092217736
156	0x3f2f39da	0.6844765
157	0xbed5117b	-0.416149
158	0xbd0e1883	-0.034691345
159	0x3e149502	0.14509967
160	0x3e026741	0.127347
161	0xbe328800	-0.17434692
162	0xbe7df08d	-0.24798794
163	0xbd689fd6	-0.056793056
164	0x3d09e6a9	0.03366724
165	0x3c03d53c	0.0080464445
166	0xbd82b01a	-0.06381245
167	0xbe23f6cb	-0.16012113
168	0xbe7880e6	-0.24267921
169	0x3ceb2445	0.028703818
170	0xbe34ed81	-0.17668726
171	0x3dbc3e06	0.091915175
172	0x3ea8784c	0.3290428
173	0xbdeef9ec	-0.116687626
174	0x3d0277e3	0.031852614
175	0x3d859c64	0.0652397
176	0xbe3812e1	-0.17975952
177	0x3db8fad7	0.09032219
178	0x3bb31ef3	0.005466336
179	0xbc323ce0	-0.010878772
180	0x3c8fb9ce	0.017544653
181	0x3e507d3e	0.20360276
182	0x3ed0b448	0.40762544
183	0xbd0a997d	-0.033837784
184	0x3d9f5bbe	0.0778117
185	0xbe80df9c	-0.251706
186	0x3ea8b603	0.32951364
187	0xbccd6783	-0.025073772
188	0x3dba206d	0.09088216
189	0xbe1d5dad	-0.15367766
190	0x3e2390be	0.15973184
191	0xbe005fe4	-0.1253658
192	0x3efc93d0	0.49331522
193	0xbdaa1043	-0.08303883
194	0x3e5d2547	0.21596251
195	0x3e82bdcf	0.25535437
196	0xbd74a2a8	-0.059725434
197	0xbeb057b9	-0.34441927
198	0x3d91cd5a	0.07119246
199	0xbdaabcfd	-0.08336828
200	0xbd9c9ecd	-0.07647476
201	0xbe99d6c0	-0.30046654
202	0xbeaaccd7	-0.33359405
203	0xbe6b89ab	-0.23001735
204	0x3deedf2d	0.11663661
205	0xbe8af10e	-0.27137035
206	0xbf2921a7	-0.66066974
207	0x3e52c398	0.20582426
208	0xbd971a4e	-0.07378064
209	0x3e4f3e0c	0.20238513
210	0x3e9741f3	0.29542503
211	0x3db2ad92	0.08724512
212	0x3f140038	0.57812834
213	0xbd33c967	-0.043893244
214	0x3daeec4d	0.085411645
215	0xbec9b6d3	-0.39397296
216	0x3f2f512a	0.6848322
217	0xbf0a56d1	-0.5403872
218	0x3c287e80	0.010284066
219	0x3e51e8ab	0.20498912
220	0xbd5fb07c	-0.054611668
221	0x3e0bb517	0.13643299
222	0xbe9dd8fa	-0.30829602
223	0xbd1ad916	-0.037804686
224	0xbecf3ac2	-0.40474516
225	0xbe9120ec	-0.2834543
226	0x3d6eb719	0.058280084
227	0x3e94c87a	0.290592
228	0xbdfbb112	-0.12289633
229	0xbcc5def3	-0.024154162
230	0xbdac217e	-0.08404826
231	0x3e538bc2	0.20658782
232	0x3e495b30	0.19663692
233	0x3de62d57	0.11239117
234	0x3daefc6a	0.08544238
235	0xbea46d1a	-0.32114488
236	0x3f0cab58	0.5494895
237	0xbf3ee759	-0.7457176
238	0x3e29e485	0.1659108
239	0x3e781eb2	0.2423046
240	0x3dfda479	0.12384886
241	0x3dce7760	0.10081363
242	0x3e544202	0.20728305
243	0xbe94d2bb	-0.29067025
244	0xbcc7ee04	-0.024405487
245	0xbdd30fa5	-0.10305718
246	0xbda5b3fd	-0.08090971
247	0xbe6a8b54	-0.22904712
248	0x3eb6aebe	0.35680193
249	0x3e18de39	0.14928521
250	0x3ebbad16	0.36655492
251	0xbe4d834a	-0.20069614
252	0x3ef82182	0.48463064
253	0x3d7b6646	0.061376832
254	0xbe4bc9f8	-0.19901264
255	0xbe293464	-0.16523892

onnx::LSTM_120 f4 [1, 80]
0	0xbe897276	-0.2684514
1	0xbd5c2a77	-0.053751435
2	0x3e284007	0.16430674
3	0xbe32642f	-0.1742103
4	0xbe442fea	-0.19158903
5	0x3d97c2c2	0.07410194
6	0x3e47576e	0.19466946
7	0x3d8cdbb1	0.0687784
8	0x3eaeba3f	0.3412647
9	0x3da8cde8	0.082423985
10	0x3e3b7da5	0.18309648
11	0x3e784fa4	0.2424913
12	0x3e0cb174	0.13739568
13	0xbe55e83a	-0.20889369
14	0x3e9052ab	0.2818807
15	0x3e8b98bf	0.27264974
16	0x3eedf6b4	0.46477282
17	0x3d630161	0.055421237
18	0x3d7f702d	0.06236284
19	0x3ea7fe1d	0.3281106
20	0xbe854cfd	-0.260353
21	0x3e94b0df	0.29041192
22	0xbe9f6342	-0.31130415
23	0x3e68ab6d	0.22721644
24	0xbe6c62b7	-0.23084532
25	0xbea4f55d	-0.32218447
26	0xbd8481bd	-0.06470058
27	0xbe4c3f03	-0.19945912
28	0xbdf771ab	-0.12082227
29	0xbe9be8ce	-0.30451053
30	0xbcd850aa	-0.026405651
31	0x3e9a0706	0.30083483
32	0x3e15510f	0.14581703
33	0x3ea0a2df	0.3137426
34	0x3d5a9bb5	0.05337115
35	0x3e4a19c8	0.19736397
36	0xbe9c8b46	-0.30575007
37	0x3c046e78	0.008082978
38	0x3d881c80	0.06646061
39	0xbe47fcbd	-0.19530006
40	0x3e6c3245	0.23066051
41	0xbd3e2f5e	-0.04643189
42	0x3e2bb22c	0.16767186
43	0xbc806869	-0.015674787
44	0xbcee4428	-0.029085234
45	0x3de6a63c	0.112621754
46	0x3eb4d6c1	0.35320094
47	0x3e30b3c1	0.1725607
48	0x3de8e369	0.113715
49	0xbd4bc652	-0.04974968
50	0xbea78743	-0.32720384
51	0x3e54ab7f	0.20768546
52	0xbc874171	-0.016510697
53	0x3e5edc97	0.21763836
54	0xbe5d009a	-0.2158226
55	0x3e7118f4	0.23544675
56	0x3e11307f	0.14178656
57	0xbd584ddd	-0.05280863
58	0x3e9e47d6	0.3091418
59	0x3e934376	0.28762406
60	0xbd327664	-0.043569937
61	0xbda49dd8	-0.08037919
62	0xbe83347f	-0.2562599
63	0xbd0dd538	-0.03462717
64	0x3d4dda9e	0.050257318
65	0xbe8caf3d	-0.27477446
66	0x3cf67d2e	0.030088987
67	0xbe931ec2	-0.28734404
68	0x3ecb308e	0.39685482
69	0x3c5d66de	0.013513295
70	0xbe1eccc1	-0.15507795
71	0x3e2191bb	0.15778248
72	0xbea001ee	-0.31251472
73	0x3e231bed	0.15928622
74	0x3c1b966a	0.009496311
75	0x3e687206	0.22699746
76	0x3bf7298f	0.007542796
77	0x3e99ea69	0.30061653
78	0xbed08b76	-0.407314
79	0x3d761001	0.060073856
