models/MTB_model.onnx (onnx, 40199 bytes, 5 tensors)

fc.weight f4 [5, 10]
00000000: 4686 dabd da2f cfbd f99e cf3d d4d1 babe
00000010: 152f 59bd 5216 663d b2ea a8be 67a4 bfbd
00000020: ab79 cabe 14dd debe 811f fa3d 1a0e 9dbd
00000030: 6e6b 7a3e 68d0 aebe f43b 9cbe ce7b 453d
00000040: 4d7f 90be 2a54 c13d 7e77 4abe 0078 a0be
00000050: 9c4b 3abe 7521 663e 2846 b23e 7ec7 9cbc
00000060: a45c 01bf e808 94bd 0bf7 99be 5665 02be
00000070: 151b 7fbe 2577 c3be f6dd 35be f4a5 7c3d
00000080: f219 7e3e 4c68 ddbd 5ebd 853e 9276 4b3f
00000090: edc5 4e3e f290 30be 6417 863e 4c49 a13d
000000a0: 0f8d 3abe 65b8 83be 3e28 9c3d dbfb f4be
000000b0: 2a18 513d 1125 a4b9 18c8 13bf f3a2 353e
000000c0: 15f6 903d 6295 fbbe
-0.10670142 -0.10116549 0.101377435 -0.3648821 -0.053023417 0.05617363 -0.32991558 -0.09357529
-0.3954595 -0.43528044 0.1221304 -0.07668705 0.24455044 -0.34143376 -0.3051449 0.048213772
-0.28222123 0.09439881 -0.19772145 -0.31341553 -0.18192905 0.224737 0.3481915 -0.019138094
-0.50531983 -0.07228261 -0.3007129 -0.12733969 -0.24912675 -0.38176838 -0.17760453 0.061681703
0.24814585 -0.10810909 0.26121038 0.794778 0.2019269 -0.17242792 0.2618972 0.078753084
-0.18217872 -0.2572662 0.07624863 -0.478484 0.051048435 -0.00031308134 -0.57727194 0.17737941
0.070781864 -0.49137408

fc.bias f4 [5]
00000000: f422 833c 34dc 203d 7a7e e13c a999 5c3d
00000010: c38e 4a3e
0.016007878 0.039272502 0.027526129 0.05385748 0.19781022

onnx::LSTM_118 f4 [1, 40, 5]
00000000: 1d03 993e 400a 50bc a9be 4c3e ee17 113a
00000010: 2660 aa3d d507 86be b84f 86be f89e 83be
00000020: d8cf a0be d4de abbe 0a0e ce3e 1b96 20bd
00000030: d2da 833e 0870 b03e 2930 b93e 666a f3bd
00000040: 3c1c f43e d4fb 9b3e c365 313d 1d2e 043e
00000050: 32d9 21bd abad ae3c fd59 063f bafc 25bd
00000060: 7bdb 113f 69cc 44be 071c 173d b1f9 21be
00000070: ed25 563f 7324 b13e b43d c93e 3e0c 9c3e
00000080: c0e9 623d e5d6 14bd 3a01 073f 2a1b 7b3d
00000090: b8d1 a43d 9953 2f3d b55b c0bc 4a74 01be
000000a0: 3591 213e 4590 16be 6402 f73e a008 fdbe
000000b0: 6311 f73e 5528 c93e c9e6 003e 10b4 013f
000000c0: 5c4e 793e 6157 abbd fb13 7dbe 004b 60be
000000d0: 96ba 983e ebe5 eb3d 4d63 36be e438 353e
000000e0: 9086 28be 40bb 76be 5531 2e3e d5ac e2be
000000f0: e8fc c53e dad3 8a3e 12e4 5a3e e6b0 023e
00000100: 11c2 ba3d d460 7fbc e041 093f e33b e13e
00000110: c033 053e 3350 1d3f 8cd9 f63d 3767 203f
00000120: f971 913e 48cd 19be 5ced a63e 8e6c ba3e
00000130: 6260 663d b167 74be aad4 a43f aebe 423e
00000140: 0318 8c3e 2e3a 0b3e 73ee cb3e 3859 2c3e
00000150: a40b 1a3e 3f30 0abc f140 dfbe c294 8a3d
00000160: 3200 92be c9f6 e23c efef 143e 9a10 f33c
00000170: c773 5f3d 7b66 1fbe e728 e43e d0d1 473e
00000180: eb19 8abc da27 3c3e c641 6ebe c253 0e3f
00000190: 0cf8 ebbd dd66 a03d e062 2f3e 1df2 633e
000001a0: 5e7a 08be d45c 0c3e 3617 a0be 4731 18bd
000001b0: c302 683d 2a78 8dbe 69ee 8f3d 6583 d13e
000001c0: e5a5 b83e 0d6c 003f c7f2 db3c 8df8 723e
000001d0: 6e5d 993e 7928 ea3c cf46 45bd 4450 a43e
000001e0: 5946 0f3e bc92 0e3e c17c 363e 43e1 b1be
000001f0: 2cce 4a3e 8245 8a3e 2798 d83b cedd 353e
00000200: 2482 5e3f 5d68 c2bd 09fe 883e f304 373e
00000210: 59a2 0cbe 2faf f0be 0a2f efbd 0a1d 84be
00000220: a892 eebd 61b0 1cbe 58da 1abe 3bc3 9abe
00000230: c392 dd3d dd70 dc3d 4171 d4bc cbc3 d5be
00000240: 82c6 083f 6679 0b3e f98d 403e b284 3f3e
00000250: 7ba4 8bbd a403 aa3d 2659 833d ae9e 90be
00000260: 1dee 83be e7fc b4be 4118 84be 193e afbe
00000270: 31a4 71be c90a c1bd b4e3 923d fbde b1bd
00000280: 3fd8 723e 3b47 883e fd17 e73e ef78 003f
00000290: 30d0 6e3e f27b cabe 1d6b 37be 2854 d6bd
000002a0: 3c41 a3be 255f 03bf 344a cebe 9fa6 58be
000002b0: bc60 dcbe 355b bb3e 6d26 bcbe 2c57 19be
000002c0: 24b7 2f3d 39dc b93e 046d 073f 2ee7 1c3d
000002d0: 3d66 88be d119 d7be 52b9 65be 9358 9b3e
000002e0: 1e44 0fbf b058 0a3e 3b49 30be 7d35 433d
000002f0: 1352 47be 20a5 26bb e351 163e 9f54 7dbc
00000300: f740 40be 8492 a9be 6a61 4ebe 5883 e7bd
00000310: 9fe2 9abe 12d4 e9bd a1a8 583d 7248 b1be
0.29885188 -0.012697756 0.19994606 0.0005534877 0.0831912 -0.2617785 -0.26232696 -0.2570722
-0.31408572 -0.33568442 0.40245086 -0.03920565 0.25752884 0.34460473 0.36169556 -0.11885528
0.4767779 0.30465567 0.04330994 0.12908216 -0.039513774 0.021323046 0.5248106 -0.040524222
0.56975526 -0.19218601 0.036891963 -0.15817906 0.8365162 0.3459812 0.39304888 0.3047809
0.055398703 -0.036337752 0.52736247 0.061305203 0.08047813 0.042804334 -0.02348123 -0.12642017
0.15778048 -0.14703472 0.4824401 -0.49420643 0.48255453 0.39288583 0.12588038 0.5066538
0.24346298 -0.083662756 -0.24714653 -0.2190361 0.29829854 0.11518463 -0.17811318 0.17697483
-0.16457582 -0.24094868 0.17011006 -0.44272485 0.38669515 0.27114755 0.21376064 0.12762794
0.091190465 -0.0155870505 0.5361614 0.43991002 0.13008022 0.614505 0.120532125 0.62657493
0.28407267 -0.15019715 0.32602966 0.36410946 0.05624426 -0.2386768 1.28774 0.19018051
0.2736207 0.13596413 0.3983036 0.16830909 0.15043503 -0.008434354 -0.43604234 0.067666546
-0.28515774 0.027705567 0.14544652 0.029671002 0.054553773 -0.15566437 0.44562456 0.19513631
-0.016858062 0.18374577 -0.23267278 0.55596554 -0.115219206 0.078321196 0.17127562 0.22260328
-0.1332793 0.13707286 -0.3126771 -0.03715637 0.05664326 -0.2763074 0.07027895 0.4092056
0.36064067 0.5016487 0.026849164 0.23727627 0.29954094 0.028583752 -0.04816323 0.32092488
0.13991679 0.13923162 0.17821027 -0.34742174 0.19805211 0.27006155 0.006609935 0.17760393
0.8691733 -0.09492562 0.26756313 0.17872982 -0.13733806 -0.47008654 -0.11678894 -0.25803405
-0.11649066 -0.15301658 -0.15122354 -0.30227074 0.10819008 0.107637145 -0.02593291 -0.4175094
0.534279 0.13620529 0.18804158 0.18702963 -0.068184815 0.08301476 0.06413488 -0.28246063
-0.25767604 -0.353492 -0.25799754 -0.34227064 -0.2359779 -0.09425885 0.07172337 -0.08685108
0.23715304 0.26616845 0.4513549 0.5018453 0.23321605 -0.39547688 -0.17911954 -0.1046527
-0.31885707 -0.51317054 -0.40290987 -0.21157311 -0.43042552 0.36593023 -0.36748067 -0.1497466
0.042899266 0.3630083 0.5290072 0.038306408 -0.26640502 -0.42011884 -0.22433975 0.30341014
-0.55963314 0.13510394 -0.17215435 0.047658432 -0.19464903 -0.0025428012 0.14679675 -0.01546207
-0.18774782 -0.33119595 -0.20154348 -0.11304349 -0.30251023 -0.11417402 0.052895192 -0.34625584

onnx::LSTM_119 f4 [1, 40, 10]
00000000: a3d4 51be 3082 0b3e e7cf 153e 75d9 613e
00000010: 7902 8d3e 35c3 0c3e 2b0d 07be 9ac7 463c
00000020: 2d8e 27be c6c9 ecbd 0554 29be bb0f b3be
00000030: aa1f 88be f1ac de3e 171d aabd 47fa 873d
00000040: 6ce6 f73e 98af 50be c027 723d 1e52 143f
00000050: 586c 55be add4 42be 4cd1 36be 3dcd 873b
00000060: 35fd ed3d e09f 0e3f 4aa5 6dbd 4ec9 e7bd
00000070: 961f ad3d 864c c4bd 976a 5fbd 8adb 5cbe
00000080: 9840 c43c 731a 40be b111 253e 2cd2 54bd
00000090: b065 96bd d7ed 0c3c f961 2a3e b607 3d3e
000000a0: 0197 6fbe 5708 52be 7343 db3d ff8e bd3d
000000b0: 7edf 363e 8388 b33e a657 dd3d a52a 1cbe
000000c0: 59ff a7be 165c 6f3e b1bf a5be ef78 35be
000000d0: d9a2 0b3c a2e2 36be 56cd b83d c7f0 353e
000000e0: 7c21 fcbd 5c74 013e 5d3f 89be 56ee 0abe
000000f0: 13ca 2ebe 5c64 3abe ad1d 12bb c7f4 b7bd
00000100: 811f b5be 740a 1a3d 2c5a 00be 74cd 403d
00000110: 1d84 353e 98db 71be 6a45 013e 8631 cfbe
00000120: 2242 d8be 5279 b23e e3d2 013c aa36 933e
00000130: 57a5 df3e 01de 333e 7398 903e 2d67 8e3e
00000140: 5c0b e6bb 8919 843e b7ba a73c e58e 153c
00000150: b0fd 833e 4af3 11be 7277 fbbd 3ab6 73bc
00000160: 941f 243d 0019 973e c053 b13c 94a9 cfbd
00000170: c1fb b13e c192 84be 0df7 e63d 5914 363e
00000180: 801f 99be a271 263d 6aa1 c2bc 7b7c 66be
00000190: 73fd 843d ae27 373c 64b4 56be d448 0b3e
000001a0: 5add 9ebd fe3f 0e3e ca30 af3e 39ff b03c
000001b0: 420e 073d 8542 17bd c22e 91bd 65df afbe
000001c0: 7981 eebe d9fd e13e 5d51 f83d 9874 d03e
000001d0: 87c9 243d f847 103e b0a4 a93e 70b7 183f
000001e0: c3e0 a0be 0c1f d0bc 179e 01bc e439 30be
000001f0: 7ff8 533e 6814 ed3e 0795 6abe d8c9 7c3c
00000200: 8809 6f3e 3880 0abe 4f75 36be 5e04 31bd
00000210: c9d1 38bc 460d b93d 073c 30be 0d00 61be
00000220: af50 9d3e 3b49 9dbd e159 713e d972 30ba
00000230: d02d b4bc c3fb f6bc e9e1 8a3e d7bc e3be
00000240: 83cd 543e d35e 423f 130c bfbe cfd0 6b3e
00000250: 3ac4 5a3e 2a00 163b 3c09 04be fddf 57bd
00000260: a0f4 85be a3c6 603e 7050 fb3d def0 3abf
00000270: d753 2abf c7f8 31be 65c7 d9be dec7 86be
00000280: f25f 2e3e 9724 dfbd 21bc 7b3e 3293 653d
00000290: 5a9a 4d3d 1083 26bd 5c96 163c c11e b83e
000002a0: 030f 913d 6e9b 73bd c619 983e fb67 9abe
000002b0: ef2e cc3d f51e b93e 1a93 a53e af5f 53bd
000002c0: b8ff 423d a8e1 d9be 36f1 523e e66f e93d
000002d0: f516 40bd 4933 2b3e 3b6b 25be 306a 64be
000002e0: 4618 36be 6a29 98be 81bc f13d d961 3d3e
000002f0: 694b 343e 735e 6cbe 53f9 e63d 5575 6d3e
00000300: 03cf c03e 376c 4dbe daca bebd 71b7 883e
00000310: d97b 453d 0dd3 703e 711f 7f3e 6d69 0ebe
00000320: fc15 523d a478 10be d38e 42be 115f abbc
00000330: d34a a93e 8b80 77be 1369 933e fc7a 653e
00000340: 64da 04bd 9f3f 593e ea38 ba3e ff9d da3d
00000350: 02a3 a43d 4d27 cb3d 26be 633d 42d7 903e
00000360: dc84 da3e d8fd e6bd 79ac c53e 87de b13e
00000370: 5b2b 05be 06ef 623e 679d b9be d21f 163d
00000380: ea68 3f3e 0393 a3be 8c08 7d3c f261 19be
00000390: 67f0 873e aee2 993e ee9e 86be dc18 a53e
000003a0: 20f2 753d ea16 edbd 2615 223e 59b7 48be
000003b0: 2a4b 1cbe 9ab2 1ebe 94e7 3b3e cbf3 c93e
000003c0: c036 0f3e 1ecf c1be 53b1 dfbd 6fe8 c73d
000003d0: e78c 823e aea3 bdbe 91ff 1d3e 4f64 463d
000003e0: 9e25 32be 99df 903e 16a7 c5b9 75ae 45be
000003f0: 0f7d 67be ff5e 213e f745 c9bd 2b07 eabd
-0.2049127 0.13623881 0.1463009 0.2205561 0.2754095 0.1374634 -0.13188617 0.01213255
-0.1636283 -0.11561923 -0.16535957 -0.3497294 -0.26586658 0.4349132 -0.0830633 0.066395335
0.48417985 -0.20379484 0.05911994 0.579378 -0.20842111 -0.19026442 -0.17853278 0.0041443394
0.11620561 0.557127 -0.05801896 -0.11317693 0.0845329 -0.09584908 -0.05454501 -0.21568123
0.023956582 -0.1876009 0.1612003 -0.051958248 -0.07343614 0.008601627 0.16638936 0.18459973
-0.23397447 -0.20510994 0.10706224 0.0925579 0.17858693 0.35065088 0.10807733 -0.15250643
-0.32812002 0.23374972 -0.3237281 -0.17721914 0.008522713 -0.17859891 0.0902354 0.1776763
-0.12311074 0.12642044 -0.26806155 -0.1356748 -0.17069273 -0.18202347 -0.002229552 -0.089822344
-0.35375598 0.037607625 -0.12534398 0.047070935 0.17726178 -0.23618925 0.12624136 -0.4046747
-0.42237955 0.34858185 0.0079238145 0.28752643 0.43680832 0.17565157 0.2824131 0.27813092
-0.007020397 0.25800732 0.020474775 0.009128307 0.25779486 -0.14252964 -0.12278642 -0.014874989
0.040069178 0.2951126 0.02164638 -0.10139766 0.34762385 -0.25893214 0.1127759 0.177812
-0.29906845 0.040635712 -0.023758609 -0.22508423 0.06493654 0.011178894 -0.20967251 0.13602
-0.07757063 0.13891599 0.3421691 0.021606075 0.03297258 -0.036928672 -0.070889965 -0.34350124
-0.46583155 0.44138983 0.12124894 0.40713954 0.040231254 0.14089954 0.3313346 0.59654903
-0.3142148 -0.02540543 -0.007911227 -0.17209584 0.20700262 0.4630463 -0.22908412 0.015428983
0.2334348 -0.13525474 -0.17818187 -0.043217055 -0.011280485 0.09035735 -0.17210399 -0.21972676
0.3072562 -0.07679983 0.23569442 -0.0006730981 -0.021994501 -0.030149346 0.2712548 -0.4448001
0.20781521 0.7592594 -0.373139 0.23028873 0.21363917 0.0022888281 -0.12894148 -0.052703846
-0.26163197 0.21950774 0.122712016 -0.73023784 -0.6653418 -0.17380057 -0.42534938 -0.26324362
0.17028788 -0.10895651 0.24583484 0.05604858 0.05019603 -0.040652335 0.009191122 0.35960963
0.070829414 -0.0594744 0.29707164 -0.30157456 0.099698894 0.3615643 0.32338792 -0.051604923
0.047607154 -0.42554975 0.20599827 0.11398296 -0.046896894 0.16718782 -0.16154186 -0.22306132
-0.17782697 -0.29719096 0.118035324 0.18494357 0.17606892 -0.23082905 0.112780236 0.2318929
0.37657937 -0.20060812 -0.093160346 0.26702455 0.048213813 0.2351801 0.24914338 -0.13907404
0.051290497 -0.14108521 -0.18999796 -0.020919355 0.330649 -0.24170129 0.28791103 0.22410196
-0.032434836 0.21215676 0.36371547 0.106746666 0.08038904 0.099196054 0.05560126 0.2828923
0.4267949 -0.112788856 0.3860815 0.34740087 -0.1300482 0.22161493 -0.362529 0.03665144
0.18692365 -0.319481 0.015443932 -0.1497877 0.265506 0.30055755 -0.2629313 0.3224553
0.06004536 -0.11576636 0.1582838 -0.19601192 -0.15263048 -0.15497819 0.18350059 0.39443812
0.13985729 -0.3785333 -0.10922494 0.0976113 0.25498125 -0.3703894 0.15429522 0.048435505
-0.17397162 0.2829559 -0.00037699257 -0.19304831 -0.226063 0.15758894 -0.09827798 -0.114271484

onnx::LSTM_120 f4 [1, 80]
00000000: c391 ed3d a9ec cabe 19da 843e 317d a13e
00000010: efe3 373e dc41 97be 75b3 3b3d 3ad8 4abe
00000020: e130 7bbd 4bee eabd 4ce9 e13b 755f ea3d
00000030: 43f3 bd3e 1bbd 51be aadd 623d b524 dbbe
00000040: e483 4c3d 4e8a b6be ec73 ef3d 3bc4 853d
00000050: bda9 8ebe 23b8 4b3e 9ed7 14be 2aad 94bd
00000060: cbb8 a0bd 97d5 45be c957 3b3d 1fb1 01be
00000070: d36c 96be 7ea3 623e d1a2 3a3c b57a 253e
00000080: 007e 4cbd ab55 7d3d c1f6 11bd 2d83 77bc
00000090: a985 743e 50ac ddbd fabf c7be 39db 2bbe
000000a0: 0724 a7be 91d4 c03d 587f 6d3e e679 363d
000000b0: 2e0f 42bd 450d a73d 661e ffbd ed6c 78be
000000c0: 1203 883d 47d8 dc3e 1602 2bbe d166 323e
000000d0: ac91 953e a080 74bd d41b 69bd f12e 343d
000000e0: 5f41 fc3d e47f 9abe 74a6 cebb 1048 3a3d
000000f0: 82f5 533d 9c8e 273e 35f2 d13b f8d5 1cbe
00000100: 415d 5a3d 6a4d 0a3d 5798 0ebe 42af f83d
00000110: 6486 78bb 4c32 e2bd e65f ff3d 8d9c 283e
00000120: e953 833d defb 83bd b555 12be d38b 743e
00000130: ca7b 98bd 1c53 cbbd ff76 5bbe c72f 3f3d
0.116000675 -0.39633682 0.25947645 0.31540826 0.17958044 -0.29542434 0.04582544 -0.19809046
-0.06132591 -0.11471232 0.0068942662 0.11443988 0.37099656 -0.20482294 0.055387177 -0.42801443
0.04993047 -0.35652393 0.11692032 0.065315686 -0.27863875 0.19894461 -0.14535376 -0.07259591
-0.078477465 -0.1931976 0.045738015 -0.12665223 -0.293799 0.2213268 0.0113913575 0.1616009
-0.04992485 0.061849277 -0.035635713 -0.015106958 0.23879112 -0.108238816 -0.39013654 -0.16782846
-0.32644674 0.09415544 0.23193109 0.044549845 -0.047377758 0.08156828 -0.1245697 -0.24260302
0.066412106 0.43133757 -0.16700014 0.17422034 0.292127 -0.05969298 -0.056911305 0.04399008
0.12317156 -0.30175698 -0.006306464 0.04547888 0.051747806 0.16362995 0.006407047 -0.15315998
0.05331159 0.033765234 -0.139253 0.12142803 -0.00379219 -0.110447496 0.12469463 0.1646597
0.06412489 -0.06444524 -0.14290507 0.23881464 -0.07445486 -0.09927961 -0.21432112 0.046676423
