models/NFX_model.onnx (onnx, 40199 bytes, 5 tensors)

fc.weight f4 [5, 10]
000000 b3 92 bd 3e a8 df 0d be 32 1d 8e be 65 e8 7b 3e
       0.37025985 -0.1385485 -0.2775665 0.2460037
000010 2f 88 87 be 06 8a ad 3e 6d e3 b7 bd 16 f6 9b 3e
       -0.26471087 0.33894366 -0.08978925 0.30461186
000020 ea bd b6 bb 8e bd 9f 3b 20 df dd 3e 7c 07 f4 be
       -0.0055768387 0.0048748916 0.43334293 -0.4766196
000030 11 74 b6 bd 91 2b 66 3e 03 b3 d1 be ea f7 cb 3d
       -0.08908857 0.22477557 -0.40956888 0.09959395
000040 99 25 a7 be 2d e6 7a 3d 94 a9 cf 3e 70 01 07 be
       -0.32645872 0.06125467 0.40559065 -0.13184142
000050 a4 5a 0e 3f 1d a9 e2 be 2e 64 1d bd 3c 84 0a 3f
       0.55607057 -0.44269648 -0.038425617 0.54108024
000060 7c 5d 2b be fd 09 9a 3e 61 8d a3 be f4 c5 30 3e
       -0.1673488 0.30085745 -0.319438 0.17263013
000070 8f 07 65 3e 6f 5b c1 3d d0 f7 8c bc 21 f8 f5 be
       0.22366165 0.09441268 -0.01720801 -0.4804087
000080 f0 74 40 3e aa 31 92 be 18 ff e3 3d 5a a8 93 3e
       0.18794608 -0.28553516 0.1113264 0.2883938
000090 13 f6 61 be dd 6e 11 3e 60 94 2c be b6 59 e4 3e
       -0.22066526 0.14202447 -0.16853476 0.44599694
0000a0 af d4 7d 3e 94 32 a6 3d 78 78 d4 be e3 47 ea bd
       0.24788164 0.08115116 -0.4149816 -0.114394926
0000b0 09 ab e4 be cb ec 6f 3e cf 8f e1 3c d7 0b c0 3e
       -0.4466174 0.23430173 0.027534394 0.37509033
0000c0 ab a4 e7 bd 9d ae 31 bd
       -0.11310705 -0.043379415

fc.bias f4 [5]
000000 75 f7 9d 3d dc b7 97 3e 8d 8c b6 3e 70 17 34 3e
       0.07713214 0.2963246 0.35654107 0.17587066
000010 cb 7a eb bd
       -0.1149803

onnx::LSTM_118 f4 [1, 40, 5]
000000 f9 55 13 3e de 5f d9 3c 08 88 00 3e 69 ca 19 be
       0.14388265 0.02653497 0.12551892 -0.1501862
000010 e8 dc 03 3f 7f 21 ce bd 6c f7 f0 be 35 be ef bd
       0.5150895 -0.100649826 -0.47063768 -0.11706201
000020 60 79 26 bf fa 09 0a be e5 c8 40 be 63 98 da 3e
       -0.65028954 -0.13480368 -0.18826635 0.42694387
000030 49 40 a2 3e 3a 99 c5 be 74 c2 db 3e 9e 91 e4 3c
       0.3168967 -0.38593465 0.42921793 0.027901467
000040 11 25 13 be 36 11 1d be e2 c9 8d 3f 99 34 7b be
       -0.14369608 -0.15338597 1.1077235 -0.24531783
000050 cd 08 a3 3e cd 4d 10 3e 60 97 7e 3e 1d 2e 8b 3e
       0.31842652 0.14092179 0.24862432 0.2718362
000060 8d d6 df 3e fb d8 04 3d 1f 42 a9 3e 1a ce 73 3e
       0.43718377 0.03243349 0.3305826 0.2380909
000070 b8 ec ab 3e 4f e7 df 3e 8c e8 74 be 32 9d e8 be
       0.3357904 0.43731162 -0.23916835 -0.4543243
000080 79 b0 80 be b8 77 a8 be 70 12 12 be 08 22 2c 39
       -0.25134638 -0.32903838 -0.14264846 0.00016415876
000090 b5 73 c1 3e 88 03 4a bc 74 40 d4 bc b9 fd b7 3e
       0.3778359 -0.0123299435 -0.02590964 0.35935763
0000a0 77 60 38 be 8a 8d bb bc 2e f3 00 3e 2b d8 4e be
       -0.18005548 -0.02289464 0.12592766 -0.20199649
0000b0 45 e6 b4 3d da 84 ac 3e b6 fe 80 3e 3c 34 d8 3e
       0.08832983 0.33695108 0.2519433 0.42227352
0000c0 99 ad b8 bf c4 c8 ce bd de 02 c8 3e ec 24 c1 3e
       -1.4427978 -0.10096887 0.39064687 0.37723482
0000d0 8d ac ea 3e a8 c2 3e 3e 99 c2 22 3f 44 a8 82 3a
       0.4583477 0.18628943 0.6357818 0.000996836
0000e0 f2 31 cd be ac 92 55 be 5e 9d 81 bf ab 75 29 bf
       -0.40077168 -0.20856732 -1.012615 -0.6619517
0000f0 87 f9 32 3e 23 3f a3 3e b3 6c 11 3d f7 da ce be
       0.17478 0.31884107 0.035504054 -0.40401432
000100 57 e4 14 3f ce 93 10 be bd 51 d5 be 92 89 a9 be
       0.5816092 -0.14118883 -0.41663924 -0.3311277
000110 98 8c 5e 3f 6e 34 ee be e0 60 c6 3e c1 ad c9 3e
       0.8693328 -0.46524376 0.38745785 0.39390376
000120 fd 3c d9 3e 37 7b 44 be 5e c8 88 3e 76 5c aa 3e
       0.42429343 -0.19187628 0.26715368 0.33273667
000130 44 a4 96 3d f5 25 63 3e 58 a4 c5 3e 16 3c e4 3e
       0.0735555 0.22182448 0.38601947 0.44577092
000140 3b a1 e1 be 4d 85 00 bf b6 4f e9 bd e1 5a 7a bf
       -0.44068322 -0.502034 -0.11392157 -0.9779492
000150 95 b9 a6 be 44 cc cc 3e 04 23 4e 3d 58 6c c9 3c
       -0.32563463 0.39999592 0.050326362 0.024587795
000160 e1 40 62 3e e6 f5 df 3e e3 93 8f be 5a ed e0 be
       0.22095062 0.43742293 -0.28042516 -0.43931085
000170 62 55 0f be 48 13 5b 3e ea 83 7e 3a c5 90 04 3d
       -0.13997415 0.21394074 0.0009708988 0.032364625
000180 4e 06 d6 3d 71 68 20 be 30 59 a5 bf 94 33 03 3e
       0.10450421 -0.15664841 -1.2917843 0.12812644
000190 c4 44 b5 3e 46 79 8d 3e 92 9e 90 bb 0a 79 fe be
       0.35404027 0.27631587 -0.0044134343 -0.4970172
0001a0 bf 0f 93 3e 54 d8 8e be 87 55 af 3a 2e bf 30 be
       0.2872295 -0.2789942 0.001337693 -0.1726043
0001b0 1c 93 5a bf e2 3a bb be d8 00 e0 bd b4 94 d6 3d
       -0.8538072 -0.36568362 -0.10937661 0.104775816
0001c0 a4 41 48 bd 57 a0 dd be 99 ec f4 3e f5 cb d6 3d
       -0.048890725 -0.43286392 0.4783676 0.104881205
0001d0 01 d6 bb be 31 69 99 be 4c 6f 87 3f 58 10 bb be
       -0.3668671 -0.29963067 1.058084 -0.36535907
0001e0 ee 58 84 3e 55 1f 26 3e 31 0a 8b 3e 22 ef c7 be
       0.25849098 0.1622289 0.27156213 -0.3904963
0001f0 c9 5f 57 bd 1d a0 59 bc b4 33 05 3f 8b 12 4e 3d
       -0.052581582 -0.013282803 0.5203202 0.050310653
000200 51 d0 0b be 54 74 17 3f c6 ac 94 be 7b 8e 16 bf
       -0.13653685 0.5916188 -0.29038066 -0.5881116
000210 dd c9 0a bf 39 4e 4a bf ae de a5 be ba 10 2d be
       -0.5421427 -0.7902561 -0.32396454 -0.16900912
000220 f9 ff 05 3e 45 a9 95 3c c8 63 d8 bb 24 0c d9 3e
       0.13085927 0.01826919 -0.0066036917 0.42392075
000230 b5 2c f0 3d 26 1a aa be bb 0d e7 be 77 b3 16 3e
       0.11727277 -0.33223075 -0.45127663 0.14716898
000240 f7 dc 91 be 74 b9 b7 bc e0 bb 61 3e 4e 20 04 be
       -0.28488895 -0.022427298 0.22044325 -0.12902948
000250 ca 86 45 bf 02 4b 3e 3e 89 60 db 3e f6 b8 03 3f
       -0.77158797 0.185833 0.42847088 0.51454103
000260 ee 0a 61 3d 84 c2 5a bd 47 b2 fd 3e c6 6c 15 be
       0.054942064 -0.05340816 0.49550077 -0.14592275
000270 f9 2d 29 3c 29 be 62 3e e0 11 11 bd bc cc 78 be
       0.010325902 0.22142853 -0.035417438 -0.2429685
000280 4d 84 a3 3d e5 c1 b4 be 7a 86 60 be 7c 02 72 3e
       0.07984219 -0.3530418 -0.21926299 0.2363376
000290 60 06 2b bd 61 e0 41 be 70 46 6d bd 31 3a ce 3d
       -0.041754127 -0.1893325 -0.057928503 0.10069693
0002a0 48 26 b0 be de 0b 8e 3e 71 90 e9 be 3a c5 74 bd
       -0.34404206 0.2774343 -0.45618013 -0.059758402
0002b0 98 99 a9 be b8 a5 55 be 37 af e8 be dd ad 86 bc
       -0.33124995 -0.20863998 -0.45446178 -0.016440326
0002c0 0f 75 58 3e eb f9 9d 3e c4 29 ca 3b 27 34 b2 bc
       0.21138404 0.30854735 0.0061695296 -0.021753384
0002d0 63 f2 51 be ae a5 e8 bc f3 32 d6 bd ba 54 0a bd
       -0.2050262 -0.028399315 -0.104589365 -0.033772208
0002e0 a7 ad be 3d a0 c9 d6 3d 89 15 bf 3e f4 72 04 3b
       0.09310465 0.10487676 0.37321118 0.002021012
0002f0 5a b1 5c 3e af 6a 4c 3e e0 15 76 be e5 f7 78 bd
       0.21552029 0.19962572 -0.24031782 -0.060783286
000300 3b 2d 91 3e 80 b7 7c be ff fd 61 3e 97 ef d9 bd
       0.2835482 -0.24679375 0.22069548 -0.10641401
000310 02 f7 70 3d 3e c3 aa 3d d7 a5 82 3e f7 04 ba bd
       0.058829315 0.08338021 0.2551715 -0.09082978

onnx::LSTM_119 f4 [1, 40, 10]
000000 e5 17 02 3e 90 ff d8 3e 34 7a e5 3d e5 92 f4 bc
       0.12704428 0.4238248 0.11204949 -0.029855201
000010 c5 d3 9e be 52 14 9c 3d 3e b0 9e bd b0 cb 57 3d
       -0.31020942 0.07621063 -0.07748459 0.052684486
000020 10 e1 a5 3b fd c0 cc be 7b 1b 4b be 46 ac 3c 3e
       0.00506223 -0.39990988 -0.19834702 0.18425092
000030 8c c5 d2 3d a2 a3 75 3e ba 15 8e bd f9 71 81 3d
       0.10291585 0.23988202 -0.06937738 0.06320567
000040 28 6e 63 3d d8 c2 e8 3b ce 46 9f be 4f 2f 4c be
       0.055524975 0.0071033053 -0.31108707 -0.19939922
000050 01 79 d9 bd 5f 6f 7a 3e a6 1a d0 3d 5c 59 99 3e
       -0.10618783 0.24456547 0.10161333 0.29950988
000060 62 1d 92 bd df 33 3d bd 04 0a 64 be ae 73 19 be
       -0.071345106 -0.046192046 -0.22269446 -0.14985535
000070 97 f7 0a 3e 61 c2 71 bc 0b f9 af 3d d5 58 17 3e
       0.1357101 -0.014755816 0.08592423 0.1477998
000080 cc 13 e9 be ee c3 6d 3e 67 c6 95 be 3d 31 b5 3d
       -0.45522916 0.23219272 -0.2925293 0.08847282
000090 ef c9 ae 3e 73 fa 68 3e 10 ac 5e 3d 64 4f 32 3e
       0.34138438 0.22751789 0.05436331 0.17413098
0000a0 ce b7 44 be 35 79 b4 3e c8 95 26 3e 02 d3 82 be
       -0.19210741 0.35248724 0.16268075 -0.2555161
0000b0 2b 04 74 3d 31 ae d7 bd 10 55 6c 3e ca ae 5c 3e
       0.059574287 -0.10531271 0.23079324 0.21551052
0000c0 11 fe 91 3e be 92 d0 3b 15 ba 2d 3e 36 d1 ad 3c
       0.2851415 0.0063651493 0.16965516 0.021217924
0000d0 1c 75 1c 3e 5b 95 cc 3d c9 50 6f be 22 09 9c 3d
       0.15279049 0.09989425 -0.23370661 0.076189294
0000e0 8f b0 5b bd a0 02 83 bc a2 1d 2d be 12 26 5a 3e
       -0.053635176 -0.015992463 -0.16905835 0.21303585
0000f0 b2 34 9c bd 8a ae 39 3e 6c b0 32 3d 0b 4a 1f 3e
       -0.07627238 0.18132988 0.04362528 0.15555589
000100 18 44 cd 3e 76 24 23 3e 42 ce aa bc 59 2c ad 3c
       0.40091014 0.15931877 -0.020850305 0.02113931
000110 4a 18 3a 3e 14 3e c5 be 03 8d 6f 3c fd f5 ad 3d
       0.18173328 -0.38523924 0.014621022 0.08494184
000120 bd 26 18 3e 63 4c 02 3e 03 8b 22 3d e6 b3 17 3e
       0.14858527 0.12724452 0.039683353 0.1481472
000130 d2 ad 0b 3e fa b7 98 be 54 d9 8e 3e c6 f6 5e be
       0.13640526 -0.29827863 0.27900183 -0.21773824
000140 5f a5 3a 3e 24 f5 29 be 58 95 96 3e 29 3c 47 be
       0.18227147 -0.1659742 0.29410815 -0.19456543
000150 38 51 e4 bd f8 4b d7 bd 4f bf 52 3e b9 82 dd be
       -0.11148304 -0.10512537 0.20580791 -0.43263796
000160 52 0b b0 3d c1 49 92 3e 1a ad 8c 3e 1a 92 dd bd
       0.08595909 0.28571895 0.27475816 -0.10818882
000170 07 cc 28 3e 83 6a b9 3e aa 78 56 be bf b4 bd 3e
       0.1648408 0.36214074 -0.20944467 0.3705196
000180 96 04 98 bd 85 9f 23 3e 84 d0 98 be 43 d0 79 be
       -0.0742275 0.1597882 -0.29846585 -0.24395852
000190 d2 06 24 3e 3b 3d 84 3e 2c 84 a7 be 67 c5 73 be
       0.16018227 0.25827965 -0.32718027 -0.23805772
0001a0 7a 46 48 3d 58 0b b0 3e 07 d3 b0 be 30 b4 5c bc
       0.048895337 0.34383655 -0.34536 -0.013470694
0001b0 d5 86 0a be ef 27 e2 be c7 4e 34 be 4f 60 c6 3e
       -0.13527997 -0.44171092 -0.17608176 0.38745353
0001c0 cd 3b ce 3d 28 8f 3c be ea 47 b7 3d 64 8d b6 3e
       0.1007 -0.18413985 0.089492634 0.35654747
0001d0 6f e7 8d 3e fa 88 5d be c3 f0 05 3d b7 cb 7a bd
       0.27715632 -0.21634284 0.03270031 -0.061229434
0001e0 2a 90 21 bd af 22 3d 3e e8 ba 98 3e fc 2a 61 be
       -0.039444126 0.18470262 0.29830098 -0.21989053
0001f0 28 e7 1a be 54 08 6e 3c b3 2e 4c be 3d bf a9 bc
       -0.15127242 0.014528353 -0.1993969 -0.020721072
000200 fe 3d a7 3e ad 7c f5 3d 35 9a 3f 3e 3f 30 e0 3d
       0.32664484 0.11986671 0.18711169 0.10946702
000210 e1 2b 14 3e 1f b3 4f be 7c 4a bc be 20 32 d3 3d
       0.14469863 -0.20283173 -0.36775577 0.10312295
000220 38 20 c9 bd e1 94 fd 3e 9a 68 4c be 29 5d 0f be
       -0.09820598 0.49527648 -0.19961777 -0.14000382
000230 9f e9 ef bd 68 d7 71 be 3e e6 e8 be ce 26 07 bd
       -0.117144816 -0.23617327 -0.4548816 -0.03299599
000240 25 d0 0c be 13 1b 10 bd 3b d7 44 bd b6 dd d8 3b
       -0.13751276 -0.03518207 -0.048056822 0.006618227
000250 cc c6 5c bd c8 e3 db be 96 6f bb 3d d4 cc 06 3d
       -0.053900525 -0.4294722 0.09152143 0.032910183
000260 08 7b fa bd 68 91 dc 3d 81 fc 67 be 93 e0 af 3e
       -0.122304976 0.107699215 -0.22654916 0.34351024
000270 25 af c8 be 61 aa 80 3e 29 e8 7b be 8c 13 f6 3d
       -0.39196125 0.2512999 -0.24600281 0.12015447
000280 a1 a5 75 3e 09 a9 9d bd d6 7a a8 3d e7 40 b3 3e
       0.23988964 -0.076982565 0.08226554 0.35010454
000290 af 43 f0 3d 9e b5 0c be 91 85 0a 3e d5 cb 66 3c
       0.117316596 -0.13741156 0.13527514 0.014086683
0002a0 33 90 6c be 7f 97 eb 3d 42 06 b9 3d 93 18 22 be
       -0.23101883 0.11503505 0.09034397 -0.15829687
0002b0 14 98 a2 be 44 46 1c be 41 57 95 be f1 60 82 3e
       -0.3175665 -0.15261179 -0.29168132 0.25464585
0002c0 34 2d 67 be b9 8c 6e be 4f 36 5e be 9d 67 05 3e
       -0.22575837 -0.23295869 -0.21700405 0.13027807
0002d0 ee 09 c3 be bf 1b a9 bb e9 aa 48 be ec 9a 8b 3e
       -0.38093513 -0.0051607783 -0.19596447 0.27266634
0002e0 ec 7c 22 3c 97 6b bf 3d ac 06 20 3e 36 50 c2 be
       0.009917479 0.09346693 0.15627545 -0.3795182
0002f0 e0 4d c3 be 49 56 5a 3e 38 54 e9 3d c4 99 8b 3d
       -0.3814535 0.21321978 0.113930166 0.06816438
000300 4c 42 84 be db 8d db 3e b1 d7 cc bd 50 e3 9f 3e
       -0.2583183 0.42881665 -0.10002077 0.31228113
000310 5e 7a bf bc 5f 9a 76 bd ab 7a 17 3c 70 a7 3a bd
       -0.023373779 -0.060205813 0.009245555 -0.045569837
000320 6d 1a 05 be 19 ba 4c bd 02 4b 54 3e 63 4a 7d 3e
       -0.12998362 -0.049982164 0.20731738 0.24735408
000330 93 4a 42 3e 6c 43 f4 bd 95 4a db be 53 c2 ba be
       0.1897376 -0.11926922 -0.4283034 -0.36476383
000340 ef 62 49 bd 1d fa 10 3f 7e 76 b1 be 22 36 89 bd
       -0.049166616 0.5663164 -0.34660715 -0.06699778
000350 49 a9 9d 3b 01 9c 80 be 92 bc 4f 3e ea 50 c0 3e
       0.00481144 -0.25119022 0.20286778 0.37561733
000360 a9 39 12 3f 41 62 39 be 18 6c 34 3e bb d8 8f be
       0.5711923 -0.18103887 0.1761936 -0.2809504
000370 ea d8 03 3e 50 73 78 3d b0 43 b7 3d c6 b5 a9 3e
       0.12875715 0.060656846 0.08948457 0.33146495
000380 70 72 80 3e ae ed b1 be 05 63 bb be 61 89 d7 bd
       0.2508731 -0.34751648 -0.36598983 -0.1052425
000390 67 75 9c 3e 6e 8c a4 bd 4c 06 aa bc e2 09 25 3e
       0.3055832 -0.08034597 -0.020754956 0.16117051
0003a0 5f c2 36 be 8d c2 8d 3e c2 35 aa bd ba e6 38 bd
       -0.17847584 0.27687493 -0.08311035 -0.045141913
0003b0 b4 58 86 bc 41 80 21 3d e6 6f ab 3d 12 7e 88 bd
       -0.016399719 0.039428953 0.08370952 -0.06664671
0003c0 05 10 8e bd 8c 6c d1 be 87 b6 a2 3e 67 46 9d bc
       -0.06936649 -0.40903127 0.31779882 -0.01919861
0003d0 2b 13 93 3d 0e b5 05 be 78 41 c5 bd b0 c7 e4 be
       0.071813904 -0.13057348 -0.09631628 -0.446836
0003e0 48 80 84 3d 15 85 1e 3f 65 67 1a be fd be 04 be
       0.0646978 0.6192182 -0.15078504 -0.12963481
0003f0 ae 1c 72 be 57 0c d3 3e d3 84 07 3e 61 fe ae be
       -0.23643753 0.41220352 0.13234262 -0.3417845

onnx::LSTM_120 f4 [1, 80]
000000 17 31 87 3e 98 cf 89 bd 04 70 9f 3e c4 bb 41 3e
       0.2640464 -0.067290485 0.3114015 0.18919283
000010 76 c3 01 be ea 15 fe 3d 55 ea 6b be ab 58 74 3e
       -0.12672219 0.124065235 -0.2303861 0.23861949
000020 87 2e b9 be 96 78 05 3e 03 f9 b5 3e 81 ce 16 be
       -0.3616831 0.13034281 0.35541543 -0.14727212
000030 00 0a ce bd d7 bd 49 3e 5b 5d a5 3e 4c 9e 9d 3e
       -0.10060501 0.19701324 0.32297787 0.30784833
000040 d4 22 10 3e 51 d1 05 3d de 34 21 bd 30 d4 2d be
       0.14075786 0.032670323 -0.03935706 -0.16975474
000050 1f 3b 0d be 01 f7 81 3e 20 cf 1c be 08 cd 81 3e
       -0.13792084 0.25383762 -0.15313387 0.2535174
000060 63 55 50 3d 6c 91 9b be 5e 10 e2 3d bb 96 66 be
       0.05086268 -0.30384386 0.11038278 -0.22518437
000070 a0 90 72 bd ca ed 05 be 44 9e 47 be df 17 68 3e
       -0.059219956 -0.1307899 -0.19493967 0.22665356
000080 d8 37 19 be a8 87 bd bd 6d 01 37 bc 98 85 76 3e
       -0.14962709 -0.0925439 -0.0111697735 0.240744
000090 13 70 f4 3e f6 cd 58 bd c3 89 d8 3d 0f d2 53 be
       0.47741756 -0.052930795 0.10573151 -0.206856
0000a0 0f 18 87 3c d2 ff 58 bd 86 0e a3 3e 58 f7 9a 3d
       0.016490964 -0.052978344 0.31847018 0.07566708
0000b0 a7 b1 62 bd dc 36 58 bd c8 0a 59 be 5b 79 ea 3d
       -0.055345204 -0.052786693 -0.21195519 0.11448928
0000c0 05 7c e1 3d c6 53 ac be a9 14 82 3e 4f 81 25 be
       0.11009983 -0.33657664 0.25406387 -0.16162609
0000d0 08 30 39 3e a6 b5 d2 bd 14 98 60 3e 51 9e 3a 3e
       0.18084729 -0.10288553 0.21933013 0.18224455
0000e0 2e 9e 30 be b8 7b b4 3d e7 6d 8a 3d 17 28 8f 3e
       -0.17247841 0.0881266 0.067592435 0.27960274
0000f0 7b de cd 3d f9 7c 3f be 71 e2 0c be a4 64 ac be
       0.100522004 -0.18700017 -0.13758256 -0.33670533
000100 36 25 7d 3e 44 ea 84 3d ce 00 4e be 46 75 6b be
       0.24721226 0.06489995 -0.20117494 -0.22993955
000110 af a4 bc be 73 9f 4a be 35 10 7e 3e 90 2c 5e 3d
       -0.36844394 -0.19787388 0.2481087 0.054241717
000120 dc 7f 51 be 91 7d 9b be dd f7 b8 bd f7 e1 4b 3e
       -0.2045893 -0.30369237 -0.09031651 0.19910417
000130 df 9b 17 be eb f0 a0 3e 73 92 c1 bd ba 5b bd be
       -0.14805554 0.31433806 -0.09451761 -0.36984044
