models/NOV_model.onnx (onnx, 40199 bytes, 5 tensors)

fc.weight f4 [5, 10]
-0.3427786 0.27402383 0.082415245 -0.33726683 -0.32898372 0.15945524 0.09452547 0.073730946
0.09525636 -0.071673244 -0.11350044 0.33416685 -0.11847911 -0.11360856 -0.10416583 0.3084854
0.3513671 0.035483625 0.3650333 0.37753296 -0.27367035 -0.05645656 0.30152044 -0.18732962
-0.30225745 0.4419964 0.2423657 0.3225513 0.15825205 0.32891044 -0.021497466 -0.3305489
-0.087376855 0.41554782 -0.20524314 0.13445583 0.10442908 0.16493449 0.08191249 -0.074743845
-0.365114 0.2134627 0.13133532 -0.25417188 -0.036452197 0.37523243 -0.029421313 0.17245102
0.23036079 0.19724938
00000000: ad80 afbe da4c 8c3e 53c9 a83d 3dae acbe
00000010: 8e70 a8be 3c48 233e 9296 c13d 4000 973d
00000020: c415 c33d 6cc9 92bd eb72 e8bd eb17 ab3e
00000030: 2da5 f2bd 9bab e8bd e554 d5bd ccf1 9d3e
00000040: 63e6 b33e 4757 113d a5e5 ba3e 004c c13e
00000050: 851e 8cbe fe3e 67bd e360 9a3e 56d3 3fbe
00000060: 7dc1 9abe 5a4d e23e b72e 783e 7225 a53e
00000070: d30c 223e f366 a83e 741b b0bc b53d a9be
00000080: a3f2 b2bd afc2 d43e 422b 52be caae 093e
00000090: eade d53d 96e4 283e bcc1 a73d 4d13 99bd
000000a0: 39f0 babe f795 5a3e c47c 063e d122 82be
000000b0: e64e 15bd 771e c03e f704 f1bc 0097 303e
000000c0: b3e3 6b3e befb 493e

fc.bias f4 [5]
0.22037621 0.053796086 0.18738876 0.09430969 0.1469715
00000000: 4daa 613e 4959 5c3d d7e2 3f3e 7025 c13d
00000010: b27f 163e

onnx::LSTM_118 f4 [1, 40, 5]
-0.048188467 0.19575903 -0.091206476 0.010662104 0.3652723 -0.0001992156 0.42146876 0.013007635
-0.4844488 0.26036716 -0.3860886 -0.33290833 -0.08755304 -0.16655165 -0.13903531 0.03443133
0.41434172 0.101552695 0.6140118 0.025754377 0.43380883 0.1755631 0.24584416 0.057023235
0.39615998 0.49553734 0.22168212 0.16745599 0.11460439 -0.012771323 -0.055276938 -0.3220862
-0.26318666 -0.20675057 0.1126466 0.053714324 -0.29092404 -0.44966176 -0.35625112 -0.30663452
0.4213397 0.2967649 0.07643183 0.20693792 0.024547724 -0.11573861 0.2690917 0.25949585
-0.031654976 0.009705915 0.011370089 0.123863414 0.3678345 -0.28680277 0.28095785 0.42261183
0.4241317 -0.05182401 -0.36670807 0.0023812505 0.03119229 -0.061046876 0.037150823 0.29844117
-0.4375399 0.07701135 0.28744045 0.10287357 0.53486955 0.2596057 0.31304225 0.20685717
0.49771377 0.16781862 0.5218777 0.010361841 0.48715672 0.22680892 0.034272373 -0.001636166
-0.034792803 0.032727007 -0.11220964 -0.48907188 -0.2500992 -0.26497033 -0.26637667 0.026574267
-0.2593321 -0.36158392 0.1829498 0.26003635 0.2048807 0.060741954 0.018490149 0.031546097
0.021674518 0.053697184 -0.5269697 0.027828554 -0.0767595 -0.00020014081 -0.15199354 -0.23343413
-0.3139028 -0.1771747 0.33545512 0.16405089 -0.42630586 0.06872205 -0.26057196 -0.2774521
-0.1313321 0.0978456 -0.19735487 0.25214463 -0.07215187 0.20652917 -0.05769196 0.12807514
0.19250461 0.24826747 0.24158882 0.3090134 0.20667224 0.046207674 -0.090717696 0.30836287
0.33366245 0.19768867 -0.29574704 -0.3769786 -0.025186425 -0.37969813 0.027620172 -0.1476155
-0.20966382 -0.2539777 -0.19433357 -0.25119865 -0.04019431 -0.0849684 0.008903399 0.26518887
0.26563975 0.04648174 0.12334493 -0.080711834 0.04001995 0.4288009 0.08408802 0.003604987
-0.465387 -0.015176399 -0.40334246 0.10009038 0.041731887 0.33550745 -0.18333618 0.17390187
0.22527611 0.1352247 -0.032996494 -0.24755724 0.015177612 -0.16586082 -0.13115276 -0.16688068
0.49003893 -0.35172865 -0.45966494 -0.1065105 -0.1872063 -0.5719052 -0.1927462 0.0686461
0.3763503 0.33871803 0.02006511 0.066859856 0.20781678 0.2060787 0.038872976 -0.19102916
0.077342294 -0.112644434 0.10847476 0.2111857 0.124667786 -0.22518134 0.41833663 -0.12778759
0.24624057 -0.02793221 -0.005883949 0.16276528 0.39986008 0.20532264 0.017171843 0.18715763
00000000: 4561 45bd 0e75 483e 76ca babd 1bb0 2e3c
00000010: f904 bb3e 88e4 50b9 c1ca d73e fa1d 553c
00000020: ac09 f8be d84e 853e 68ad c5be f672 aabe
00000030: 024f b3bd 848c 2abe 465f 0ebe de07 0d3d
00000040: 9924 d43e dcfa cf3d e12f 1d3f d8fa d23c
00000050: 311c de3e d0c6 333e 92be 7b3e 3291 693d
00000060: 7bd5 ca3e 12b7 fd3e a300 633e 9579 2b3e
00000070: b5b5 ea3d d03e 51bc 126a 62bd 7be8 a4be
00000080: 67c0 86be 6cb6 53be 43b3 e63d 8d03 5c3d
00000090: fff3 94be 113a e6be 8c66 b6be 33ff 9cbe
000000a0: d6b9 d73e 92f1 973e 4b88 9c3d 89e7 533e
000000b0: 4f18 c93c 5d08 edbd 63c6 893e a4dc 843e
000000c0: a6a8 01bd 8f05 1f3c 9c49 3a3c 1aac fd3d
000000d0: ce54 bc3e d0d7 92be b5d9 8f3e 9460 d83e
000000e0: ca27 d93e 6a45 54bd 29c1 bbbe c10e 1c3b
000000f0: f986 ff3c 4a0c 7abd 762b 183d 48cd 983e
00000100: 3b05 e0be 20b8 9d3d 652b 933e 61af d23d
00000110: 36ed 083f 0aeb 843e 1347 a03e 5ed2 533e
00000120: 57d4 fe3e a5d8 2b3e c799 053f b6c4 293c
00000130: 9b6c f93e 9940 683e 3061 0c3d 9f74 d6ba
00000140: e682 0ebd c10c 063d 2bce e5bd a167 fabe
00000150: 010d 80be 31aa 87be 8662 88be 47b2 d93c
00000160: 2dc7 84be 8721 b9be 3157 3b3e 7c23 853e
00000170: 3fcc 513e 8ecc 783d a778 973c 7b36 013d
00000180: c28e b13c 94f1 5b3d 7ce7 06bf b5f8 e33c
00000190: 1634 9dbd e4dc 51b9 32a4 1bbe 5b09 6fbe
000001a0: deb7 a0be 496d 35be c6c0 ab3e f5fc 273e
000001b0: c344 dabe 25be 8c3d b069 85be 340e 8ebe
000001c0: ec7b 06be 4663 c83d 6517 4abe 1a19 813e
000001d0: 5cc4 93bd 627c 533e 684e 6cbd 2126 033e
000001e0: ee1f 453e d439 7e3e 0f63 773e 0137 9e3e
000001f0: e3a1 533e 4244 3d3d 33ca b9bd bde1 9d3e
00000200: ced5 aa3e e66e 4a3e 286c 97be 5703 c1be
00000210: c353 cebc cb67 c2be b343 e23c 8528 17be
00000220: 1db2 56be 5d09 82be 61ff 46be 1c9d 80be
00000230: caa2 24bd ea03 aebd 90df 113c d6c6 873e
00000240: ef01 883e a363 3e3d 449c fc3d 3f4c a5bd
00000250: f6eb 233d cb8b db3e 5736 ac3d a541 6c3b
00000260: 3447 eebe 6ea6 78bc e782 cebe 2ffc cc3d
00000270: 0eef 2a3d a2c7 ab3e 7bbc 3bbe 5513 323e
00000280: c8ae 663e 5878 0a3e 5527 07bd a57f 7dbe
00000290: 85ab 783c 6bd7 29be e94c 06be c5e2 2abe
000002a0: 62e6 fa3e c715 b4be 3459 ebbe 2d22 dabd
000002b0: 02b3 3fbe 6168 12bf 435f 45be 5496 8c3d
000002c0: fdb0 c03e 736c ad3e 965f a43c d2ed 883d
000002d0: eccd 543e 4b06 533e 4539 1f3d 269d 43be
000002e0: a365 9e3d 20b2 e6bd 0428 de3d 1041 583e
000002f0: d351 ff3d f095 66be 3830 d63e c0da 02be
00000300: 7d26 7c3e 17d2 e4bc 24ce c0bb f1ab 263e
00000310: 76ba cc3e 1940 523e f7ab 8c3c 40a6 3f3e

onnx::LSTM_119 f4 [1, 40, 10]
0.2919018 0.28845498 -0.54807633 0.113277614 -0.27305955 -0.14396694 -0.3336487 -0.48886055
-0.044413432 0.01639001 0.13348258 0.16909 0.30124277 0.14033954 -0.20681132 0.31191096
0.24601904 -0.0919725 -0.2749114 0.10965085 0.21845286 -0.11411734 -0.3979307 0.40283358
0.4586455 -0.024444826 0.15808806 0.002854555 -0.38420755 -0.22835176 -0.32773858 0.36500698
-0.06597952 0.22497118 0.09177766 0.16073027 0.18502255 -0.122822896 0.25405574 0.17168519
0.34969717 0.12242294 -0.3107253 0.26069236 0.13669766 -0.34447333 0.43930084 0.31931558
-0.039131586 -0.41863394 -0.24682975 0.2945745 0.06653421 0.07836641 -0.0643468 0.1368414
0.3155265 0.20317312 0.0006011586 0.15930492 -0.041876506 0.13801019 -0.13213426 -0.072850734
-0.09534022 -0.08978832 0.18349807 -0.20113347 -0.19707023 -0.4389545 0.033795692 -0.15739739
0.21231174 0.056518886 0.39585915 0.032515906 -0.19580996 0.26312256 0.012648661 -0.37635732
-0.24321578 -0.12510091 0.08824507 0.048487347 -0.039231688 0.30228457 0.13360508 0.033604745
-0.05620375 0.100367524 0.07760037 0.11757702 0.2924094 0.25899187 0.10809686 0.0073213577
0.49206945 0.27849907 0.22796354 0.30860564 -0.04654938 0.041177917 -0.39823404 -0.014183291
0.16018024 0.06304585 -0.09074507 -0.4876915 0.28480864 0.086472355 0.16127588 -0.021144891
0.17915542 0.16829626 -0.1316112 0.10252165 -0.10321693 0.12263475 0.29370967 0.2642048
0.43932322 -0.36643362 0.031061186 0.26413885 0.3910395 -0.33583435 0.04002248 0.3610928
-0.22696179 -0.44180945 -0.16543663 0.04773475 -0.05837504 0.11231496 -0.32430947 0.13876599
-0.17102307 -0.11532218 -0.15038109 -0.101583704 0.19239523 0.3027638 0.016641315 -0.2098902
-0.3027942 -0.20636117 0.008637206 0.23783727 -0.3655952 0.040480264 -0.14461951 0.09497774
0.012399541 -0.11996731 -0.44340098 0.31804264 0.0034886294 0.38944626 0.35397762 0.22646824
0.095828995 -0.18589571 -0.083523475 0.22659318 0.18766448 0.10929085 -0.28352296 0.11640953
0.072580375 -0.472098 -0.014087268 -0.29936424 -0.15407926 -0.1931224 -0.13009092 -0.17023526
0.09725502 0.020728983 -0.35729635 -0.33186284 -0.1539724 -0.011780141 0.11717218 0.20606309
-0.4612026 -0.067784704 0.3989555 0.20040846 0.0568618 0.120626986 -0.24217618 0.04856083
0.27723965 0.255176 -0.14621374 0.42023695 0.14300078 0.19159482 -0.14546171 0.18013637
0.49260804 0.14555632 -0.25220555 0.15157187 0.20163712 -0.040500157 -0.25981754 0.12743206
0.02352639 -0.02332851 -0.11952805 0.12267825 -0.16802485 0.27770445 0.2112832 -0.17083246
-0.035658058 0.4359608 0.23560491 0.23178034 0.09447045 -0.03725162 0.081017405 0.48320493
0.09297529 -0.43445167 0.1125576 -0.16768533 -0.47611752 -0.46465448 0.0038908818 0.08766124
-0.05542558 0.081588894 -0.35061514 -0.08585987 -0.005496334 0.28570858 -0.057600465 0.07448825
0.08680733 -0.20055158 -0.35876372 -0.21676768 0.17927502 0.020482427 0.52365357 0.08798845
0.1023459 -0.11662479 -0.089283936 -0.027347932 -0.24034694 0.065849654 0.14856628 0.12528875
00000000: 2774 953e 5fb0 933e bb4e 0cbf 18fe e73d
00000010: 76ce 8bbe 126c 13be 01d4 aabe ee4b fabe
00000020: dcea 35bd 5844 863c a8af 083e ee25 2d3e
00000030: 7e3c 9a3e 2bb5 0f3e 59c6 53be cbb2 9f3e
00000040: 6aec 7b3e 145c bcbd 30c1 8cbe a090 e03d
00000050: 1bb2 5f3e 5ab6 e9bd 93bd cbbe 3440 ce3e
00000060: 95d3 ea3e 8440 c8bc d6e1 213e 7c13 3b3b
00000070: dab6 c4be 0bd5 69be 5acd a7be 32e2 ba3e
00000080: 4520 87bd d85e 663e edf5 bb3d 7a96 243e
00000090: 8d76 3d3e 928a fbbd 9813 823e 3ece 2f3e
000000a0: 820b b33e e1b8 fa3d 6317 9fbe 7879 853e
000000b0: 79fa 0b3e cf5e b0be 0aec e03e 557d a33e
000000c0: 7148 20bd 3057 d6be f0c0 7cbe 78d2 963e
000000d0: 1743 883d 927e a03d 41c8 83bd 2720 0c3e
000000e0: b08c a13e 9d0c 503e 1297 1d3a d420 233e
000000f0: b386 2bbd 8b52 0d3e 344e 07be c432 95bd
00000100: bc41 c3bd f0e2 b7bd ebe6 3b3e eff5 4dbe
00000110: c7cc 49be a5be e0be 5a6d 0a3d c82c 21be
00000120: 4068 593e 5980 673d 0dae ca3e 662f 053d
00000130: 6882 48be 00b8 863e 543c 4f3c e8b1 c0be
00000140: 8f0d 79be 741a 00be d5b9 b43d ab9a 463d
00000150: 68b1 20bd 0bc5 9a3e c5cf 083e 21a5 093d
00000160: e735 66bd 7d8d cd3d f1ec 9e3d 38cc f03d
00000170: afb6 953e 959a 843e e361 dd3d 00e8 ef3b
00000180: 87f0 fb3e 6e97 8e3e 466f 693e 8f01 9e3e
00000190: 90aa 3ebd 2daa 283d 55e5 cbbe 0961 68bc
000001a0: 4a06 243e 2f1e 813d 8dd8 b9bd b3b2 f9be
000001b0: 70d2 913e 6b18 b13d 8125 253e 0d38 adbc
000001c0: 8574 373e db55 2c3e 16c5 06be dff6 d13d
000001d0: 6663 d3bd ee27 fb3d 1d61 963e da45 873e
000001e0: f9ee e03e 309d bbbe 0774 fe3c 353d 873e
000001f0: 5436 c83e 7bf2 abbe 9dee 233d 28e1 b83e
00000200: ac68 68be d934 e2be 3868 29be 8385 433d
00000210: aa1a 6fbd 6305 e63d e40b a6be ac18 0e3e
00000220: ac20 2fbe 092e ecbd 80fd 19be 1e0b d0bd
00000230: 4103 453e db03 9b3e 5e53 883c 75ed 56be
00000240: d707 9bbe 5850 53be 1183 0d3c 9d8b 733e
00000250: 4b2f bbbe a2ce 253d 2317 14be b083 c23d
00000260: 7227 4b3c 6cb1 f5bd 7405 e3be 7cd6 a23e
00000270: 7da1 643b 8065 c73e 8e3c b53e 4ae7 673e
00000280: fe41 c43d 725b 3ebe 5b0e abbd 0b08 683e
00000290: 1e2b 403e e2d3 df3d ec29 91be 1f68 ee3d
000002a0: 05a5 943d d4b6 f1be 49ce 66bc 4546 99be
000002b0: f4c6 1dbe e1c1 45be 8e36 05be 2752 2ebe
000002c0: a42d c73d d4cf a93c 8cef b6be ede9 a9be
000002d0: f1aa 1dbe 7e01 41bc f8f7 ef3d 3402 533e
000002e0: bf22 ecbe b5d2 8abd e543 cc3e e037 4d3e
000002f0: ebe7 683d 480b f73d 08fd 77be b9e7 463d
00000300: 5bf2 8d3e 6ea6 823e 0eb9 15be 4c29 d73e
00000310: cc6e 123e 6f31 443e eaf3 14be ab75 383e
00000320: 1f37 fc3e b70c 153e 1621 81be a835 1b3e
00000330: f679 4e3e 7ee3 25bd ce06 85be 8d7d 023e
00000340: 6aba c03c 6e1b bfbc 1fcb f4bd bc3e fb3d
00000350: b50e 2cbe 472f 8e3e a05a 583e b4ee 2ebe
00000360: 2f0e 12bd 4136 df3e 6a42 713e d357 6d3e
00000370: b979 c13d 2895 18bd 74ec a53d a366 f73e
00000380: d469 be3d 7370 debe 9984 e63d b4b5 2bbe
00000390: adc5 f3be 31e7 edbe 2afe 7e3b bc87 b33d
000003a0: ef05 63bd 1418 a73d d483 b3be 4dd7 afbd
000003b0: 971a b4bb 6548 923e 77ee 6bbd 4c8d 983d
000003c0: 0bc8 b13d 655d 4dbe e1af b7be 59f8 5dbe
000003d0: df93 373e c3ca a73c 290e 063f 4a33 b43d
000003e0: ba9a d13d fad8 eebd 7fda b6bd c508 e0bc
000003f0: 821d 76be 2fdc 863d c221 183e b24b 003e

onnx::LSTM_120 f4 [1, 80]
0.30410835 0.02112639 -0.3937371 0.24706423 -0.13246487 0.07552554 -0.16523072 -0.29552808
0.021736765 0.008960762 0.4536704 0.015254251 -0.20330133 0.25915974 0.21060923 0.24128398
-0.33049184 -0.046338372 -0.12001657 0.19987333 0.08841114 0.108836286 -0.3581415 0.09962223
-0.033367313 0.21067263 -0.3356965 -0.26880234 -0.19363756 -0.06995413 -0.023083938 0.13846962
-0.061601706 -0.076536104 -0.018135129 -0.07850112 -0.10435783 0.045427106 0.20100477 0.24104501
0.20525335 -0.2840449 -0.049955457 0.28945857 -0.06403338 0.060078807 0.10673268 -0.3504393
-0.21495746 0.010552636 0.41777846 0.16662355 -0.4007442 0.15714549 -0.028522694 -0.056444492
-0.21781524 -0.27220508 0.22058302 -0.17444947 -0.18245886 0.077874176 -0.15646172 0.27246445
-0.094863355 -0.023313096 -0.13767743 -0.11914231 0.24188052 0.25598466 0.3031924 -0.028603017
-0.061556336 0.34090912 0.013446477 0.15089118 -0.39554396 -0.40730372 0.15993312 -0.073850654
00000000: 17b4 9b3e 4011 ad3c e997 c9be 68fe 7c3e
00000010: dfa4 07be 22ad 9a3d 3e32 29be 754f 97be
00000020: 4d11 b23c 29d0 123c 7d47 e83e f7ec 793c
00000030: 392e 50be 96b0 843e f2a9 573e 2613 773e
00000040: 3a36 a9be 4ecd 3dbd 3fcb f5bd 98ab 4c3e
00000050: e610 b53d 8fe5 de3d 535e b7be bd06 cc3d
00000060: 2aac 08bd 91ba 573e 69e0 abbe 76a0 89be
00000070: ed48 46be 1c44 8fbd 871a bdbc fbca 0d3e
00000080: 1252 7cbd f6be 9cbd 1f90 94bc 32c5 a0bd
00000090: 8fb9 d5bd c611 3a3d 32d4 4d3e 81d4 763e
000000a0: ef2d 523e 556e 91be 189e 4cbd ea33 943e
000000b0: ef23 83bd 3215 763d aa96 da3d c86c b3be
000000c0: cf1d 5cbe f7e4 2c3c 0fe7 d53e 5d9f 2a3e
000000d0: 582e cdbe bfea 203e 6da8 e9bc 5732 67bd
000000e0: f50a 5fbe 775e 8bbe 84e0 613e e2a2 32be
000000f0: 7fd6 3abe 7f7c 9f3d 8037 20be 7680 8b3e
00000100: b847 c2bd 1bfb bebc 50fb 0cbe e200 f4bd
00000110: 87af 773e 6c10 833e 093c 9b3e e050 eabc
00000120: 7f22 7cbd a48b ae3e 9d4e 5c3c 3883 1a3e
00000130: bd84 cabe 1d8a d0be 82c5 233e 033f 97bd
