models/NWS_model.onnx (onnx, 40199 bytes, 5 tensors)

fc.weight f4 [5, 10]
0.27955934 -0.15497711 0.3707068 -0.028439607 0.4446385 0.23138513 -0.40754613 -0.042260885
0.22586589 0.16759978 0.5014745 -0.12200047 0.15738314 0.21976162 0.12628996 0.3608846
-0.016754908 0.1018641 -0.03818157 0.4310507 0.34168595 -0.42730135 0.2986798 0.015536788
0.30006453 0.2532434 -0.32370284 0.09549907 0.21614961 0.20586938 0.124236114 0.39504763
0.03718653 -0.027760845 -0.072567545 -0.2793763 -0.28390974 0.28460062 -0.045241404 -0.09300822
0.013231518 -0.3573216 0.2721742 0.16601308 0.3875666 0.32655963 -0.4654835 0.28096077
-0.18192115 0.11062125
00000000: 6722 8f3e 52b2 1ebe 48cd bd3e 2efa e8bc
00000010: a8a7 e33e 39f0 6c3e e3a9 d0be c019 2dbd
00000020: 6349 673e 479f 2b3e a260 003f 62db f9bd
00000030: 0c29 213e 3109 613e 2852 013e dec5 b83e
00000040: 9741 89bc 209e d03d 4764 1cbd adb2 dc3e
00000050: 76f1 ae3e 3ec7 dabe 8fec 983e 038e 7e3c
00000060: 0fa2 993e 1ea9 813e 61bc a5be 0495 c33d
00000070: 5356 5d3e 6ccf 523e 816f fe3d af43 ca3e
00000080: e750 183d b66a e3bc 4b9e 94bd 690a 8fbe
00000090: 9e5c 91be 2cb7 913e 0d4f 39bd 187b bebd
000000a0: 02c9 583c dbf2 b6be 6b5a 8b3e 55ff 293e
000000b0: 216f c63e d332 a73e da53 eebe 17da 8f3e
000000c0: 8a49 3abe 658d e23d

fc.bias f4 [5]
0.15464862 0.31005 0.21854012 -0.015869213 -0.04224328
00000000: 355c 1e3e e0be 9e3e fbc8 5f3e 2700 82bc
00000010: 4a07 2dbd

onnx::LSTM_118 f4 [1, 40, 5]
-0.31744987 -0.6150301 -0.40785632 -1.0813582 -0.26299116 0.03844743 0.1614612 0.12862933
0.25967175 -0.12978926 0.28617263 0.28541425 0.21065232 -0.10356453 0.033471547 0.051753692
0.11056538 -0.10569736 -0.28843853 0.21916799 0.37510365 0.44902164 0.14585786 0.03859517
0.049346577 0.23844662 0.36612916 -0.117676236 -0.30963355 0.35530263 0.1267467 0.47266522
-0.041304488 0.52360046 0.43866673 0.08975193 0.13146648 0.32709083 0.7126657 0.18285748
-0.23164962 -0.17330247 -0.3770713 -0.013247538 0.20305008 0.37096706 -0.056437284 0.44032317
-0.39263225 0.43954298 -0.055915773 -0.44157016 -0.56362176 -0.35000673 -0.3994813 0.057235785
-0.25896835 -0.2732685 0.31976596 -0.10684784 0.3052012 0.5761691 0.5718785 -0.40095633
0.1370379 0.2541326 -0.098760284 -0.124562226 -0.25603452 0.08301969 -0.0017498195 0.1829543
0.2277215 -0.02238348 -0.029878087 0.57093924 0.24358656 1.3100725e-06 -0.6893072 0.092113465
0.53890216 0.14889409 0.070737846 0.25180677 0.23118006 0.03319524 0.48606652 0.25725067
0.61469805 0.19785684 0.10537982 -0.36996832 0.18893464 -0.27046633 -0.3309513 0.22101872
0.54133666 0.64333737 -0.44630283 0.4788157 -0.45029274 -0.65403056 -0.5978787 -0.8200092
-0.76480925 -0.48244426 -0.18926159 -0.36606795 0.20175952 -0.5126649 0.26260456 0.48153156
0.46796206 0.067756 0.24530852 -0.20196964 0.17140207 -0.031607326 -0.48424956 -0.28211582
0.16564389 0.33484966 -0.12078364 -0.2064809 0.0141972145 0.3321336 0.27137578 -0.093044065
-0.55832523 0.48592937 0.04095802 -0.05062399 0.0757171 0.33346796 0.27574182 0.24624121
0.14586636 -0.19207367 0.6240698 0.27290192 -0.049871393 0.073227346 -0.008669689 -0.21854833
0.07075271 0.015885744 0.40851095 0.24761139 -0.6625287 0.20064887 0.18965937 -0.1735213
0.13411163 0.03457497 0.31790492 0.08180443 -0.18563314 -0.2546023 0.6947573 -0.23160791
0.02257588 -0.09600384 0.12789093 0.3925667 0.19242837 0.34691644 -0.1263162 0.31084448
-0.2075748 0.062111896 -0.0047727623 0.3130014 0.44818705 -0.20631413 0.6129609 -0.13961343
0.13239112 0.17146236 -0.14853379 0.15670861 -0.25172442 -0.25791964 -0.24898557 -0.43132824
-0.004294818 0.28345168 0.10456711 -0.011399254 1.0390215 0.35104427 0.11680723 0.117794044
-0.14517142 -0.005617127 0.21334654 0.42689696 0.18044366 0.049796537 0.2108764 -0.01572067
00000000: ca88 a2be 9d72 1dbf 8bd2 d0be f269 8abf
00000010: c7a6 86be 0d7b 1d3d 1656 253e 68b7 033e
00000020: b2f3 843e 7ae7 04be 3885 923e d121 923e
00000030: 3eb5 573e a419 d4bd 7619 093d aefb 533d
00000040: 1a70 e23d dc77 d8bd 37ae 93be 936d 603e
00000050: 960d c03e 2ae6 e53e c35b 153e f815 1e3d
00000060: a31f 4a3d 5a2b 743e 4875 bb3e 3d00 f1bd
00000070: 4a88 9ebe 3aea b53e e3c9 013e 2d01 f23e
00000080: e52e 29bd ae0a 063f ed98 e03e dccf b73d
00000090: 269f 063e 7378 a73e 4271 363f fe3e 3b3e
000000a0: 8f35 6dbe 3476 31be 7d0f c1be 340c 59bc
000000b0: 5cec 4f3e 65ef bd3e c82a 67bd 0a72 e13e
000000c0: 1807 c9be c70b e13e f007 65bd 7c15 e2be
000000d0: 8449 10bf 1534 b3be d088 ccbe 1270 6a3d
000000e0: 8097 84be d9e9 8bbe 5db8 a33e 0ad3 dabd
000000f0: 5543 9c3e d17f 133f a166 123f 264a cdbe
00000100: aa53 0c3e ab1d 823e d542 cabd 7b1a ffbd
00000110: f516 83be 3a06 aa3d 335a e5ba 5f58 3b3e
00000120: d32f 693e 8f5d b7bc e4c2 f4bc 1329 123f
00000130: c16e 793e c0d5 af35 7076 30bf fca5 bc3d
00000140: 7ef5 093f b177 183e 01df 903d d1ec 803e
00000150: 77ba 6c3e bbf7 073d b6dd f83e 5cb6 833e
00000160: da5c 1d3f fc9a 4a3e 60d1 d73d 7d6c bdbe
00000170: 1578 413e 907a 8abe 7372 a9be bb52 623e
00000180: 0a95 0a3f c2b1 243f ce81 e4be 5527 f53e
00000190: c58c e6be 8c6e 27bf 940e 19bf 1fec 51bf
000001a0: 8aca 43bf ef02 f7be cacd 41be 426d bbbe
000001b0: 0c9a 4e3e 023e 03bf 1b74 863e 4e8b f63e
000001c0: b998 ef3e a8c3 8a3d 2832 7b3e 21d1 4ebe
000001d0: 0684 2f3e af76 01bd 8fef f7be 7c71 90be
000001e0: 8d9e 293e 6a71 ab3e 6a5d f7bd bb6f 53be
000001f0: 6f9b 683c 6a0d aa3e c4f1 8a3e e38d bebd
00000200: 67ee 0ebf bccb f83e 99c3 273d 1a5b 4fbd
00000210: 9111 9b3d 50bc aa3e 082e 8d3e a826 7c3e
00000220: fe5d 153e f6ae 44be 0ac3 1f3f cdb9 8b3e
00000230: f245 4cbd 38f8 953d 500b 0ebc 22cb 5fbe
00000240: cce6 903d d222 823c 5928 d13e d78d 7d3e
00000250: 7b9b 29bf e676 4d3e 1136 423e 91af 31be
00000260: 8f54 093e 7c9e 0d3d 6fc4 a23e 1589 a73d
00000270: 9d16 3ebe 3c5b 82be 9ddb 313f a02a 6dbe
00000280: 0df1 b83c a99d c4bd d7f5 023e 81fe c83e
00000290: f10b 453e 089f b13e 0959 01be 0227 9f3e
000002a0: 7d8e 54be 0b69 7e3d d564 9cbb b841 a03e
000002b0: c678 e53e 0344 53be 01eb 1c3f d3f6 0ebe
000002c0: 8a91 073e d493 2f3e 3e19 18be 3978 203e
000002d0: 06e2 80be 0b0e 84be 13f6 7ebe 0ed7 dcbe
000002e0: 8bbb 8cbb 9420 913e 4827 d63d f0c3 3abc
000002f0: a8fe 843f 13bc b33e a138 ef3d 013e f13d
00000300: d1a7 14be e00f b8bb 8477 5a3e 3d92 da3e
00000310: 39c6 383e 74f7 4b3d fcef 573e a2c8 80bc

onnx::LSTM_119 f4 [1, 40, 10]
-0.11104089 0.46393463 0.24177465 0.41468307 0.29120782 0.38900346 0.094696246 -0.004619591
0.055277083 0.31743187 -0.2003253 0.18030857 0.094015665 0.17123841 -0.033914667 -0.096243426
-0.32512125 -0.2533022 0.07761279 0.19773354 0.290354 -0.3732294 -0.18774337 -0.31962234
0.011114096 0.15306447 0.081382975 -0.07320229 0.0613609 -0.011346647 0.0040037883 -0.30495378
-0.2409811 -0.17662369 0.102826044 -0.1141296 0.086565554 0.21959777 0.07568465 0.049025565
-0.24071586 0.01572684 -0.027925767 -0.30435187 -0.0584361 0.109948166 -0.2827685 0.037625384
-0.015733074 0.15221657 -0.1287485 -0.45248365 0.2244688 0.11131069 0.16494213 -0.031215522
0.2156154 -0.02742904 0.08391184 0.011683506 0.07292343 -0.4519491 0.11477315 -0.21909526
-0.09526997 -0.23827015 -0.19868457 0.13999298 0.24428235 0.028004523 -0.28171346 -0.11532187
0.29137316 -0.076846264 -0.2973771 -0.15756029 0.17557696 -0.050476473 -0.054224577 0.11260829
0.19556247 0.22237778 -0.18959887 0.020662237 -0.4172026 0.14428031 0.30818608 -0.11408884
-0.017022258 0.11480976 0.040080138 -0.29220912 0.33570442 0.2781831 -0.1424566 0.18020312
-0.3458368 0.09586152 0.2983837 0.34253532 -0.6235499 0.5844716 0.51318103 0.18466657
-0.13354209 0.25682476 -0.26920128 0.1021855 0.08967294 0.100908235 -0.40160954 -0.28163552
-0.23159064 0.33657587 -0.21524654 -0.029193643 -0.23505187 0.22112703 0.25873405 -0.20935759
0.41649196 -0.49360386 -0.18915401 -0.3146926 0.19537455 -0.2365261 0.22667092 0.35284373
0.08201357 -0.2801517 0.18451814 -0.29113752 -0.06955769 0.13853292 0.14024122 0.18838036
-0.29863685 -0.020934714 -0.10217804 -0.0737141 -0.044915617 0.086508356 0.06371889 0.15600519
0.4243791 0.08662929 -0.18926692 0.1170143 -0.35941976 0.033357315 0.09879019 0.0748361
-0.12804042 0.37342668 0.1834289 0.2993136 0.022150775 0.38990325 -0.077508494 -0.023626748
-0.012276788 -0.14701337 0.21978322 -0.30759883 -0.11218541 0.04726949 -0.28346685 -0.096910864
-0.20523953 -0.097462185 -0.10970232 -0.108686686 -0.13516402 -0.43902534 0.12015129 -0.3146063
-0.16479398 -0.0036706585 -0.12401453 -0.2654463 0.15771817 -0.15943933 -0.3079542 -0.15995376
0.0118809575 0.1309592 -0.09259464 -0.24010666 0.33157325 0.0015862896 0.5128211 -0.0097841555
-0.19517195 0.109776504 0.037479237 0.23583585 -0.009365403 0.22225937 0.08362192 -0.032121316
-0.29459465 0.44981712 0.09532238 0.050347038 0.44343033 0.31055808 -0.1483787 0.0062526725
-0.40400168 0.5594731 -0.13978852 0.23106547 0.054865245 -0.105005205 0.24032922 -0.24743535
0.3553723 -0.32571185 0.3234495 0.25135136 0.11280931 -0.26236588 0.24452946 -0.43342248
-0.083420776 -0.4304027 -0.15718457 -0.17808184 -0.26825792 -0.10321811 -0.09046665 0.07928185
0.036084294 0.22763275 -0.18636373 -0.0051588234 -0.19132178 -0.26648298 0.06783005 0.20564607
0.086193964 0.04239057 -0.24258392 -0.47764894 0.023442864 -0.34224638 -0.27398184 0.01448412
0.12715764 -0.036900513 0.07563032 -0.32093447 -0.3581468 -0.27433795 -0.26536942 0.13531198
00000000: 6869 e3bd d788 ed3e c693 773e 5751 d43e
00000010: 3119 953e 762b c73e 1bf0 c13d f05f 97bb
00000020: 396a 623d 6e86 a23e 1322 4dbe cfa2 383e
00000030: 498b c03d 1f59 2f3e 1bea 0abd 461b c5bd
00000040: 4b76 a6be d3b0 81be 74f3 9e3d a97a 4a3e
00000050: 48a9 943e ed17 bfbe cc3f 40be 8aa5 a3be
00000060: e617 363c efbc 1c3e 1eac a63d 15eb 95bd
00000070: 9155 7b3d 49e7 39bc 3632 833b e722 9cbe
00000080: c0c3 76be d7dc 34be 7696 d23d c8bc e9bd
00000090: 4849 b13d 3dde 603e 8e00 9b3d 08cf 483d
000000a0: 387e 76be 93d5 803c 94c4 e4bc 02d4 9bbe
000000b0: b15a 6fbd 812c e13d 08c7 90be 131d 1a3d
000000c0: a6e2 80bc a9de 1b3e a6d6 03be f0ab e7be
000000d0: 26db 653e dcf6 e33d 97e6 283e b2b7 ffbc
000000e0: 49ca 5c3e deb2 e0bc f9d9 ab3d 2d6c 3f3c
000000f0: e158 953d df65 e7be 2f0e eb3d 825a 60be
00000100: e71c c3bd 17fd 73be f873 4bbe 525a 0f3e
00000110: 2725 7a3e be69 e53c bf3c 90be df2d ecbd
00000120: dd2e 953e 9361 9dbd d041 98be 7c57 21be
00000130: 72ca 333e 6bc0 4ebd 971a 5ebd 2d9f e63d
00000140: 8741 483e 00b7 633e 3526 42be da43 a93c
00000150: 949b d5be 38be 133e 91ca 9d3e 69a7 e9bd
00000160: 4372 8bbc 6121 eb3d 122b 243d 6f9c 95be
00000170: 73e1 ab3e 046e 8e3e 25e0 11be 2b87 383e
00000180: 8511 b1be 0b53 c43d c0c5 983e ca60 af3e
00000190: f7a0 1fbf ee9f 153f d55f 033f 3c19 3d3e
000001a0: 42bf 08be 897e 833e c0d4 89be a246 d13d
000001b0: 72a6 b73d faa8 ce3d c49f cdbe 8832 90be
000001c0: 1926 6dbe ac53 ac3e 9769 5cbe 8227 efbc
000001d0: 70b1 70be 206f 623e ca78 843e d661 56be
000001e0: 6f3e d53e a5b9 fcbe 97b1 41be 631f a1be
000001f0: 4410 483e e633 72be 6c1c 683e efa7 b43e
00000200: bbf6 a73d 0b70 8fbe 53f2 3c3e fa0f 95be
00000210: 4374 8ebd 93db 0d3e 659b 0f3e c8e6 403e
00000220: eee6 98be 477f abbc b842 d1bd 6bf7 96bd
00000230: 70f9 37bd 4b2b b13d 0d7f 823d d3bf 1f3e
00000240: 3848 d93e b26a b13d 30cf 41be 31a5 ef3d
00000250: de05 b8be aea1 083d 8352 ca3d ab43 993d
00000260: 071d 03be c831 bf3e c9d4 3b3e a23f 993e
00000270: 8b75 b53c 66a1 c73e c6bc 9ebd e28c c1bc
00000280: 9524 49bc ac8a 16be da0e 613e 987d 9dbe
00000290: 77c1 e5bd a79d 413d 9122 91be 3479 c6bd
000002a0: 502a 52be 419a c7bd 9cab e0bd 2097 debd
000002b0: 7068 0abe eec7 e0be e111 f63d 1414 a1be
000002c0: c1bf 28be 6e8f 70bb 54fb fdbd 94e8 87be
000002d0: df80 213e 1044 23be 2cac 9dbe ebca 23be
000002e0: 59a8 423c 2b1a 063e 42a2 bdbd 85de 75be
000002f0: f8c3 a93e 0ceb cf3a 3e48 033f b94d 20bc
00000300: 28db 47be 81d2 e03d d483 193d f47e 713e
00000310: 5971 19bc f697 633e f841 ab3d a491 03bd
00000320: 1cd5 96be 6e4e e63e 6138 c33d b238 4e3d
00000330: 4d09 e33e 7801 9f3e 96f0 17be 38e3 cc3b
00000340: 4fd9 cebe a139 0f3f b924 0fbe 6d9c 6c3e
00000350: 61ba 603d f80c d7bd dd18 763e b15f 7dbe
00000360: 5cf3 b53e b4c3 a6be 2c9b a53e 20b1 803e
00000370: 9108 e73d d254 86be ee65 7a3e 8de9 ddbe
00000380: 83d8 aabd be5d dcbe fef4 20be 165b 36be
00000390: 1a59 89be 0464 d3bd 9446 b9bd 865e a23d
000003a0: 20cd 133d 8f18 693e 22d6 3ebe 590b a9bb
000003b0: dbe9 43be 7570 88be 7bea 8a3d e294 523e
000003c0: 7686 b03d bca1 2d3d eb67 78be 678e f4be
000003d0: 400b c03c eb3a afbe 5947 8cbe cd4e 6d3c
000003e0: 9d35 023e fe24 17bd 12e4 9a3d 8651 a4be
000003f0: 045f b7be 0676 8cbe 80de 87be 398f 0a3e

onnx::LSTM_120 f4 [1, 80]
0.35175052 0.40587676 0.2122224 -0.2609475 0.1068758 -0.30900827 -0.08271928 0.09317821
-0.35712123 -0.0014618188 0.24530591 0.030289538 0.21485272 0.14936264 0.39335266 -0.09024312
0.045681197 0.027235508 0.07414599 -0.3186944 0.28392777 -0.11260855 -0.042544674 -0.35835493
-0.048062827 -0.054845832 -0.021937516 0.15339161 0.20101792 -0.41618994 -0.21707283 0.4452533
0.25381562 -0.059627246 -0.006351383 -0.0241138 -0.13211249 0.037672512 -0.19815028 -0.13276538
0.16568662 -0.135412 -0.20110455 0.112022534 0.10864957 -0.10963784 0.08702189 -0.06263267
0.095756054 -0.2739823 0.2103582 -0.035789732 0.2383372 -0.32304165 0.06461473 0.28941953
0.30146673 -0.10623176 -0.17720878 -0.13828228 -0.014325044 0.19321214 -0.27230674 -0.0023961356
0.048923146 -0.28737962 0.08722337 -0.00049181894 -0.3633331 -0.1068298 -0.42869824 0.012204637
0.29323864 -0.09048677 0.043439396 0.2472297 -0.18911727 0.28795046 0.1700827 0.2534042
00000000: a518 b43e 14cf cf3e d450 593e e99a 85be
00000010: b3e1 da3d 5536 9ebe ba68 a9bd 38d4 be3d
00000020: 98d8 b6be 809a bfba 7931 7b3e c421 f83c
00000030: 5a02 5c3e 85f2 183e 8565 c93e 63d1 b8bd
00000040: 351c 3b3d 001d df3c dad9 973d ea2b a3be
00000050: fb5e 913e 509f e6bd 5343 2ebd 4c7a b7be
00000060: 87dd 44bd 06a6 60bd 4eb6 b3bc b112 1d3e
00000070: a4d7 4d3e d916 d5be 5748 5ebe 3ef8 e33e
00000080: 1ff4 813e b33b 74bd 431f d0bb 4e8a c5bc
00000090: 7f48 07be 7e4e 1a3d e8e7 4abe a6f3 07be
000000a0: c1a9 293e 71a9 0abe 5aee 4dbe 126c e53d
000000b0: aa83 de3d ce89 e0bd 8838 b23d 8f45 80bd
000000c0: c01b c43d 6847 8cbe 2468 573e 4198 12bd
000000d0: ab0e 743e b765 a5be ba54 843d cc2e 943e
000000e0: d959 9a3e 0990 d9bd 3876 35be df99 0dbe
000000f0: 97b3 6abc 67d9 453e ca6b 8bbe 7c08 1dbb
00000100: a363 483d 6c23 93be 2ba2 b23d 69ed 00ba
00000110: cc06 babe 95c9 dabd 567e dbbe f5f5 473c
00000120: 6023 963e 2151 b9bd 82ed 313d c829 7d3e
00000130: f5a7 41be 3e6e 933e 292a 2e3e 32be 813e
