models/PBCT_model.onnx (onnx, 40199 bytes, 5 tensors)

fc.weight f4 [5, 10]
000000 51 f6 49 be 61 14 c9 3e b4 c8 28 be 46 34 fb 3c
       -0.19722869 0.3927336 -0.16482812 0.030664574
000010 46 f5 87 3d 33 ad ab 3e fa 05 97 be 34 e3 99 3e
       0.06638579 0.33530578 -0.29496747 0.30056155
000020 90 b8 a7 be b2 3c d1 be 9d 52 8b 3c 2d d2 e0 3e
       -0.32757998 -0.4086662 0.017007167 0.4391035
000030 7a 1f 65 3c 8a 53 21 3d ba 0a e6 3e eb c2 7c 3e
       0.013984555 0.03938631 0.4493006 0.2468373
000040 4d 66 00 3a 89 81 bd 3e 8c 21 46 3d d4 bb 3a be
       0.00048980565 0.3701289 0.048371837 -0.18235713
000050 0a 25 21 be 52 e2 24 3f 3e 58 bc bd 63 4b bb be
       -0.15736786 0.6440784 -0.09196518 -0.36580953
000060 3a 5a 54 3c c7 41 4d bc 40 77 5a 3e 65 66 bd 3e
       0.012960965 -0.01252789 0.21334553 0.36992183
000070 34 f9 f9 bd 0d 04 ab be 16 ec ad 3d 6c ae b5 3e
       -0.12205735 -0.33401528 0.084922954 0.35484636
000080 e5 dd 9c bd cb 72 6e 3e 52 e0 be bd 48 f4 51 3d
       -0.076595105 0.23285978 -0.093201295 0.051258355
000090 68 5a aa bd 40 68 5a be 7d 70 59 3e 99 9a c6 3e
       -0.08318025 -0.2132883 0.21234317 0.38789824
0000a0 6e d7 30 bd 1b 74 22 3f 76 24 a1 be ca c3 49 be
       -0.0431742 0.6345841 -0.3147313 -0.19703594
0000b0 6a 18 c4 3e 8a 26 93 3e 37 ae 8a be fe 21 c3 bd
       0.38299876 0.2874034 -0.2708604 -0.09527968
0000c0 63 22 cd be 1c 26 89 3d
       -0.40065297 0.06696722

fc.bias f4 [5]
000000 c5 81 28 3b 52 7e 92 bd e2 9e 5b 3e 85 cc 69 3e
       0.0025712114 -0.07153 0.21447328 0.22831924
000010 83 cf 1c 3e
       0.15313534

onnx::LSTM_118 f4 [1, 40, 5]
000000 47 a0 b4 bc f1 e0 a5 bd ff 3b 80 be 5f 7f 84 be
       -0.022049082 -0.08099545 -0.25045773 -0.25878426
000010 8f 74 2d 3e cd 67 3b 3e 2e cc 55 3e 7e fe 2c 3e
       0.16938995 0.18301316 0.2087867 0.16893956
000020 dd 1c 49 3f e1 e8 22 3f ad c9 87 3e 75 47 8f 3e
       0.78559667 0.63636595 0.26521054 0.27984205
000030 1c b3 67 be 35 8b 10 3e a9 0c 08 3c bb 0e 46 bd
       -0.22626919 0.14115603 0.0083038 -0.04835389
000040 82 6b 4e bd ab f0 1e be c8 8b 86 3e 0d 1a 02 3e
       -0.050395496 -0.15521495 0.2627852 0.1270525
000050 5a b9 df 3e eb ad 9e 3e d1 2f 00 be d0 73 7d 3e
       0.436961 0.30992064 -0.1251824 0.2475121
000060 af cf d5 3d 4b 31 f7 bd 8d d0 5f bd 62 e8 04 3e
       0.10440003 -0.12069949 -0.05464225 0.12979272
000070 2a da b7 bd 79 21 9a 3e a7 e6 a4 3e 5b c9 a0 bd
       -0.08977158 0.30103663 0.32207224 -0.078509055
000080 0d 15 62 3e fd c0 bf be 14 12 5f 3d 4e 38 74 3e
       0.22078343 -0.37451926 0.0544606 0.23849604
000090 eb 1b 82 3e 42 1d 01 be 7c 50 50 3e c5 18 dd 3e
       0.25411925 -0.12608817 0.20343202 0.4318296
0000a0 a1 88 a5 3e 02 4e 2a bc 75 10 e2 3d d0 ec 06 bf
       0.32330802 -0.010394575 0.11038295 -0.527051
0000b0 85 8a 15 bd de ed 92 3c 37 04 88 3e 79 bb 03 3f
       -0.036509056 0.01793569 0.26565716 0.51457936
0000c0 61 92 fd bb ff ce 24 3f a0 40 3e be bc b1 59 bc
       -0.007738397 0.6437835 -0.1857934 -0.013287004
0000d0 83 0c 83 3e 74 e2 ad be 52 65 32 be 10 af 2b 3f
       0.25595483 -0.33961833 -0.17421463 0.67064
0000e0 c5 96 da 3e c7 f6 35 3e fc 0b e2 3e c7 18 50 3f
       0.42693153 0.1776992 0.44149768 0.8128781
0000f0 5d e5 80 3e 3a d6 83 be a6 24 8d be 32 13 5b 3e
       0.2517499 -0.2574938 -0.27567023 0.21394041
000100 e0 6f 53 3e 7b 2e 8c be 4a 5c de 3d 15 44 ee be
       0.20648146 -0.27379212 0.108574465 -0.46536317
000110 48 32 1f 3e dc 11 ac be ca 4f c2 3b c1 5a 00 3f
       0.15546525 -0.33607376 0.0059299218 0.5013848
000120 65 67 71 bd f1 60 97 be 9b 92 a9 3e 68 11 e4 3e
       -0.058936495 -0.29566148 0.33119664 0.4454453
000130 fa 09 a6 3d 25 69 15 3e 8e 63 0e be 80 38 fc 3d
       0.08107372 0.1459089 -0.13905165 0.12315464
000140 0e b6 3e bc 83 3f 7c be 6a 47 82 bd 39 a6 a0 be
       -0.011640085 -0.24633603 -0.063612774 -0.31376818
000150 97 42 f8 3d ca d2 96 3e 17 fb 99 3e f2 33 bb 3e
       0.12122076 0.29457694 0.3007438 0.3656307
000160 fe df 9f be e2 17 a4 3e 06 c1 ad 3c f5 95 07 be
       -0.3122558 0.3204947 0.021210205 -0.13240798
000170 4b db d1 3e 58 04 20 be 7a aa cc 3e 23 f1 97 3e
       0.4098762 -0.15626657 0.39973813 0.2967616
000180 42 7e 87 3e b2 e9 bb 3e 0d db d2 bc ed 7d 80 3e
       0.26463515 0.36701733 -0.025739217 0.25096074
000190 14 48 7f be b8 4e 5a 3d dd 29 7c be 54 1d 1d be
       -0.2492984 0.05329773 -0.24625345 -0.15343219
0001a0 2d e5 49 be fe 9e 25 be 11 55 99 3e 26 28 bd 3e
       -0.1971633 -0.16173932 0.29947713 0.36944693
0001b0 54 d9 7b bd fb 60 14 3e 2b d7 b4 be ae d3 bb be
       -0.061486557 0.1449012 -0.3532041 -0.36684936
0001c0 75 ce 07 3e 62 74 eb be c8 32 17 bd 97 c9 15 3e
       0.13262351 -0.4598723 -0.036913663 0.14627682
0001d0 8e fc 14 3e 86 e8 ba bd 6c a8 e9 3e aa fa c9 be
       0.14549467 -0.091263816 0.45636308 -0.39449054
0001e0 90 86 bd 3d 00 b3 df bd 4a e1 52 3e 5e d2 3d 3e
       0.092541814 -0.109228134 0.20593753 0.1853728
0001f0 00 0b 04 be d9 10 8c 3c 12 47 77 3e d4 f4 99 bd
       -0.12894821 0.017097877 0.24148205 -0.075174004
000200 c0 86 f2 3d 63 9f 33 bc 92 95 a6 be 65 7e 7e be
       0.11842108 -0.010963294 -0.32535988 -0.24852903
000210 ef 8e e8 bc c6 88 f9 bd 68 8f 8d be c0 9e 0b 3e
       -0.028388469 -0.121842906 -0.27648473 0.13634777
000220 c4 70 db 3d 40 36 af 3e 1a c9 d8 bd 6a 70 d5 3e
       0.10714868 0.34221077 -0.10585232 0.41687328
000230 53 1a 20 3d ec c3 14 be d3 58 a6 3e 8d f4 0e bf
       0.039087605 -0.14527863 0.32489643 -0.55841905
000240 b0 1e cb 3e 48 af 18 3e 3e e0 c5 3e f4 ae 1e bd
       0.3967185 0.14910614 0.38647646 -0.038741067
000250 92 6d 08 bf f2 2b ad 3e bd bb d7 be 37 6b 62 be
       -0.5329219 0.3382259 -0.4213542 -0.22111212
000260 a8 f6 c5 bd d9 61 82 be 64 cd 29 3e a1 a2 76 3e
       -0.096661866 -0.25465277 0.16582257 0.24085476
000270 69 74 a1 3e 03 fa 90 3e 42 3b 77 3e d5 e5 21 3f
       0.31534126 0.28315744 0.24143699 0.6324132
000280 4e 37 64 bd 80 cf 02 3e 90 d7 82 be 9d 28 02 be
       -0.055716805 0.12774467 -0.25555086 -0.12710805
000290 20 51 b4 be 30 c5 a3 bd 7a 83 17 be 5b 5c cc 3c
       -0.35218143 -0.07996595 -0.14796248 0.024946382
0002a0 1d 44 eb 3e 57 17 42 bd dd 58 9d 3e 91 cf cb 3e
       0.45950404 -0.04738554 0.3073186 0.39806798
0002b0 26 e0 ae 3e e4 5c 20 be 73 d7 2e 3e 27 cc d2 3e
       0.34155387 -0.15660435 0.17074375 0.4117138
0002c0 2e af a4 3e 42 5e fe 3c 7b c2 d3 3d ee fe ba 3c
       0.32164901 0.031050805 0.103398286 0.022826638
0002d0 16 ba f5 bc 38 9b 84 be e5 75 7e bd 0b b9 33 be
       -0.02999596 -0.25899673 -0.06212415 -0.17551057
0002e0 7e 00 ac bd 19 17 81 3d 02 20 ab 3e 5d ef da 3e
       -0.083985314 0.06303234 0.33422858 0.42760745
0002f0 27 bb 72 3b 15 ae 08 bd 30 3a 1b be 8c 4f 08 be
       0.003703782 -0.033369143 -0.15158916 -0.13311595
000300 64 e2 80 bd 56 60 2c 3f f3 f5 f8 be e9 9a 53 bd
       -0.062931806 0.67334497 -0.48625144 -0.051661406
000310 ac e2 9b be 50 28 42 be 1b 1c 86 3e 88 60 25 bf
       -0.30446374 -0.1896069 0.26193318 -0.6460042

onnx::LSTM_119 f4 [1, 40, 10]
000000 24 88 75 3e 57 82 64 be c1 3d cf 3d bf 2c 99 3e
       0.23977715 -0.22315346 0.101192005 0.2991695
000010 e7 d2 d6 be f7 d6 a9 bc 43 90 80 3e b4 f5 a5 be
       -0.4195778 -0.020732386 0.25110063 -0.3241402
000020 38 a6 c6 3e be 07 7e 3e 47 97 03 bc b0 7d 75 3e
       0.3879869 0.24807641 -0.008031673 0.23973727
000030 8f 86 89 bd 1a b1 80 3f 43 cc 24 3f 3c 19 62 3e
       -0.06715118 1.0054047 0.6437418 0.22079939
000040 ba 28 05 be 7c eb 24 3f 0d 86 ea be 32 a4 f5 be
       -0.13003817 0.6442182 -0.45805398 -0.47976834
000050 d0 b8 02 3e 2b 5b 08 3e 6d 13 68 be 61 b7 9f 3c
       0.12765813 0.13316028 -0.2266366 0.019496622
000060 7b 77 4c 3e 8c fe 53 3e 68 1c 91 3e b1 cf 64 be
       0.19967453 0.2070257 0.28341985 -0.22344853
000070 ef f1 36 3e 2d ae 47 be 10 bd 4e bc fa fc 1f 3e
       0.17865728 -0.19500037 -0.012618318 0.15623847
000080 fb 7d a8 be 55 0b 5f 3e 25 72 a0 3e d6 7c 05 be
       -0.32908615 0.21781667 0.31337085 -0.13035902
000090 70 e9 9e bc 59 63 19 be b1 43 85 bd e2 e5 df bd
       -0.019398421 -0.14979304 -0.06507052 -0.109325185
0000a0 13 7e 8f 3e 26 32 94 be 68 04 22 be 0c e2 3d be
       0.28025874 -0.2894451 -0.15821993 -0.18543261
0000b0 39 ff f8 3d 0d 1f 40 be d3 76 91 be 55 02 a3 ba
       0.12158055 -0.18761845 -0.28410968 -0.0012436608
0000c0 c9 12 82 be a1 86 b6 be 5e c3 ac 3e 41 7b 37 3e
       -0.25404957 -0.3564959 0.33742803 0.17918111
0000d0 7f 25 9f be 19 6f b7 be ee 63 15 be 68 3c 28 3e
       -0.31083295 -0.35826948 -0.14588901 0.16429293
0000e0 e9 63 68 bd 14 f9 5d be 4f bc 00 bd 05 d0 26 3d
       -0.056735907 -0.21677047 -0.031429585 0.040725727
0000f0 b4 0b 54 3e bc 62 bd 3e 94 09 17 3c f7 bb c7 be
       0.2070759 0.3698939 0.009218592 -0.39010593
000100 c7 8e cc be 1d 51 9a 3d c3 ff 2b 3e eb 2d 53 bd
       -0.3995268 0.075350024 0.16796784 -0.051557463
000110 c1 87 cc 3e 0a 9d a6 3e 11 b8 3c 3e 33 3d 8c be
       0.39947322 0.32541686 0.18429591 -0.2739044
000120 af e7 82 3d e1 3b 96 be 98 5d 10 bd e5 20 e6 bd
       0.063918464 -0.2934256 -0.035245508 -0.11236743
000130 f6 9b 88 be 8d 92 96 be 0f ba 32 bc cd 1b 7d be
       -0.2668149 -0.29408684 -0.010908618 -0.24717636
000140 1a 2c 88 3e 73 0d e8 bd 0c 04 1d 3e f0 43 a3 be
       0.26596147 -0.1133069 0.15333575 -0.3188777
000150 a5 7b 95 be d7 76 9d be f4 7f 03 be e7 0f 16 3e
       -0.29195896 -0.3075473 -0.12841779 0.14654504
000160 9a 10 bd 3e fc fa 44 3d 54 40 2e be 7e df cc 3e
       0.36926728 0.04809092 -0.17016727 0.4001426
000170 0e 84 8e 3e 60 82 28 3e 4f b4 35 be 60 62 2e 3b
       0.27835125 0.16455984 -0.17744564 0.002660893
000180 bc 42 86 be ae 6a 9a 3e 21 b5 8f bd 39 b1 dc bd
       -0.2622279 0.30159515 -0.070169695 -0.1077599
000190 cd 2e 48 3d 40 23 32 be c4 d9 06 bd 7f 8e eb 3d
       0.048872758 -0.1739626 -0.03292252 0.11501788
0001a0 8c 1b 0c 3e 05 79 af bd 36 14 10 3e e4 c7 7a be
       0.13682383 -0.085680045 0.1407021 -0.24490315
0001b0 10 ff 8a bc b5 fc 3f 3e c9 49 1f bf 9b a2 c0 3e
       -0.016967326 0.18748744 -0.6222196 0.37624058
0001c0 79 14 6c be b6 e8 6a 3f 8c f2 f1 3e e0 23 b5 3c
       -0.23054685 0.9176134 0.4725536 0.022111833
0001d0 ca 1e f8 3d 98 5c 93 3e 2f 2a 76 be 78 d5 d3 be
       0.121152475 0.2878158 -0.2403953 -0.413738
0001e0 0c 5f 26 be 43 f7 1e be ec ec 93 3e 05 b3 16 3e
       -0.16247195 -0.1552401 0.28891695 0.14716728
0001f0 1b 06 a1 be 68 2c 0e 3e d9 46 ca 3e 28 60 a2 be
       -0.3144997 0.13884127 0.39507177 -0.31713986
000200 72 18 5c 3e 75 f7 bc 3e 78 3d 4d 3e 5f 0a ef 3e
       0.214937 0.36907545 0.2004298 0.466876
000210 c8 15 a5 3c 4a 77 cf 3e 36 c2 89 3e 5e 7a ec bd
       0.020151988 0.40520698 0.26905984 -0.11546777
000220 0c 83 c0 bd f6 76 a9 be b8 f5 51 3e 92 6a b5 be
       -0.09399995 -0.33098572 0.2050389 -0.3543287
000230 72 20 eb 3d cb a2 ae bd 58 3a 28 be 2d 7c 04 be
       0.11480798 -0.08527144 -0.16428506 -0.12937994
000240 9c d6 16 3d 47 7c c1 3e 8f ff 80 be af 74 a2 bd
       0.03682576 0.3779013 -0.25194976 -0.07932412
000250 33 c2 cf bc 98 b0 c4 be f9 6d 93 3d e6 1a 88 3d
       -0.025361156 -0.3841598 0.0719871 0.066457555
000260 a5 61 02 bd 93 3d 0c bf c6 57 5c 3d 76 c7 3e 3e
       -0.031831402 -0.54781455 0.053794645 0.18630776
000270 de 73 c2 be 1c ba ae 3e 31 a9 e8 3b 78 9b 9d 3d
       -0.37979025 0.34126365 0.0071002473 0.07695669
000280 62 fc 23 3d 07 0a 78 3e a1 d1 a1 3d 72 d3 bc be
       0.040035613 0.24222575 0.07901312 -0.3688007
000290 dc 8e 4f 3e c3 bd 4b be 74 22 bc 3e fc cb f4 bc
       0.2026934 -0.19896607 0.36745036 -0.029882424
0002a0 26 34 bb 3d 51 20 0a 3e 5b 52 25 3e 62 59 98 3e
       0.09140806 0.1348889 0.16144697 0.29755694
0002b0 a4 43 a4 be 6e 61 61 be 56 2e 2f be ad 86 ab bd
       -0.32082856 -0.22009823 -0.1710752 -0.08375297
0002c0 66 96 36 ba 09 95 13 3e f2 3a df be 98 ea ad be
       -0.000696516 0.14412321 -0.4359966 -0.33968043
0002d0 ba fb 8d 3e 8f e8 8f bd 85 d5 74 3e ed 56 b3 be
       0.27731115 -0.07026779 0.23909576 -0.35027257
0002e0 ff c2 9f be 51 96 08 3d 7c dc 31 be 66 0d 75 be
       -0.31203458 0.033346478 -0.17369264 -0.23930892
0002f0 64 3d b0 3e 74 29 33 3b 47 a5 df 3d 98 9b f2 3e
       0.34421837 0.002733794 0.10920196 0.47384334
000300 3c c3 9a 3d 46 48 1a 3e 9f 40 b8 3e ab c3 33 3d
       0.07556769 0.15066633 0.35986802 0.043887775
000310 a3 41 55 3e 80 c1 93 3e 5e c0 3a 3e b5 91 6a be
       0.2082582 0.28858566 0.18237445 -0.22907145
000320 05 64 06 3e 0b 8d 7e be 2c 08 9a be 32 af 20 3e
       0.13124092 -0.24858491 -0.3008436 0.15691832
000330 37 ed 0e be 48 cd 8f be bb 0e 83 3e f7 3d f7 bb
       -0.13957678 -0.28086305 0.25597176 -0.0075452286
000340 4e b6 ec 3e dd 85 db 3e 1e bc 1c 3d 63 7e 7c be
       0.46232837 0.42875567 0.03826534 -0.24657588
000350 16 08 c0 bd ab b8 85 be e0 da d7 3c 22 ec 37 be
       -0.09376542 -0.26117453 0.026349485 -0.17961171
000360 26 2e e6 bc 7e 18 c0 be 89 05 c1 3e ac 16 52 3e
       -0.028098177 -0.37518686 0.37699535 0.20516461
000370 0c a6 7d be b8 63 3c be a1 9b 67 3e 62 3a 25 be
       -0.24770373 -0.18397415 0.22617961 -0.16135553
000380 54 0f bd bd 84 60 90 be 77 6d d2 3e 4e 73 5d be
       -0.09231439 -0.28198636 0.4109914 -0.21626016
000390 35 00 46 bd ac 4a 73 3e 82 df 5e 3e 59 3a 12 be
       -0.04834004 0.23758954 0.21764949 -0.1428007
0003a0 8a 9e 9e be a6 70 cb 3e 0a a6 7a be 1e ce ca 3d
       -0.3098033 0.3973438 -0.24477401 0.09902595
0003b0 28 a8 03 be 6d d5 aa bd da 9b ff bd 46 22 4b 3d
       -0.12857115 -0.08341489 -0.12480898 0.049593233
0003c0 9f 35 4d be 96 c4 89 bd e7 f8 06 be de b2 20 3d
       -0.20039986 -0.06726949 -0.13180886 0.03923308
0003d0 d6 a2 82 be ab cf cc bd 1c a2 7f be 01 99 31 3e
       -0.2551486 -0.10000547 -0.24964184 0.17343523
0003e0 a1 82 56 3d 62 f6 19 be 92 69 a5 bd f2 0f b1 3e
       0.05237067 -0.15035394 -0.080767766 0.34582478
0003f0 29 f6 0a 3e e9 98 14 bf 88 8f 12 3e 45 e8 39 3c
       0.13570465 -0.5804582 0.14312565 0.011346881

onnx::LSTM_120 f4 [1, 80]
000000 83 86 f2 bd ec 91 99 3e f8 34 2e 3e ff 75 46 be
       -0.11842062 0.29994142 0.17012393 -0.1938095
000010 a6 41 40 3e 78 e0 31 3e a3 25 77 be 84 5a 32 bc
       0.18775043 0.17370784 -0.24135451 -0.010885838
000020 96 ef 42 3e f3 04 e8 bd ef 5a 53 be 72 c9 35 3f
       0.19036707 -0.11329069 -0.20640157 0.71010506
000030 5d 2c 83 be 3d 40 35 3e 4e e5 cf 3e 30 40 40 be
       -0.25619784 0.17700286 0.40604633 -0.18774486
000040 0c ef 49 be c1 01 25 be 40 f1 24 be d6 f2 e8 bd
       -0.19720095 -0.1611395 -0.16107655 -0.11374442
000050 ca fb 27 3e 7e e4 88 be 36 ba e7 be 1a 2c 8c bd
       0.16404644 -0.26736826 -0.45259255 -0.06844349
000060 a4 48 3c 3e e3 d2 ca 3d 25 3e 45 3d d0 59 a4 3e
       0.18387085 0.09903505 0.04815497 0.32099771
000070 79 58 73 3d 6a d8 f9 3d 07 ce 0e 3e 85 b1 9b be
       0.059410546 0.12199481 0.1394578 -0.30408874
000080 e8 0c 87 bd 0d 2e f4 3c cb 53 99 3d 1a 40 6e 3e
       -0.065942585 0.029807115 0.07486685 0.2326664
000090 55 90 6d bd c0 54 99 3e e9 56 1b be 31 a4 e1 bd
       -0.057998974 0.29947472 -0.15169872 -0.11017645
0000a0 0b ae c9 be 02 f9 f3 3e f5 7f 03 3e da f7 55 3d
       -0.39390597 0.47650915 0.1284178 0.052238323
0000b0 f2 6b af 3e 4b 51 b1 3e a1 f9 87 be df e7 64 3e
       0.34262043 0.34632334 -0.2655764 0.22354077
0000c0 80 6b c8 bc de 42 c4 3c f5 90 f0 bd ed 21 67 3e
       -0.024465322 0.023957666 -0.11746398 0.22571535
0000d0 10 09 85 be ed a9 b6 bd c5 3b f3 3d b9 fa 46 3d
       -0.25983477 -0.089191295 0.118766345 0.04857895
0000e0 45 5b b8 be 2d 66 8a 3c 51 9f 13 bb d3 3e b5 3d
       -0.36007133 0.016894424 -0.002252538 0.088498734
0000f0 91 67 f0 3c 63 e5 1b 3e 81 55 b7 be ee 7b 88 3e
       0.02934626 0.15224223 -0.35807422 0.2665705
000100 2f 7c 5a 3e af 4d 92 3e 71 3d 33 be 69 a1 48 3e
       0.21336435 0.28574893 -0.17503907 0.19592823
000110 70 27 aa be fc 14 ca b9 41 14 4b 3d c8 30 65 3d
       -0.33233213 -0.00038544077 0.049579863 0.055954725
000120 74 85 ff 3d 12 88 0a 3f 1d ce 7b 3e a6 ce 6c 3c
       0.12476626 0.54113877 0.24590345 0.014453566
000130 e1 b7 4e 3c 7d 9c ce bd 64 d1 c3 3c 78 68 21 be
       0.012617082 -0.100884415 0.023903556 -0.15762508
