models/PNR_model.onnx (onnx, 40199 bytes, 5 tensors)

fc.weight f4 [5, 10]
0	0xbf01bc78	-0.50678205
1	0xbcc48db2	-0.023993347
2	0x3e8de9cb	0.27717432
3	0xbe301617	-0.17195927
4	0x3e3faab0	0.18717456
5	0xbec7c95a	-0.39020807
6	0x3e5e535e	0.2171149
7	0x3eaee0f6	0.34156007
8	0xbe4d6427	-0.20057736
9	0x3e1e29e2	0.15445665
10	0xbeeb3d43	-0.45945176
11	0xbda01647	-0.07816749
12	0x3e9046a5	0.28178898
13	0x3de9486f	0.11390769
14	0x3e8c2135	0.27369085
15	0xbee8442e	-0.45364517
16	0xbd734622	-0.059393056
17	0x3eb7811d	0.35840693
18	0xbeb50b92	-0.3536039
19	0x3e8672bd	0.26259413
20	0xbf2de64d	-0.67929536
21	0x3eae5fb8	0.34057403
22	0xbe063db9	-0.13109483
23	0x3df2cee9	0.11855871
24	0xbdc7fca5	-0.09764985
25	0xbd8b0873	-0.06788721
26	0x3e9b74a8	0.3036244
27	0x3e533967	0.20627366
28	0xbdf7eebd	-0.121060826
29	0x3efeddc4	0.4977857
30	0x3f20381c	0.62585616
31	0x3ead0ed9	0.3380039
32	0x3e4295b8	0.19002426
33	0x3ee270d7	0.44226715
34	0x3b8e2961	0.004338429
35	0xbd73807f	-0.059448715
36	0x3e905cdf	0.28195855
37	0x3ea3176c	0.31853807
38	0xbe0bcd8a	-0.13652626
39	0x3d32399b	0.043511968
40	0xbeb39204	-0.3507234
41	0xbe8331ee	-0.2562403
42	0x3e3cbec9	0.18432154
43	0xbdd1196a	-0.102099255
44	0xbe1c45b8	-0.1526097
45	0x3d520815	0.05127724
46	0x3eaee5ec	0.3415979
47	0x3e990cb0	0.29892492
48	0xbdbfb71d	-0.09361098
49	0x3ec386c8	0.38188767

fc.bias f4 [5]
0	0x3e4d5280	0.20051003
1	0x3e684c1f	0.22685288
2	0x3e82d587	0.25553533
3	0xbe02bf82	-0.12768367
4	0xbcbfb021	-0.023399414

onnx::LSTM_118 f4 [1, 40, 5]
0	0x3e6cb14d	0.2311451
1	0x3d353317	0.044238176
2	0x3e9b0512	0.30277306
3	0xbd99ccbf	-0.07509755
4	0x3eb36bce	0.35043186
5	0x3e8b15f9	0.271652
6	0x3e8abad2	0.27095658
7	0xbd600d66	-0.054700278
8	0xbebd651b	-0.369912
9	0x3e8120b4	0.25220263
10	0x3ed37745	0.41301933
11	0x3e656c0d	0.224045
12	0x3d5a114b	0.053239148
13	0xbd2cf15a	-0.04222236
14	0xbd0f3a93	-0.03496797
15	0xbea6ede5	-0.32603374
16	0xbe9de6aa	-0.30840045
17	0x3d193b84	0.037410274
18	0xbe9afce9	-0.3027108
19	0x3e159518	0.14607656
20	0xbe2b4560	-0.16725683
21	0xbe4e758e	-0.20162031
22	0xbe8da442	-0.2766438
23	0xbe7e967f	-0.24862097
24	0xbe123de2	-0.14281419
25	0xbee3231e	-0.4436273
26	0xbe6456dc	-0.22298759
27	0xbeae361a	-0.3402565
28	0xbe28e489	-0.16493429
29	0xbeafa81d	-0.34307948
30	0x3ee85182	0.45374686
31	0x3e239a5a	0.15976849
32	0xbd1ce718	-0.038306326
33	0x3ebdb1b9	0.37049654
34	0x3e16ad2c	0.14714497
35	0x3eef6b91	0.46761754
36	0x3decd136	0.11563341
37	0x3ef56ab7	0.4793298
38	0x3dc99679	0.098431535
39	0x3eaca9bd	0.3372325
40	0x3d8b5014	0.06802383
41	0x3eed25b7	0.46317837
42	0x3eb924be	0.36160845
43	0xbd840141	-0.06445552
44	0xbcfe8a9f	-0.031071959
45	0x3ed812cd	0.42201844
46	0xbd97e37b	-0.07416435
47	0xbdbd2546	-0.09235625
48	0xbdaa2e34	-0.08309594
49	0x3ec5ef43	0.38659105
50	0xbc514e84	-0.012775067
51	0x3e6d923e	0.23200318
52	0x3e6e7ead	0.2329051
53	0x3a6d4619	0.0009051278
54	0xbe2ecc5e	-0.17070147
55	0x3d0abc7e	0.033871166
56	0x3e902b2f	0.28157946
57	0xbde8e419	-0.11371631
58	0xbf62dee9	-0.88621384
59	0x3d03031c	0.031985387
60	0xbdcd01bd	-0.10010097
61	0x3ecbd49a	0.3981064
62	0x3d0e6caf	0.034771618
63	0x3eb47933	0.35248718
64	0xbd54d888	-0.051964313
65	0xbe329944	-0.17441279
66	0xbe03b893	-0.12863378
67	0x3cc81479	0.024423825
68	0xbe883dc4	-0.26609623
69	0xbedbab95	-0.42904344
70	0x3e1b1a65	0.15146787
71	0xbe6c0040	-0.2304697
72	0xbe6b0d19	-0.22954215
73	0xbdd709f6	-0.10499947
74	0xbed7f2c7	-0.42177412
75	0xbe61f232	-0.22065046
76	0xbda5e36e	-0.081000194
77	0xbef29d89	-0.47385815
78	0xbe49e0d2	-0.19714668
79	0xbe5daeef	-0.21648763
80	0x3e9cbd6a	0.3061326
81	0x3ec42100	0.38306427
82	0x3dc73f7a	0.09728904
83	0x3ecc6956	0.39924115
84	0x3e7e3efa	0.24828711
85	0x3e09e80a	0.13467422
86	0x3d8dfaf6	0.069326326
87	0x3ed912c7	0.42397138
88	0x3eb218bc	0.34784496
89	0x3ed0e793	0.40801677
90	0x3dbf2253	0.09332719
91	0x3ef2654b	0.47342905
92	0x3ef0c240	0.470232
93	0x3eb8a687	0.3606455
94	0x3ef7034b	0.482447
95	0x3dcb98f1	0.09941281
96	0x3f09aa2d	0.5377529
97	0x3ee6f599	0.4510925
98	0x3e0d7a57	0.138162
99	0x3cd742c5	0.026276955
100	0xbe408348	-0.1880008
101	0xbd246974	-0.04013963
102	0xbe8cc923	-0.27497205
103	0xbc1e00cb	-0.009643744
104	0xbf044f97	-0.51683944
105	0xbd7fd1c8	-0.062455922
106	0x3d488e08	0.048963577
107	0xbe4f4aa2	-0.20243314
108	0xbe99d759	-0.3004711
109	0xbe61564c	-0.22005576
110	0x3e57f22a	0.21088472
111	0x3eab5dcf	0.33470008
112	0x3d95e30f	0.073186986
113	0x3ddb3c57	0.10704868
114	0x3e90efe4	0.28308022
115	0xbe5aab57	-0.21354423
116	0xbeaa026c	-0.33204973
117	0xbe98b590	-0.2982602
118	0xbe9a68c3	-0.30158052
119	0x3e3c39d7	0.18381439
120	0xbeb94202	-0.36183172
121	0x3ce32c8e	0.027731206
122	0xbea87497	-0.3290145
123	0xbe3338ce	-0.17502138
124	0x3e104236	0.14087757
125	0xbcd67457	-0.026178522
126	0xbed66c34	-0.41879427
127	0xbda5fd03	-0.08104899
128	0x3e3ac398	0.18238676
129	0xbe9cb897	-0.3060958
130	0x3d39be51	0.045347515
131	0x3e9c3b2f	0.30513903
132	0x3d512d47	0.05106857
133	0x3ea6dda4	0.32590973
134	0x3e25fd12	0.1620982
135	0x3ee18bca	0.44051963
136	0xbd9b070c	-0.075697035
137	0x3dd51267	0.104039006
138	0x3e0ded83	0.13860135
139	0x3e0f65ed	0.14003725
140	0xbd9b8fd7	-0.07595795
141	0x3f0a9248	0.5412946
142	0x3e617f1b	0.22021143
143	0x3e9b5039	0.30334643
144	0x3dca5ad2	0.09880604
145	0x3e8cbe94	0.2748915
146	0x3e37dfe4	0.17956501
147	0x3e22750e	0.15864965
148	0x3e490b1e	0.19633147
149	0x3dbf62e5	0.093450345
150	0xbe02d036	-0.12774739
151	0xbec44a19	-0.38337782
152	0xbe9ba2e2	-0.30397707
153	0x3eb54e41	0.35411265
154	0xbf689f14	-0.90867734
155	0xbe87e632	-0.26542813
156	0xbd9c44fb	-0.076303445
157	0xbda773e4	-0.08176401
158	0x3e712d4c	0.23552436
159	0xbe111909	-0.14169706
160	0xbcda3684	-0.026637323
161	0x3e07383a	0.13205042
162	0x3e6e73e1	0.23286392
163	0x3d4605c1	0.04834533
164	0x3e84b188	0.25916696
165	0xbe147b6c	-0.14500207
166	0xbd69bb99	-0.057063673
167	0xbe7da487	-0.24769793
168	0x3e63a381	0.2223034
169	0xbe583589	-0.21114172
170	0xbe816ddf	-0.25279137
171	0x3dd3a071	0.10333336
172	0x3cc3affa	0.023887623
173	0x3e7816c8	0.2422744
174	0x3de6f546	0.11277251
175	0xbd9e8433	-0.07740059
176	0x3e2bce93	0.1677802
177	0xbcdc9d4d	-0.026930476
178	0x3e774e21	0.24150898
179	0x3eb87985	0.36030212
180	0x3e9e1980	0.3087883
181	0x3ebe0451	0.37112668
182	0xbd20bf4a	-0.039244927
183	0x3e92e660	0.28691387
184	0xbc3d2898	-0.011545323
185	0x3e5bd486	0.2146779
186	0x3ed1c7b9	0.4097269
187	0x3e504222	0.20337728
188	0x3f01812b	0.5058772
189	0xbdb3644c	-0.087593645
190	0xbe65e6c6	-0.22451314
191	0x3cfa3beb	0.03054615
192	0x3cf68a3a	0.030095208
193	0xbc8c48d2	-0.017124567
194	0xbdd5c458	-0.1043784
195	0x3e78f20b	0.24311082
196	0x3d75cfe6	0.06001272
197	0x3eaf8b7d	0.3428611
198	0x3d33120d	0.043718386
199	0x3ec6d13a	0.38831502

onnx::LSTM_119 f4 [1, 40, 10]
0	0x3f3ab79f	0.72936434
1	0xbf12d4ea	-0.5735613
2	0x3eb0bdd5	0.3451983
3	0x3dd58e93	0.104275845
4	0xbf1b60bf	-0.606945
5	0x3f6819ce	0.90664375
6	0x3f27eaf8	0.6559291
7	0x3f126c40	0.57196426
8	0xbeb83175	-0.35975233
9	0x3e9533ae	0.2914099
10	0xbe3d6510	-0.18495584
11	0x3e1d6f4a	0.15374485
12	0xbd3f102e	-0.04664629
13	0x3b248625	0.002510437
14	0x3e86e22c	0.2634443
15	0x3e59fee8	0.21288645
16	0xbdfe3e09	-0.12414176
17	0xbdbd6025	-0.09246854
18	0xbeb31f04	-0.349846
19	0x3e3019f0	0.17197394
20	0x3e33ec43	0.17570595
21	0xbe3764dc	-0.17909569
22	0x3e6aa8a7	0.22915898
23	0xbe8ac5d1	-0.27104047
24	0x3ddbf563	0.10740163
25	0xbe3d9cca	-0.18516842
26	0x3db8bf2d	0.09020839
27	0x3d59cc2b	0.053173225
28	0x3c957ef1	0.018249007
29	0x3e39f2d4	0.18159038
30	0xbeeb612b	-0.4597257
31	0xbd7c2968	-0.061562926
32	0xbecc0fee	-0.39855903
33	0xbe1f5d89	-0.15563025
34	0x3ce8f238	0.028435811
35	0xbe5771f9	-0.21039571
36	0xbec40936	-0.38288277
37	0x3de70c66	0.11281662
38	0x3e45d5f8	0.19319904
39	0xbe933df1	-0.28758195
40	0xbe0dc156	-0.13843283
41	0x3e1c28bd	0.15249915
42	0x3daf3c65	0.08556441
43	0x3d55c22c	0.05218713
44	0x3d337af1	0.043818418
45	0xbe185475	-0.14875968
46	0xbe27fcfd	-0.16405101
47	0xbc61babf	-0.013777434
48	0x3e831bd5	0.25607172
49	0x3cabf0d8	0.020988867
50	0xbce3ebf4	-0.027822472
51	0x3e7f83d5	0.24952634
52	0x3dab1f45	0.083555736
53	0x3e302a05	0.17203529
54	0xbd07a04f	-0.033111867
55	0x3e9b3f45	0.30321708
56	0x3e393043	0.18084817
57	0xbe8fe744	-0.2810613
58	0x3e734cd4	0.23759776
59	0xbe846384	-0.25857174
60	0x3dcaf40e	0.09909831
61	0x3ebd3bd6	0.36959714
62	0x3e03fb26	0.12888774
63	0x3ed88fcc	0.42297208
64	0xbe59e239	-0.21277703
65	0xbdb731a7	-0.08945017
66	0x3e02b251	0.12763335
67	0x3dd427f8	0.10359186
68	0xbe557abb	-0.20847599
69	0x3ea13aa3	0.3149005
70	0xbe0e6e1a	-0.13909188
71	0x3e5cdcba	0.21568576
72	0x3e8105f4	0.25199854
73	0x3e47d8f4	0.19516355
74	0xbe103511	-0.14082743
75	0xbe87f8d0	-0.26557016
76	0xbe5c1ee6	-0.21496162
77	0x3c8cb2e7	0.017175151
78	0xbe024514	-0.12721664
79	0xbe932642	-0.28740126
80	0x3df59f31	0.11993254
81	0xbc94e48a	-0.018175382
82	0x3d832d2c	0.064051
83	0x3d44555e	0.047932975
84	0xbe2dab34	-0.1695984
85	0xbece16e7	-0.40251848
86	0x3df86081	0.12127782
87	0x3e5d6a17	0.21622501
88	0xbd7d0694	-0.06177385
89	0xbe7ea74a	-0.24868503
90	0xbd4546e9	-0.04816333
91	0xbe30c7b4	-0.1726368
92	0x3e9636dc	0.2933873
93	0x3ed9edf8	0.42564368
94	0xbc75b66d	-0.014997107
95	0x3d8e184c	0.06938228
96	0xbe68e1ea	-0.2274243
97	0xbe247a32	-0.16062239
98	0xbea37108	-0.31922174
99	0xbe6a0774	-0.22854406
100	0x3f420cbf	0.758007
101	0xbf2ac1a2	-0.6670171
102	0x3e302dcf	0.17204975
103	0x3e99ec8e	0.3006329
104	0xbf13a178	-0.57668257
105	0x3f875ed0	1.057581
106	0x3ebe5cfb	0.37180313
107	0x3f003e09	0.5009466
108	0xbe96562e	-0.29362625
109	0x3e8e0de5	0.27744976
110	0xbf15cf25	-0.585192
111	0xbe7c2269	-0.24622501
112	0x3da59768	0.08085519
113	0x3dbdf7a3	0.092757486
114	0xbe04b527	-0.12959729
115	0x3e320092	0.1738303
116	0x3e60e4f3	0.21962337
117	0x3e2947b4	0.16531259
118	0xbe72c512	-0.23707989
119	0xbbe61341	-0.007021338
120	0xbd0e0d60	-0.034680724
121	0xbe3784db	-0.17921774
122	0xbd406ca1	-0.046978597
123	0xbe81109b	-0.2520798
124	0x3e0a4734	0.13503724
125	0x3dcc8c79	0.099877305
126	0xbe67a9da	-0.22623387
127	0x3d9ef3c4	0.07761338
128	0xbda5a260	-0.08087611
129	0xbe2393c0	-0.15974331
130	0xbedbf611	-0.4296117
131	0xbe85415f	-0.26026437
132	0xbef52c24	-0.4788524
133	0xbc839f89	-0.016067283
134	0xbd9a04e7	-0.07520466
135	0x3e91d146	0.28479975
136	0xbed9adb0	-0.42515326
137	0xbe8ccac5	-0.2749845
138	0x3ec9cca6	0.39413947
139	0xbec1c570	-0.37845945
140	0xbef37aa2	-0.475545
141	0x3eb0db45	0.3454229
142	0xbe6f0a37	-0.2334374
143	0x3c59a8c0	0.013284862
144	0xbceef659	-0.029170202
145	0xbd4739a4	-0.048638955
146	0xbea2e367	-0.3181412
147	0x3e037a3a	0.12839594
148	0x3e88e25e	0.26735204
149	0x3e2d7801	0.16940309
150	0x3d3ddf57	0.04635557
151	0xbe7d3e7f	-0.24730872
152	0x3d975f56	0.07391231
153	0x3eaf35f1	0.34220842
154	0xbe305cc3	-0.17222886
155	0x3c8553ef	0.016275374
156	0xbdaa13e9	-0.08304579
157	0xbebc6f12	-0.3680349
158	0x3dc808e7	0.09767323
159	0xbe1283e2	-0.14308122
160	0xbe9cfd16	-0.3066184
161	0x3da2b934	0.07945481
162	0xbdb49dc9	-0.08819158
163	0xbd8c6c1f	-0.0685656
164	0x3ce10198	0.02746658
165	0xbdafad2b	-0.08577951
166	0x3e4db79e	0.20089576
167	0xbdbb7a15	-0.09154145
168	0xbea0dcb5	-0.31418386
169	0x3e03ada8	0.12859213
170	0xbe263dc5	-0.162345
171	0x3e85588a	0.26044112
172	0x3e0bb40e	0.13642904
173	0xbe36c929	-0.17850174
174	0xbd9da35a	-0.076971725
175	0x3d73bcce	0.05950623
176	0x3ed0cd23	0.40781507
177	0x3e993c56	0.29928845
178	0x3e39acc4	0.18132311
179	0xbe0f935d	-0.14021058
180	0xbe1f90a2	-0.15582517
181	0x3e385a73	0.18003254
182	0xbe646d27	-0.22307263
183	0xbe77b758	-0.24191034
184	0x3d4cb88d	0.04998069
185	0xbe348ab8	-0.17631042
186	0xbe612dfb	-0.21990196
187	0xbe0bf830	-0.13668895
188	0xbdda625e	-0.10663293
189	0xbdde7e25	-0.10863904
190	0x3ea07806	0.3134157
191	0x3df6d418	0.120521724
192	0x3d4ac20d	0.049501467
193	0xbdb15d15	-0.08660332
194	0x3e0dc628	0.13845122
195	0xbf034823	-0.51281947
196	0x3dfd3d9e	0.12365268
197	0x3eef3dd2	0.46726853
198	0xbe7e8fef	-0.24859594
199	0x3d37bf58	0.044860214
200	0xbd92f914	-0.07176414
201	0xbe2cc80c	-0.16873187
202	0x3e40a6a9	0.18813576
203	0x3f23ef2a	0.6403681
204	0x3e0d63bc	0.13807577
205	0x3efd841d	0.49514857
206	0xbe09c79a	-0.13455048
207	0xbd63154b	-0.05544023
208	0xbe86a9ab	-0.2630132
209	0xbd822797	-0.063552074
210	0xbeac91f5	-0.33705106
211	0xbe58f56f	-0.21187375
212	0xbe7835a8	-0.24239218
213	0xbe1c1276	-0.15241417
214	0x3eb6f0f3	0.35730705
215	0xbdbb63db	-0.09149905
216	0xbe111e65	-0.14171751
217	0x3d6ce8c0	0.057839155
218	0x3e709e28	0.23497832
219	0xbcb3ded5	-0.02195684
220	0xbdacf358	-0.08444852
221	0x3ecc626f	0.3991885
222	0xbe96a125	-0.2941982
223	0x3dbdf49a	0.0927517
224	0xbe938baa	-0.28817493
225	0xbef7d37a	-0.4840353
226	0x3d803f38	0.06262058
227	0x3d3daf3c	0.046309695
228	0xbe20aa9c	-0.15690082
229	0x3d240bed	0.040050436
230	0xbde1175e	-0.10990785
231	0x3e09c373	0.13453464
232	0xbdbc4375	-0.09192554
233	0x3e18de10	0.1492846
234	0xbe1ac3a2	-0.1511369
235	0x3e8daa60	0.27669048
236	0xbe8ef549	-0.27921513
237	0xbee40a6e	-0.44539207
238	0x3d553242	0.052049883
239	0x3e0994e8	0.1343571
240	0xbd97792f	-0.07396161
241	0xbe1d6cd5	-0.15373547
242	0xbed4de5c	-0.41575897
243	0xbe575fa9	-0.21032585
244	0x3e26c68d	0.16286679
245	0xbeb45042	-0.35217482
246	0xbe884f91	-0.26623204
247	0x3dab1c5a	0.08355017
248	0xbe544fcc	-0.20733565
249	0xbeae99a4	-0.34101593
250	0xbd9e21f3	-0.07721319
251	0xbb05c497	-0.0020411366
252	0x3ddfbb76	0.10924427
253	0x3e351b69	0.17686237
254	0xbb57453c	-0.0032847663
255	0x3ea92930	0.33039236

onnx::LSTM_120 f4 [1, 80]
0	0x3ec5e637	0.38652202
1	0x3d9daf73	0.0769948
2	0x3cdc1807	0.026866926
3	0xbec8e760	-0.39239025
4	0x3e26510c	0.16241854
5	0x3adb8438	0.0016747778
6	0xbe122315	-0.14271195
7	0x3dca39e7	0.09874325
8	0xbeae2e5a	-0.34019738
9	0xbae241e3	-0.0017262067
10	0x3e5092f7	0.20368563
11	0xbe8629e4	-0.26203835
12	0x3d044b2b	0.03229825
13	0xbe12b6a1	-0.1432748
14	0x3d7db5fd	0.061941136
15	0x3d459707	0.048239734
16	0xbda8c34d	-0.08240376
17	0xbd9ccc24	-0.07656124
18	0xbe01b756	-0.12667593
19	0xbe649eb2	-0.22326162
20	0x3d83fa70	0.064442515
21	0xbe2a24f4	-0.16615659
22	0x3d0115b9	0.031514857
23	0xbedf6f76	-0.43639725
24	0x3d054844	0.03253962
25	0xbebb07ee	-0.36529487
26	0x3dedf853	0.1161963
27	0x3dcc79b5	0.09984151
28	0xbe16333c	-0.14667982
29	0x3e517e61	0.20458366
30	0x3ebade3a	0.3649767
31	0xbdd6bbcd	-0.10485039
32	0x3d5eb2e1	0.05436981
33	0x3dce72bd	0.10080478
34	0xbbe3af19	-0.0069483635
35	0x3ec641ea	0.38722163
36	0x3e92b8cb	0.2865661
37	0xbd9ce282	-0.076603904
38	0xbebc793e	-0.3681125
39	0x3e64328e	0.2228491
40	0x3e530b35	0.20609744
41	0x3e8bb06a	0.2728303
42	0x3d8d56a9	0.06901295
43	0xbcbec73e	-0.023288365
44	0x3d53abbe	0.051677458
45	0xbe8ad538	-0.27115798
46	0x3de94569	0.11390192
47	0xbaae92e0	-0.0013318919
48	0xbe264b92	-0.16239765
49	0x3de5ae29	0.11214859
50	0x3e56ff69	0.20995869
51	0xbe2e548f	-0.17024444
52	0xbdbc5819	-0.09196491
53	0xbda69071	-0.08133019
54	0xbc421298	-0.011845253
55	0x3e5e172c	0.21688527
56	0xbe61505e	-0.22003314
57	0x3dc7cb0d	0.09755526
58	0xbe92d5ef	-0.28678843
59	0x3e267222	0.16254476
60	0xbe708689	-0.23488821
61	0x3e74dfb7	0.23913465
62	0xbe9bab72	-0.3040424
63	0x3d9bd88d	0.07609663
64	0xbe1091dc	-0.14118141
65	0xbe9c6123	-0.3054286
66	0xbe652efe	-0.22381207
67	0xbea92245	-0.33033958
68	0xbd71eba1	-0.059062604
69	0x3d1156e2	0.03548325
70	0xbe49c7f2	-0.1970518
71	0xbe3a91a7	-0.18219624
72	0x3d04621b	0.032320123
73	0x3d336ec8	0.04380682
74	0xbe57d009	-0.21075453
75	0x3ce33860	0.027736843
76	0x3e6a32ec	0.22870988
77	0x3defa7df	0.11701941
78	0xbe76288b	-0.24038903
79	0xbe104b7b	-0.14091294
