models/RHI_model.onnx (onnx, 40199 bytes, 5 tensors)

fc.weight f4 [5, 10]
0	0x3caa8518	0.020815417
1	0x3d9bbb50	0.076040864
2	0x3ede2473	0.43387184
3	0x3dde610b	0.10858353
4	0xbe858d1d	-0.26084223
5	0xbee6c5c0	-0.45072746
6	0xbec15469	-0.37759712
7	0x3e2f07d7	0.17092834
8	0xbd9a6732	-0.07539214
9	0x3c1fcefe	0.009753941
10	0x3e8f6a22	0.2801066
11	0x3df342fc	0.11878011
12	0x3e7b9bb3	0.24571113
13	0x3e980a1b	0.2969521
14	0xbe1c8e77	-0.15288721
15	0xbe77d375	-0.24201758
16	0xbe8957e3	-0.26824865
17	0xbeb1f2f0	-0.3475566
18	0x3e8f9441	0.28042796
19	0x3e3fd9df	0.18735455
20	0xbd7dfc0b	-0.062007945
21	0x3dfa74dd	0.12229321
22	0x3dfe8a73	0.12428751
23	0x3e8e7b03	0.27828225
24	0xbe139449	-0.14412035
25	0xbea2b33e	-0.31777376
26	0xbe4725cc	-0.19448012
27	0x3d0b74c8	0.03404692
28	0x3eb54f4d	0.35412064
29	0x3e62316c	0.22089165
30	0xbee0f831	-0.43939355
31	0xbef4a60b	-0.4778293
32	0x3ed3a188	0.41334176
33	0x3cf931bd	0.030419225
34	0x3d64f6a7	0.05589929
35	0x383b53fa	4.4662484e-05
36	0x3ec2bb72	0.38033634
37	0xbdd007f4	-0.10157767
38	0x3dda280a	0.10652168
39	0xbd957c30	-0.072990775
40	0x3e2b37f4	0.16720563
41	0x3d70b6fb	0.058768254
42	0xbd228693	-0.03967912
43	0x3e8fabc6	0.2806074
44	0xbea92626	-0.33036917
45	0xbea63a48	-0.3246634
46	0xbbb6411c	-0.005561961
47	0xbbb7bee6	-0.0056074737
48	0x3f05d727	0.5228142
49	0x3e78dbb1	0.24302556

fc.bias f4 [5]
0	0x3d7a53bf	0.061115023
1	0x3de5b3f7	0.11215966
2	0x3dc48204	0.09595111
3	0x3db33abe	0.087514386
4	0x3d354886	0.044258617

onnx::LSTM_118 f4 [1, 40, 5]
0	0x3c5ec90a	0.013597736
1	0x3e6ae02d	0.22937079
2	0x3e151536	0.14558873
3	0xbd1ebd7e	-0.038754933
4	0x3e37ec41	0.17961217
5	0x3e4f241c	0.20228618
6	0xbe9ef329	-0.3104489
7	0x3d4b378f	0.04961353
8	0x3ec66971	0.3875232
9	0xbecdc732	-0.40191036
10	0x3f11f4fd	0.5701445
11	0x3d708267	0.05871811
12	0x3dd239fb	0.10264965
13	0x3e6b3865	0.22970732
14	0x3e9bec71	0.30453828
15	0x3e4f20e2	0.20227388
16	0x3ead2f18	0.33824992
17	0x3e7ea12e	0.24866173
18	0x3e9a2c0e	0.30111736
19	0x3e4bf847	0.19918929
20	0x3d29f0f0	0.04148954
21	0x3e3772bf	0.17914866
22	0x3e66e85e	0.22549579
23	0xbd85bdff	-0.065303795
24	0x3d6b5ae0	0.057459712
25	0x3dcca384	0.09992126
26	0xbe0765b9	-0.13222398
27	0x3eaa8cbf	0.33310506
28	0xbe37602f	-0.17907785
29	0x3e76f1f4	0.24115735
30	0x3d54f795	0.051993925
31	0x3eea95c9	0.45817402
32	0x3db656ec	0.08903298
33	0xbf003339	-0.5007816
34	0x3e95ac84	0.2923318
35	0x3e0ae4ab	0.13563792
36	0x3d2e5e7b	0.042570572
37	0x3c86d753	0.016460096
38	0xbedcaa42	-0.43098646
39	0xbbe1a689	-0.0068863076
40	0x3e915743	0.28386888
41	0xbd100701	-0.03516293
42	0x3da2b6d5	0.07945029
43	0x3e3310a2	0.17486814
44	0x3dd2055c	0.102549285
45	0x3e58e302	0.21180347
46	0x3eb34488	0.35013223
47	0x3ed3bc66	0.41354674
48	0xbe1842dd	-0.14869256
49	0x3e6e6348	0.2328006
50	0xbddb1ecc	-0.106992334
51	0x3e4641c1	0.1936102
52	0xbe25513b	-0.16144268
53	0xbea9744f	-0.3309655
54	0x3dbc5ea5	0.091977395
55	0x3df953c8	0.12174183
56	0x3dd16ef8	0.10226244
57	0xbe590841	-0.21194555
58	0x3f27a13d	0.65480405
59	0xbeea5ff8	-0.45776343
60	0x3db59eb5	0.088681616
61	0x3f27eff8	0.6560054
62	0x3ef22025	0.4729015
63	0x3eba396c	0.36371934
64	0x3e1e3258	0.15448892
65	0x3ca994ae	0.020700779
66	0x3c369cb9	0.011145764
67	0x3eb79be7	0.35861132
68	0x3e2413c5	0.16023166
69	0x3e1d6009	0.15368666
70	0x3e9baa56	0.30403394
71	0x3dd8ac0f	0.105796926
72	0x3eb6b910	0.35688066
73	0x3d04ce17	0.032423105
74	0xbda51b1e	-0.08061813
75	0x3edcbca5	0.43112674
76	0xbd061dbc	-0.0327432
77	0x3ebf1309	0.3731921
78	0xbe1ef103	-0.15521626
79	0x3e8e2aa4	0.27766907
80	0x3dea960b	0.114544
81	0x3eba3cc2	0.3637448
82	0x3eb20407	0.34768698
83	0xbeb047d7	-0.3442981
84	0x3f2edc1e	0.6830462
85	0xbd83995b	-0.064257346
86	0xbe812a78	-0.25227714
87	0xbec9b23a	-0.3939379
88	0xbf051113	-0.5197918
89	0xbeb6bd4b	-0.35691294
90	0x3d5e2dca	0.054242887
91	0x3e9b8e18	0.30381846
92	0x3f16a7d1	0.5884982
93	0x3d4b1e43	0.049589407
94	0x3ea271c4	0.3172742
95	0x3e4c6772	0.19961336
96	0x3f19b7e5	0.60046226
97	0x3f14fa79	0.5819469
98	0xbe06adf2	-0.13152292
99	0x3f3aadde	0.7292155
100	0xbea0c2b1	-0.31398538
101	0x3c8c9f20	0.01716572
102	0x3dfaa530	0.12238538
103	0xbec2b4f5	-0.38028684
104	0x3c9944e5	0.01870961
105	0x3d1f32e0	0.038866878
106	0x3d3736ed	0.044730116
107	0xbe33b65d	-0.17550035
108	0x3e182ba3	0.14860396
109	0x3d885923	0.066576265
110	0xbe254633	-0.1614006
111	0xbc390d02	-0.011294605
112	0x3e5ee16a	0.21765676
113	0x3e327a5c	0.17429489
114	0x3e03b2a4	0.12861115
115	0xbda12d1e	-0.078699335
116	0xbc00c24e	-0.007858826
117	0x3e0acf86	0.13555726
118	0xbec6d874	-0.38837016
119	0x3e9ce6bc	0.30644786
120	0xbd29f1ea	-0.041490473
121	0x3e9f4c7b	0.31113037
122	0xbd26726e	-0.040636472
123	0xbeaae767	-0.3337967
124	0xbe4d65a8	-0.2005831
125	0xbe09fd99	-0.13475646
126	0x3e7dc161	0.247808
127	0x3ea7638d	0.3269314
128	0xbe8bcaf9	-0.27303293
129	0x3e776f73	0.24163608
130	0xbc59a856	-0.013284763
131	0x3e9dbff7	0.3081052
132	0x3eef75bc	0.46769512
133	0xbf54d745	-0.83140975
134	0x3f1ed20a	0.62039244
135	0xbc9edb20	-0.019391596
136	0xbe6e73f6	-0.23286423
137	0x3debda11	0.11516202
138	0xbe4f87bf	-0.20266627
139	0xbecec172	-0.40381962
140	0x3eddc334	0.4331299
141	0x3e6d97b8	0.23202407
142	0x3e49ac52	0.19694641
143	0x3ecba806	0.3977663
144	0x3e3fdfca	0.18737713
145	0x3ee0b5e1	0.43888763
146	0x3e3cff40	0.18456745
147	0x3e222b2a	0.15836778
148	0xbecf6fb2	-0.40514904
149	0x3ec6583e	0.38739198
150	0x3e121a60	0.14267874
151	0xbe093ac6	-0.13401327
152	0x3d36abbc	0.044597372
153	0xbe8f7d07	-0.28025076
154	0x3e86b5d7	0.26310608
155	0x3e307bca	0.17234722
156	0x3d86a2ac	0.06573996
157	0x3d9c9d91	0.07647241
158	0xbf0ac4ae	-0.5420636
159	0x3e82b35b	0.25527462
160	0x3d524b32	0.051341243
161	0x3e8d4860	0.2759428
162	0x3ed6a15b	0.4191998
163	0x3f6a9e82	0.91648114
164	0x3f3e3465	0.742987
165	0x3d82f8ea	0.06395133
166	0x3ec8906b	0.39172682
167	0x3ea064e4	0.31326973
168	0xbc0aa1ba	-0.00846141
169	0x3ef9bd78	0.48777366
170	0xbedb0ce2	-0.42783266
171	0xbeebf8ef	-0.4608836
172	0x3e17098e	0.14749739
173	0x3da188a1	0.07887388
174	0x3e03e080	0.12878609
175	0xbecc050f	-0.3984761
176	0xbeb5c251	-0.35499814
177	0xbdb95dd6	-0.09051101
178	0x3d47bf85	0.04876663
179	0xbea2df29	-0.31810883
180	0xbee0ebd8	-0.43929935
181	0xbf126131	-0.5717955
182	0x3c809fda	0.015701223
183	0x3f1e1d21	0.617632
184	0xbda86847	-0.08223014
185	0x3d9d3cfd	0.07677648
186	0xbe377218	-0.17914617
187	0x3e67eb47	0.22648345
188	0x3e08eb88	0.13371098
189	0xbd90dec7	-0.070737414
190	0x3eb0467f	0.34428784
191	0x3e8fd030	0.28088522
192	0xbd932840	-0.071854115
193	0xba819f77	-0.0009889443
194	0xbdc16e5c	-0.094448775
195	0x3ee969ff	0.4558868
196	0x3ea596c2	0.32341582
197	0x3e96ad5d	0.2942914
198	0xbcefe150	-0.029282242
199	0x3ebc543b	0.36783013

onnx::LSTM_119 f4 [1, 40, 10]
0	0xbe806a61	-0.2508116
1	0x3e28531b	0.16437952
2	0xbd8050f5	-0.06265441
3	0xbebec206	-0.37257403
4	0x3e29ff21	0.1660123
5	0xbde14a15	-0.11000458
6	0x3e916e33	0.28404388
7	0x3ec127a9	0.3772557
8	0x3d57eeca	0.05271796
9	0xbd6576c2	-0.05602146
10	0x3ca37071	0.019951077
11	0xbe2360b6	-0.15954861
12	0xbeb2f10a	-0.34949523
13	0xbe7a900f	-0.24469016
14	0xbe04012c	-0.12891072
15	0xbe0ad84b	-0.13559072
16	0xbe09c01b	-0.13452189
17	0x3e2f8e64	0.17144161
18	0xbbb2dece	-0.0054586893
19	0x3dccbf4d	0.09997425
20	0xbe18d71e	-0.1492581
21	0x3e8bfbf8	0.27340674
22	0x3e278205	0.16358192
23	0x3ce92051	0.028457792
24	0xbe2b5217	-0.16730534
25	0xbe448958	-0.19193017
26	0x3db31cc3	0.0874572
27	0xbdff7242	-0.12472965
28	0x3d82747f	0.06369876
29	0x3eda0a1e	0.42585844
30	0x3ec7194b	0.38886485
31	0xbe89b2e9	-0.2689431
32	0x3e796ba3	0.24357466
33	0x3e7cc372	0.24683931
34	0x3e37617c	0.17908281
35	0x3e0f31aa	0.13983789
36	0xbdc58e80	-0.0964632
37	0xbe990f06	-0.29894274
38	0x3d2e7472	0.04259152
39	0x3eb031e5	0.34413067
40	0xbd459646	-0.048239015
41	0x3bf3a229	0.0074351025
42	0x3e892378	0.26784873
43	0x3dce5016	0.10073869
44	0xbe07f8b9	-0.13278474
45	0x3db93ceb	0.09044822
46	0x3e856140	0.26050758
47	0x3c67194b	0.014105151
48	0xbd42cb62	-0.047557242
49	0xbd809a84	-0.062794715
50	0x3e9348d8	0.28766513
51	0x3ece94e8	0.4034798
52	0x3e0015a5	0.12508257
53	0xbe04b2a0	-0.12958765
54	0x3e04793c	0.12936872
55	0xbe24c9c5	-0.16092594
56	0x3e02189f	0.12704705
57	0x3e098bb5	0.134322
58	0x3e85b42a	0.26114017
59	0x3eb4673e	0.35235018
60	0x3e29181c	0.16513103
61	0xb990a3b3	-0.00027587786
62	0x3dd727c8	0.105056345
63	0x3e3c22aa	0.18372598
64	0xbca0c9e9	-0.019627528
65	0xbddd280b	-0.10798653
66	0x3e76b796	0.2409347
67	0xbbdcae05	-0.006734612
68	0x3e2aaad4	0.16666728
69	0x3d6c5f5d	0.057708133
70	0xbec7037e	-0.38869852
71	0xbe6d984b	-0.23202626
72	0xbe963c5f	-0.29342934
73	0xbe096abc	-0.13419622
74	0xbe753077	-0.23944269
75	0x3ddd1a20	0.107959986
76	0x3b3684d4	0.0027850168
77	0x3d110c7d	0.0354123
78	0xbeba3e67	-0.36375734
79	0xbe84b72e	-0.25921005
80	0x3d615d77	0.055020776
81	0x3ece92fd	0.40346518
82	0xbe320014	-0.17382842
83	0x3e29c41a	0.16578713
84	0xbe34ef66	-0.17669448
85	0xbe5cc6f9	-0.21560277
86	0xbcd54aff	-0.026036737
87	0xbe843474	-0.2582127
88	0x3ca72efe	0.02040815
89	0x3e105fe5	0.14099081
90	0x3daf91de	0.08572744
91	0x3d8cbc2e	0.0687183
92	0xbe7bc5ee	-0.24587223
93	0xbe8fc807	-0.28082296
94	0x3ec5b872	0.38617283
95	0x3e1ff369	0.15620197
96	0xbde687d4	-0.11256376
97	0xbe769d71	-0.24083497
98	0xbee05370	-0.43813658
99	0x3dafe0f8	0.08587831
100	0xbc14231b	-0.009041573
101	0xbe893449	-0.26797703
102	0xbe17c4d3	-0.14821176
103	0xbea180e8	-0.3154366
104	0xbc57ff80	-0.013183475
105	0x3e1fac5d	0.15593095
106	0xbd44681a	-0.04795084
107	0xbe1ddae3	-0.1541553
108	0xbc4b7c5a	-0.012419784
109	0xbeb56e19	-0.3543556
110	0xbe0102c6	-0.12598714
111	0xbe91c6b2	-0.28471905
112	0xbc4692a8	-0.0121199265
113	0xbd4b09d3	-0.049569916
114	0xbe2ae255	-0.16687901
115	0xbde166c1	-0.11005927
116	0xbeabde92	-0.33568245
117	0xbe1745fb	-0.14772789
118	0x3e9820ef	0.29712626
119	0xbe9bbf9e	-0.3041963
120	0x3e97d31c	0.2965325
121	0xbcfe6b6f	-0.031057088
122	0x3e8ff4a8	0.28116345
123	0x3ea92bd2	0.33041245
124	0x3e60eecc	0.21966094
125	0xbc6e15c0	-0.014531553
126	0x3e3e41b3	0.1857975
127	0x3e05c42b	0.13063113
128	0xbd5efee5	-0.054442305
129	0x3e65f0ac	0.2245509
130	0x3b7dae0c	0.0038708476
131	0x3d76933b	0.060199004
132	0x3ef84b4f	0.48494956
133	0x3e2a7ca8	0.16649115
134	0xbe191e3f	-0.14952944
135	0xbd847db3	-0.06469288
136	0x3d9d01da	0.07666369
137	0x3e5ef385	0.21772583
138	0x3ed5ad21	0.4173365
139	0x3e1a4032	0.15063551
140	0x3d7459c5	0.059655923
141	0x3ebeda62	0.37275988
142	0xbcf44931	-0.029820057
143	0xbdc14a3f	-0.094379894
144	0x3dc9478f	0.09828102
145	0x3d16899f	0.03675234
146	0xbc5d3e2f	-0.013503595
147	0x3e93fba1	0.28902915
148	0x3ed54839	0.41656664
149	0xbca8f0a2	-0.020622555
150	0x3ea5caa1	0.32381156
151	0x3bb6e7f3	0.0055818497
152	0x3b437308	0.0029823203
153	0x3d5a4d61	0.05329645
154	0x3d43d56a	0.04781095
155	0xbeb25749	-0.34832218
156	0xbd78f97d	-0.060784806
157	0xbe6ae78a	-0.22939888
158	0x3ec37397	0.38174126
159	0x3e14b0f5	0.14520629
160	0x3e5db4e7	0.2165104
161	0xbe12386e	-0.14279339
162	0xbe0da85b	-0.13833754
163	0x3ed1a756	0.4094798
164	0xb9aa5c5a	-0.00032493734
165	0xbe20e927	-0.1571394
166	0x3d196852	0.037453003
167	0xbd1445a3	-0.036199223
168	0x3d044577	0.03229281
169	0x3e4734c2	0.1945372
170	0xbcb87587	-0.022516979
171	0xbe23f4b8	-0.16011322
172	0xbef7d12f	-0.48401782
173	0x3e3654e5	0.17805822
174	0xbc36e738	-0.011163525
175	0x3d872a09	0.065998144
176	0xbb41fe5b	-0.002960107
177	0xbe36f5c7	-0.17867194
178	0xbdf92442	-0.12165119
179	0x3aa4a1f0	0.0012560468
180	0x3de5c7a5	0.1121972
181	0x3f1800a6	0.5937599
182	0x3ebe5af2	0.3717876
183	0x3eb90165	0.36133876
184	0x3e8d1960	0.27558422
185	0xbe984790	-0.29742098
186	0xbe559313	-0.20856886
187	0xbdac8e67	-0.084255986
188	0xbe5a10c7	-0.21295463
189	0x3e98851d	0.29789057
190	0x3e4bb1db	0.19892065
191	0xbd4127f3	-0.04715724
192	0x3e06b24f	0.13153957
193	0x3dba8c32	0.091087714
194	0x3f0bd4cb	0.5462157
195	0x3e8e68f4	0.27814448
196	0x3ec555e4	0.38542092
197	0xbed82e4a	-0.42222816
198	0xbf0d0ae6	-0.55094755
199	0xbedd5ee4	-0.43236458
200	0xbe5fcfbb	-0.21856587
201	0xbeb35fce	-0.3503403
202	0x3e3a746c	0.18208474
203	0x3d9fd327	0.07803946
204	0xbe6a7be7	-0.22898827
205	0xbe144b9e	-0.1448197
206	0x3eaf9927	0.34296533
207	0xbe52afab	-0.20574825
208	0xbdde2046	-0.108459994
209	0x3c31fde0	0.010863751
210	0x3cf182d0	0.029481322
211	0xbeca2559	-0.3948162
212	0xbe0da4dd	-0.13832422
213	0xbec48f9c	-0.38390815
214	0xbc04441e	-0.008072881
215	0xbce57dc9	-0.02801408
216	0xbd1dc9e7	-0.038522627
217	0x3d13e5d1	0.036107842
218	0x3e68876f	0.22707914
219	0x3d2d2fa9	0.04228178
220	0xbd386bde	-0.045024745
221	0x3eea468e	0.45756954
222	0xbe5178c5	-0.20456226
223	0xbd4e8a52	-0.05042488
224	0x3e2f580f	0.17123435
225	0x3e73513f	0.23761462
226	0x3eb30f8f	0.34972808
227	0xbedeb26c	-0.434955
228	0xbe3c1f7e	-0.18371388
229	0x3e610769	0.21975483
230	0xbe314ce0	-0.17314482
231	0x3e3a6298	0.18201673
232	0xbd48b1b6	-0.048997603
233	0x3e8740bc	0.26416576
234	0x3e30137f	0.17194937
235	0x3d150bf3	0.03638835
236	0x3ed0af47	0.40758726
237	0xbedc8aef	-0.43074748
238	0xbe319965	-0.17343672
239	0xbe595c3e	-0.21226594
240	0x3d10a912	0.035317488
241	0xbca7390c	-0.020412944
242	0x3e296bde	0.16545054
243	0x3e591b5f	0.21201847
244	0xbd69f3ff	-0.05711746
245	0x3ec10be9	0.377044
246	0xbe1b72bb	-0.15180485
247	0xbeba64ec	-0.36405122
248	0x3e616a7a	0.22013274
249	0x3e8f3a0e	0.2797398
250	0x3ddfe302	0.1093197
251	0x3ddab9e9	0.10679991
252	0x3e2807fe	0.16409299
253	0x3e1fae02	0.15593722
254	0x3e419fcf	0.18908618
255	0xbe717da4	-0.23583084

onnx::LSTM_120 f4 [1, 80]
0	0x3cb922d1	0.02259961
1	0x3e656850	0.22403073
2	0xbc655de6	-0.013999438
3	0x3ebe544f	0.37173697
4	0xbe888e48	-0.26671052
5	0x3dcfd7c6	0.101485774
6	0x3e99ee6b	0.3006471
7	0xbe96035f	-0.29299447
8	0x3d711abf	0.058863398
9	0xbd41d5f9	-0.0473232
10	0x3e4975d7	0.19673859
11	0x3e4d57ff	0.20053099
12	0x3ede5270	0.4342227
13	0x3ec1eda0	0.37876606
14	0xbdfa68ee	-0.12227045
15	0x3ea6e4e5	0.32596508
16	0x3e91e0a1	0.2849169
17	0xbebfa8a9	-0.37433365
18	0x3e112842	0.14175513
19	0xbe302372	-0.17201021
20	0x3ce0ce00	0.027441978
21	0xbec21abf	-0.3791103
22	0xbe087351	-0.1332524
23	0x3e28a083	0.1646748
24	0xbe15e7ac	-0.14639157
25	0xbe2406b6	-0.16018185
26	0x3cc289ef	0.023747412
27	0x3d5992fe	0.0531187
28	0x3e591cea	0.21202436
29	0xbe6e1032	-0.23248366
30	0xbdcbfa4a	-0.09959848
31	0x3d48e3f0	0.049045503
32	0xbcb7b093	-0.022423064
33	0xbe933eff	-0.28759
34	0xbdffda01	-0.12492753
35	0x3e1a171a	0.15047875
36	0xbdfdd15f	-0.1239345
37	0x3ee3ba96	0.4447829
38	0x3e7b59ad	0.24545927
39	0xbbacf71f	-0.0052784826
40	0xbdb5f107	-0.08883863
41	0xbeac50f9	-0.33655527
42	0x3e4cac70	0.19987655
43	0xbdd17896	-0.10228078
44	0x3e83d21f	0.25746247
45	0xbe233e45	-0.15941723
46	0xbc9d8474	-0.019228198
47	0xbe9b8547	-0.3037512
48	0x3df7c946	0.12098937
49	0xbe2e5337	-0.17023931
50	0xbd8f7c7b	-0.07006165
51	0x3e7bb624	0.245812
52	0xbe0341ca	-0.12818065
53	0x3eb7329d	0.35780802
54	0x3d954d3c	0.07290122
55	0xbde58062	-0.11206128
56	0x3e6f3358	0.2335943
57	0xbe8c169a	-0.27360994
58	0xbdf214d3	-0.11820378
59	0x3e315ba9	0.17320122
60	0x3dbddb18	0.092703044
61	0x3d741f63	0.059600245
62	0xbe1a0003	-0.15039067
63	0xbe86277f	-0.26202008
64	0x3e440e71	0.19146134
65	0x3e89712e	0.26844162
66	0xbec80d80	-0.390728
67	0xbeb61681	-0.35564044
68	0xbdcdede3	-0.10055139
69	0xbdc0204e	-0.09381162
70	0x3e825d6e	0.25461906
71	0xbe9a3591	-0.30118993
72	0x3c95f860	0.018306911
73	0xbdefa4f3	-0.117013834
74	0x3dd3de93	0.10345187
75	0xbebc78e7	-0.3681099
76	0xbb894094	-0.0041886065
77	0xbd48a149	-0.04898194
78	0x3da69b78	0.08135122
79	0x3e1fc6d1	0.15603186
