models/RSG_model.onnx (onnx, 40199 bytes, 5 tensors)

fc.weight f4 [5, 10]
0	0x3e196fe0	0.14984083
1	0x3eb685c3	0.35648927
2	0xbd04ea54	-0.032450035
3	0x3da8a4e0	0.082345724
4	0x3ed22a08	0.41047692
5	0xbd51e752	-0.051245995
6	0xbe5de3a3	-0.21668868
7	0x3e76836e	0.24073574
8	0xbe673267	-0.2257782
9	0x3d04a7d1	0.032386605
10	0x3e409bd3	0.18809442
11	0x3f009124	0.50221467
12	0x3cb795e4	0.02241034
13	0x3e086550	0.13319898
14	0x3e87091d	0.2637414
15	0x3cebdf5f	0.028793035
16	0x3e37e630	0.17958903
17	0x3ebc8d0d	0.36826363
18	0xbe115f2a	-0.14196458
19	0xbbc285b6	-0.0059363497
20	0x3c2d12cb	0.010563563
21	0x3dff4882	0.12465002
22	0x3c13a79b	0.009012128
23	0x3da6ba68	0.08141023
24	0x3eaef587	0.34171697
25	0x3e4a26c6	0.19741353
26	0xbec0eaf4	-0.37679255
27	0x3df74b45	0.120749034
28	0xbebb016f	-0.3652453
29	0x3eed6c2b	0.46371588
30	0xbe4b2d51	-0.19841506
31	0xbe9b87b8	-0.30376983
32	0xbb94fbd3	-0.0045466213
33	0xbf19b7ab	-0.6004588
34	0x3eafd660	0.34343243
35	0xbe43bdd7	-0.19115387
36	0x3e7a9d24	0.24474007
37	0x3e3086c4	0.17238909
38	0xbdeb89ff	-0.1150093
39	0x3d256025	0.040374894
40	0x3db9d246	0.090733096
41	0x3ebb6bc3	0.36605653
42	0xbe6de7a9	-0.23232903
43	0x3e3c4b69	0.18388142
44	0x3e720f53	0.23638658
45	0x3e6249a1	0.220984
46	0x3b30f366	0.0027000546
47	0xbd2998d3	-0.04140551
48	0xbed6802a	-0.41894656
49	0x3e9bf5ee	0.30461067

fc.bias f4 [5]
0	0x3e432561	0.19057228
1	0x3d996011	0.07489026
2	0x3e82b621	0.25529578
3	0xbe294df2	-0.1653364
4	0x3e8d2c02	0.27572638

onnx::LSTM_118 f4 [1, 40, 5]
0	0xbef6ea7a	-0.48225766
1	0x3cb4d047	0.02207197
2	0x3d4ab0ae	0.0494849
3	0x3ed508ca	0.41608268
4	0xbee1967e	-0.4406013
5	0x3c874f47	0.016517295
6	0x3eea7752	0.4579416
7	0x3debdcfb	0.11516758
8	0x3efd2d67	0.49448702
9	0x3ef6484b	0.4810203
10	0xbebe4d89	-0.3716853
11	0xbe74c53a	-0.23903361
12	0xbee1aadc	-0.44075668
13	0xbed31293	-0.41225109
14	0x3db6b890	0.08921921
15	0xbe021b26	-0.12705669
16	0x3e68e64d	0.22744103
17	0xbe0ab732	-0.13546446
18	0xbfbbc6a6	-1.4669998
19	0xbc34d6f8	-0.011037581
20	0x3e5b47da	0.21414128
21	0x3e932365	0.2873794
22	0xbdf6082f	-0.1201328
23	0x3d8659bc	0.06560084
24	0xbdf38064	-0.11889723
25	0xbe7462fa	-0.23865882
26	0xbe8a4ee0	-0.27013302
27	0xbca035dd	-0.019556934
28	0x3e367f81	0.17822076
29	0xbea4f891	-0.3222089
30	0x3da2415a	0.07922621
31	0xbc5cd283	-0.013477924
32	0xbe3fd1fa	-0.18732443
33	0x3f1ba1f4	0.60793996
34	0xbe949d67	-0.29026338
35	0xbd74760f	-0.059682902
36	0x3ec72313	0.38893947
37	0x3cb1d4db	0.021707943
38	0xbe63d1f5	-0.22248061
39	0xbd863933	-0.06553879
40	0x3e41905f	0.1890273
41	0x3e9632f7	0.29335758
42	0x3d7a5e36	0.061125003
43	0x3edf08d2	0.43561417
44	0x3e82362f	0.25431964
45	0xbd400be9	-0.04688636
46	0xbd1eb849	-0.038749967
47	0x3e4c3e0d	0.19945545
48	0x3bcc18ba	0.0062285336
49	0xbde6520c	-0.11246118
50	0xbdfb6624	-0.12275341
51	0xbea462a6	-0.32106513
52	0xbe31af11	-0.17351939
53	0x3eda09d7	0.42585632
54	0xbebb7f4f	-0.36620566
55	0x3efde94b	0.4959205
56	0x3e78ebf0	0.24308753
57	0x3e5ea51a	0.21742669
58	0x3e73e627	0.23818265
59	0x3ec95467	0.39322206
60	0xbda84887	-0.082169585
61	0x3d9d9b49	0.07695634
62	0x3e080fb8	0.13287246
63	0xbd6cafdd	-0.057784904
64	0xbe9b1578	-0.30289817
65	0xbe20c883	-0.15701489
66	0x3de9b378	0.11411184
67	0x3eb6fa6c	0.35737932
68	0xbfa3ea67	-1.2805909
69	0x3e6f5858	0.23373544
70	0x3ebaefc4	0.36511052
71	0xbcbc7b8d	-0.023008132
72	0x3ec3cbeb	0.38241515
73	0x3e7622e7	0.24036752
74	0xbcf1d71e	-0.029521521
75	0xbe514b89	-0.2043897
76	0x3dcaecc3	0.0990844
77	0xbec64cfd	-0.38730612
78	0xbe2ac403	-0.16676335
79	0xbed0ce4d	-0.40782395
80	0x3e5aff2c	0.21386403
81	0xbe53acb8	-0.20671356
82	0x3d30d9e9	0.043176565
83	0x3edab102	0.4271317
84	0xbe950ae1	-0.29109862
85	0x3efdc988	0.4956782
86	0x3e59e45e	0.21278521
87	0x3e576f71	0.21038605
88	0xbd581f4d	-0.052764226
89	0xbcb6ef58	-0.022330925
90	0x3d65f635	0.056143004
91	0xbc068c9b	-0.008212234
92	0x3d76318e	0.060105853
93	0x3e08eb1d	0.13370939
94	0x3e615275	0.22004111
95	0x3ecfca1c	0.40583885
96	0x3e72c0bc	0.23706335
97	0xbd5e28b3	-0.054238033
98	0x3e9b2dad	0.30308285
99	0x3ec321a1	0.38111594
100	0x3dd6d22d	0.104893066
101	0xbec54089	-0.385258
102	0xbe91e97f	-0.28498456
103	0xbd3e0704	-0.04639341
104	0xbf039ef8	-0.5141444
105	0x3e984403	0.2973939
106	0xbe138154	-0.14404804
107	0xbdfff49d	-0.12497828
108	0xbdec8e28	-0.11550552
109	0x3eacc5a7	0.33744547
110	0xbed35025	-0.41272083
111	0xbed3899b	-0.41315922
112	0xbd09f0a4	-0.03367676
113	0xbe6e9211	-0.23297907
114	0x3db886cc	0.090100855
115	0xbebfb6ba	-0.37444097
116	0x3d87b582	0.06626417
117	0xbeb7e8f6	-0.35919923
118	0xbf771afe	-0.9652556
119	0xbd5b70d6	-0.053574406
120	0xbe0b49ab	-0.13602321
121	0x3d65f9be	0.056146376
122	0x3e9a80c6	0.3017637
123	0x3d949f5a	0.072569564
124	0x3ec122d5	0.37721887
125	0x3d6b8f11	0.057509486
126	0xbed4a7b7	-0.41534206
127	0xbe1f7df7	-0.15575396
128	0xbe340946	-0.17581663
129	0x3cd6b6cc	0.026210211
130	0x3e18fcb2	0.14940146
131	0xbd3cbc4a	-0.046078004
132	0xbe80c187	-0.2514765
133	0x3da3390f	0.079698674
134	0x3e5c8ea3	0.21538787
135	0xbd8cbf8d	-0.06872473
136	0x3e9e29a8	0.30891156
137	0xbc8e339b	-0.017358592
138	0x3e2528ca	0.16128841
139	0x3ebd0c23	0.36923322
140	0x3ea0d983	0.31415948
141	0x3e5ec26e	0.21753857
142	0x3d58f3ba	0.05296681
143	0x3c7d1cf4	0.0154487975
144	0xbe42b5ca	-0.1901466
145	0x3d6398a1	0.05556548
146	0x3ea46b1a	0.32112962
147	0xbe4d5312	-0.2005122
148	0xbe7dbb09	-0.2477838
149	0x3ed17d2b	0.40915808
150	0x3d007e2e	0.031370334
151	0xbc0cd1dc	-0.008594956
152	0xbe9b2fe6	-0.3030998
153	0xbee0df31	-0.43920282
154	0xbe500023	-0.20312552
155	0x3e290cf9	0.16508855
156	0x3ed02dd0	0.40659952
157	0x3eb9e545	0.3630773
158	0xbd45518d	-0.048173476
159	0x3ee22228	0.44166684
160	0x3dec2401	0.11530305
161	0xbe60c79f	-0.2195115
162	0x3d0f471a	0.034979917
163	0x3dad1529	0.084513016
164	0x3c23380d	0.009962094
165	0x3e221f6b	0.15832298
166	0x3dd21b3d	0.102591015
167	0x3e3a5ec2	0.1820021
168	0xbf61ed5b	-0.882528
169	0x3e3cba99	0.18430556
170	0x3ebd7738	0.3700502
171	0x3ebb4400	0.36575317
172	0x3e72fc15	0.23728974
173	0x3e998d49	0.29990605
174	0x3da60124	0.08105686
175	0xbd8d5239	-0.06900448
176	0x3e8b197f	0.2716789
177	0xbe34fb5c	-0.17674011
178	0xbe872294	-0.2639357
179	0x3e9211b0	0.2852912
180	0xbe86dc12	-0.26339775
181	0xbe970cd8	-0.29501987
182	0x3d752749	0.05985192
183	0x3f052a32	0.5201751
184	0xbe6f3684	-0.2336064
185	0x3ea04768	0.3130448
186	0x3de13f64	0.10998419
187	0x3e145db1	0.14488865
188	0x3ec54f1c	0.38536918
189	0x3d9a2be3	0.07527902
190	0xbe44fd59	-0.1923727
191	0xbe71de65	-0.23619993
192	0xbeb33acf	-0.35005805
193	0xbede2d68	-0.43394017
194	0xbeb62cf6	-0.35581177
195	0x3ddb7300	0.10715294
196	0x3ecd137b	0.40053925
197	0x3d01597d	0.031579483
198	0xbd5d3e8d	-0.05401473
199	0xbd86158a	-0.06547077

onnx::LSTM_119 f4 [1, 40, 10]
0	0x3c874de1	0.016516628
1	0xbd675b40	-0.056483507
2	0xbea53cb1	-0.32272866
3	0xbe841e58	-0.258044
4	0xbec3a3da	-0.38210946
5	0xbf0e01bb	-0.5547139
6	0x3ea836ba	0.32854253
7	0xbe042ed9	-0.12908496
8	0x3e675240	0.2258997
9	0xbeb6fd2e	-0.35740036
10	0xbf130a84	-0.5743792
11	0xbe34b629	-0.17647614
12	0x3ea02b8b	0.3128322
13	0xbdcd3c19	-0.10021228
14	0x3ef715d7	0.4825885
15	0xbef95c63	-0.48703298
16	0x3f0f6ef2	0.56028664
17	0x3ef22335	0.47292486
18	0xbe90762e	-0.28215164
19	0x3ea148ec	0.31500947
20	0xbe47a13d	-0.19495101
21	0x3e0fbe40	0.14037418
22	0x3d482cc6	0.048870824
23	0x3d34cce4	0.04414071
24	0x3dcd2ab6	0.10017912
25	0xbe80ef1c	-0.25182426
26	0xbe48bd92	-0.19603565
27	0xbec09f6b	-0.37621626
28	0x3ed638ea	0.41840297
29	0x3dd2c435	0.1029133
30	0xbf6395d6	-0.88900506
31	0xbef79f8a	-0.48363906
32	0xbe76b1b3	-0.24091224
33	0x3e37334d	0.17890663
34	0xbd8683d2	-0.065681115
35	0xbe64bdcd	-0.22338028
36	0x3eb120cc	0.34595335
37	0x3e908e48	0.28233552
38	0x3e2ceae7	0.16886483
39	0xbe1dbd64	-0.15404278
40	0x3ec488eb	0.3838571
41	0x3e93435e	0.28762335
42	0x3c8e56af	0.017375318
43	0xbd4fcb80	-0.050731182
44	0xbdfb5ec1	-0.12273932
45	0x3ace774e	0.0015752108
46	0xbe1c2739	-0.15249337
47	0xbe1002e2	-0.140636
48	0xbe29edba	-0.16594592
49	0x3e631e71	0.22179581
50	0xbe114c3a	-0.14189234
51	0xbe9a9b08	-0.30196404
52	0xbe2ac413	-0.16676359
53	0x3da8814c	0.082277864
54	0x3ddc2360	0.10748935
55	0x3dfc54e9	0.12320883
56	0x3dc8bf57	0.0980212
57	0x3db13446	0.086525485
58	0x3e13db36	0.14439091
59	0x3d1b2e21	0.03788579
60	0x3f0fc0fd	0.5615385
61	0xbe4eee64	-0.20208126
62	0x3df055a6	0.11735086
63	0x3ccc2707	0.024920953
64	0xbdd2f3b1	-0.10300387
65	0x3dddd27f	0.108311646
66	0xbdcae165	-0.09906272
67	0x3ebcfcbe	0.36911577
68	0xbea3a3fc	-0.31961048
69	0xbe4bafd5	-0.19891293
70	0x3e8633f5	0.26211515
71	0x3efe3188	0.49647164
72	0x3e626741	0.221097
73	0xbe0ac2ea	-0.13550916
74	0x3e246eb0	0.16057849
75	0x3ed9a919	0.42511824
76	0xbe84e36c	-0.2595476
77	0xbe266b2e	-0.16251823
78	0xbea468af	-0.32111117
79	0x3de9e833	0.114212416
80	0xbe89f823	-0.26947126
81	0xbdb6006a	-0.08886798
82	0x3e638789	0.22219671
83	0xbed7c30c	-0.42140996
84	0x3d2e293f	0.042519804
85	0x3e50cef6	0.2039145
86	0x3b9e2876	0.0048266007
87	0xbe5f4011	-0.21801783
88	0xbe87d2c6	-0.26527995
89	0x3c4c322c	0.012463134
90	0x3e836d79	0.25669459
91	0x3eb8d3e0	0.36099148
92	0xbc8e2be7	-0.017354919
93	0xbecdef70	-0.4022174
94	0x3e2cfb2c	0.1689269
95	0x3db32d8a	0.0874892
96	0xbdfde282	-0.123967186
97	0x3daf8443	0.08570149
98	0x3dc7cfa0	0.09756398
99	0xbeb4f9c9	-0.3534682
100	0xbe815960	-0.252635
101	0xbd6e232d	-0.058139015
102	0xbe253805	-0.16134651
103	0xbf294ff2	-0.6613761
104	0xbeb50af7	-0.35359928
105	0xbe08b6db	-0.13351004
106	0x3f087e7a	0.5331799
107	0x3dc76c95	0.09737507
108	0x3ed63e1d	0.41844264
109	0xbec5e8a5	-0.38654056
110	0xbe905bac	-0.2819494
111	0x3d92cee9	0.07168371
112	0x3ee73bd9	0.45162848
113	0x3e4f6166	0.20251998
114	0x3deead0a	0.11654098
115	0xbd608899	-0.05481777
116	0x3ebf55d2	0.37370163
117	0x3f114dac	0.5675914
118	0x399b0747	0.00029569326
119	0x3d89759c	0.06711885
120	0xbe25835b	-0.1616339
121	0xbe99e369	-0.30056313
122	0x3e3edbcd	0.18638535
123	0x3e4d56ad	0.20052595
124	0xbed6ccd4	-0.41953146
125	0x3e0aeea6	0.135676
126	0xbad950dc	-0.0016579884
127	0x3dfa08cf	0.12208711
128	0x3e6564ca	0.22401729
129	0x3db6c1eb	0.08923706
130	0xbf6e2d29	-0.9303766
131	0xbe910f47	-0.28331968
132	0x3e72bcbb	0.23704807
133	0x3d84e2f0	0.064885974
134	0x3dd73864	0.105088025
135	0xbedc6b52	-0.4305063
136	0x3ec98b70	0.39364195
137	0xbd4ea6e3	-0.050452124
138	0x3e782a90	0.24234986
139	0xbde7655a	-0.11298628
140	0x3e9d00b3	0.30664596
141	0x3eb654e3	0.35611638
142	0x3e9334dc	0.28751266
143	0xbed31ede	-0.41234487
144	0x3dbf1376	0.09329884
145	0x3e87380e	0.26409954
146	0xbea0e06f	-0.3142123
147	0x3e367eed	0.17821856
148	0xbedcd81c	-0.43133628
149	0x3d402a3b	0.046915274
150	0x3e505dd9	0.203483
151	0xbe61c3ac	-0.22047299
152	0x3e240e01	0.16020967
153	0xbe2d3579	-0.1691493
154	0xbe38f88e	-0.18063566
155	0xbd894789	-0.067030974
156	0x3e0585c8	0.13039315
157	0xbe32ec2b	-0.17472903
158	0xbe1ec5e5	-0.15505178
159	0x3e3c121e	0.18366286
160	0x3f02f8bf	0.51160806
161	0xbe82d849	-0.25555637
162	0x3ea9b09c	0.33142555
163	0x3d26aa1c	0.040689573
164	0x3e1d3b9c	0.1535477
165	0xbd1cc415	-0.038272936
166	0xbe04ec81	-0.12980844
167	0x3e25f1cb	0.16205518
168	0xbeab99d3	-0.33515796
169	0x3d312da4	0.043256417
170	0x3cc3b5ba	0.023890365
171	0x3f35fa20	0.71084785
172	0x3e80787d	0.25091925
173	0x3e98cf9a	0.29845887
174	0x3e111658	0.1416868
175	0xbd3c702a	-0.046005405
176	0xbda3444e	-0.079720125
177	0x3e352fbd	0.17693992
178	0xbe4ead3f	-0.20183276
179	0x3ecc65a8	0.39921308
180	0xbd342976	-0.043984853
181	0x3e867470	0.2626071
182	0x3e9f5cfa	0.31125623
183	0x3b4f4146	0.00316246
184	0x3d4d5963	0.050134074
185	0x3ea15eec	0.31517732
186	0xbe91556a	-0.28385478
187	0xbbc42e7f	-0.005986988
188	0xbea1af07	-0.31578848
189	0x3ef118ad	0.4708914
190	0x3ed7b73d	0.42131987
191	0x3ed7667f	0.42070386
192	0x3e850e47	0.25987455
193	0xbed2c7bf	-0.4116802
194	0xbeb1253c	-0.3459872
195	0xbe1270dd	-0.14300866
196	0x3b18982c	0.002328406
197	0xbeb1c9af	-0.34724185
198	0x3e74edd9	0.23918857
199	0xbeba3d5a	-0.36374933
200	0xbd88a034	-0.06671181
201	0xbf0af1c0	-0.5427513
202	0xbea7cec0	-0.32774925
203	0xbdca869e	-0.098889574
204	0xbeb2528c	-0.34828603
205	0xbed92ccc	-0.4241699
206	0x3eb16218	0.34645152
207	0xbea6921a	-0.32533342
208	0x3dce4ad1	0.10072864
209	0xbdf97b67	-0.1218174
210	0xbee85536	-0.4537751
211	0x3e97679d	0.29571238
212	0x3ed4c956	0.41559857
213	0xbe43377a	-0.19064131
214	0xbc65b817	-0.014020941
215	0x3d96a092	0.07354845
216	0xbe30a5db	-0.17250769
217	0xbe3808c7	-0.17972098
218	0x3c835c65	0.016035268
219	0x3d252af9	0.040324185
220	0xbd6a92c6	-0.05726888
221	0xbdf60a0e	-0.120136365
222	0xbe2eb74c	-0.1706211
223	0xbe990798	-0.29888606
224	0xbe0dc4c5	-0.13844593
225	0xbe50cf08	-0.20391476
226	0x3e84e69b	0.25957188
227	0xbe1d6701	-0.15371324
228	0x3ca81470	0.020517558
229	0xbe83da6e	-0.25752586
230	0xbee61f24	-0.44945633
231	0xbe2688d8	-0.16263139
232	0x3e4b57e0	0.1985774
233	0xbe34d4e7	-0.17659341
234	0xbde99cb7	-0.11406844
235	0xbec2cf9a	-0.38049012
236	0xbe84c256	-0.25929517
237	0xbe86e358	-0.26345325
238	0x3e3b7229	0.18305267
239	0xbe7ece1f	-0.24883316
240	0x3efb69e8	0.49104238
241	0xbcfe576e	-0.03104755
242	0x3d84d072	0.0648507
243	0xbe0ea6d0	-0.13930821
244	0xbe92cf76	-0.28673905
245	0x3e8fc0a2	0.28076655
246	0xbec7e7f3	-0.3904415
247	0x3e619912	0.22031048
248	0xbcf54e03	-0.029944425
249	0x3e42287a	0.18960753
250	0x3e33a1a8	0.17542136
251	0xbe485c9c	-0.19566578
252	0x3dc14acc	0.094380945
253	0xbe23d6ac	-0.1599986
254	0xbe96b680	-0.2943611
255	0x3ea5543a	0.32290822

onnx::LSTM_120 f4 [1, 80]
0	0x3de853ee	0.11344133
1	0x3e90cb44	0.2828008
2	0xbe6a37dc	-0.22872871
3	0xbd9c281d	-0.076248385
4	0x3e9ad8e2	0.30243593
5	0xbe15229d	-0.14563985
6	0x3eac2faf	0.3363013
7	0x3e0908e4	0.13382298
8	0xbe309178	-0.17242992
9	0xbe73aa54	-0.23795444
10	0x3e6e2909	0.23257841
11	0x3e9be5b5	0.3044869
12	0x3e53b5e4	0.20674855
13	0x3e69bbfd	0.22825618
14	0xbd65ef51	-0.056136433
15	0x3ddef3c1	0.10886336
16	0x3df1af93	0.11801066
17	0xbe034067	-0.12817536
18	0xbcddcf91	-0.027076514
19	0xbcdd9070	-0.027046412
20	0x3d1727b4	0.0369031
21	0x3e926875	0.2859532
22	0x3e50aa61	0.20377494
23	0xbcfb7b73	-0.030698514
24	0x3e905318	0.28188396
25	0x3e468020	0.19384813
26	0xbe40a72a	-0.18813768
27	0x3dc32a2a	0.095295265
28	0x3ddd8063	0.108155034
29	0x3e6a272d	0.22866507
30	0xbe3b4842	-0.18289283
31	0xbe5ec08a	-0.21753135
32	0x3e604d75	0.21904548
33	0x3d143dd9	0.036191795
34	0xbe3cb853	-0.18429689
35	0xbec634f3	-0.38712272
36	0x3eb82239	0.3596361
37	0x3eb50126	0.3535244
38	0x3e2c9fb5	0.16857798
39	0x3e991c2a	0.299043
40	0x3e5ae564	0.21376568
41	0x3e77f302	0.24213794
42	0xbda119ab	-0.07866224
43	0x3dd169c6	0.10225253
44	0x3e98bd70	0.2983203
45	0x3e732e40	0.23748112
46	0x3ecf0c55	0.40439096
47	0x3e5cf31b	0.21577112
48	0xbe049b1c	-0.12949795
49	0x3a1d409a	0.0005998701
50	0xbe8a5a90	-0.2702222
51	0x3e40a03f	0.18811129
52	0xbe2423fa	-0.16029349
53	0x3e5129c6	0.20426092
54	0x3eb37726	0.3505184
55	0x3dbba587	0.09162431
56	0x3b76bab1	0.0037647898
57	0x3d5ab4c6	0.053395055
58	0x3dade044	0.08490041
59	0x3e1ed791	0.1551192
60	0x3e8a4430	0.27005148
61	0x3e0a24c3	0.13490586
62	0xbcfb2bad	-0.030660475
63	0xbebe9068	-0.37219548
64	0x3e9449c9	0.28962544
65	0xbeb1f6af	-0.34758517
66	0x3dec08a1	0.11525083
67	0x3dc03375	0.09384815
68	0x3e386106	0.18005762
69	0x3d8e674d	0.06953297
70	0x3cd15406	0.02555276
71	0x3d8a5599	0.06754608
72	0x3e1f4d8a	0.15556923
73	0x3d34555b	0.044026714
74	0x3e6193d8	0.22029054
75	0x3def19be	0.11674832
76	0x3e3aa3c4	0.18226534
77	0x3e94690a	0.28986388
78	0x3d143f7d	0.03619336
79	0xbd92dd72	-0.071711436
