models/SBAC_model.onnx (onnx, 40199 bytes, 5 tensors)

fc.weight f4 [5, 10]
000000 6e cc 92 3e 43 ec ef 3d ff d4 c5 be 39 c0 6d bd
       0.28671592 0.11714985 -0.38639066 -0.058044646
000010 a6 a5 1a be 87 d9 1e 3e f0 32 a1 3e 55 1b c3 be
       -0.15102252 0.15512668 0.31484175 -0.3810679
000020 35 eb 86 3e 66 92 d9 be e6 d6 8d 3e b8 fc 9e bc
       0.26351324 -0.42494506 0.27703017 -0.019407615
000030 6f 60 39 be 96 08 cd bd 79 a5 aa bd 80 f4 10 3f
       -0.18103193 -0.10011403 -0.08332343 0.5662308
000040 e6 71 90 3e fe ed f8 be 9f 3f a0 3d 29 b4 60 be
       0.28211898 -0.48619074 0.07824635 -0.21943726
000050 4a b0 c6 3d 30 37 a7 3e 38 b0 64 3d e0 e8 11 be
       0.09701593 0.32659292 0.055832118 -0.14248991
000060 11 8c 7c be f7 04 0e 3e 53 d9 a5 3c 99 7d d2 be
       -0.24662806 0.13869081 0.02024523 -0.41111448
000070 f5 13 c6 3e 54 4b 56 bd 0c 69 83 be 90 b7 8a 3e
       0.386871 -0.052317932 -0.25666082 0.27093172
000080 f5 20 e7 be e1 a8 4e bb 92 43 9e be 7b 5d cd 3e
       -0.45142332 -0.0031533765 -0.30910927 0.40110382
000090 1b a3 a0 bd c3 77 a7 3e 04 d8 d9 be f0 f7 b9 3e
       -0.0784361 0.32708558 -0.4254762 0.36321974
0000a0 03 c4 94 be 44 ff be 3e 8e 21 72 3d 09 f3 8a be
       -0.29055795 0.37304127 0.05911403 -0.27138546
0000b0 c8 99 fd 3d 59 09 0a 3e 6b 65 43 bd 54 a6 98 be
       0.12382847 0.13480128 -0.04770414 -0.29814398
0000c0 87 9f d9 3e 92 47 ff bc
       0.42504522 -0.031162057

fc.bias f4 [5]
000000 56 0a 3e 3e bd 71 90 3e 7e 29 a8 3d ef 2e b3 3d
       0.1855863 0.28211775 0.08211039 0.08749186
000010 77 17 08 be
       -0.13290201

onnx::LSTM_118 f4 [1, 40, 5]
000000 11 f3 b5 bc 2e d1 b8 3d 9d 02 03 bd 47 79 11 3e
       -0.02221063 0.09024273 -0.031984914 0.1420642
000010 19 67 b6 bd a8 c7 16 3e bc b0 4e 3e 86 04 ba 3e
       -0.08906383 0.147246 0.20184606 0.36331576
000020 d2 b5 92 3d 0d 75 b0 3d 7d 05 89 3c 42 96 57 3e
       0.07163586 0.08616076 0.01672625 0.21053413
000030 db 39 9c 3e 95 21 8f 3e b6 b7 2b be 27 63 c0 3e
       0.3051289 0.2795531 -0.16769299 0.37575647
000040 29 90 09 3d cd ce d5 3e 30 c5 b5 be c4 f7 84 3d
       0.033584747 0.4175934 -0.35502005 0.0649257
000050 c7 e0 be bd 08 4c e1 3d a0 bb 93 be ce 39 0c bf
       -0.093202166 0.1100083 -0.28854084 -0.547757
000060 e5 66 8f be ca 4c 8d 3d 49 5a 1a be fb 0d 65 3b
       -0.2800819 0.06899412 -0.15073504 0.003495096
000070 10 c8 a7 be 97 9d b9 3e 27 81 de be 6a b3 c8 be
       -0.32769823 0.36253044 -0.4345791 -0.39199382
000080 4b f1 fa be f5 c6 bf 3c 9e 92 83 bd e4 52 95 3e
       -0.49012217 0.0234103 -0.064244494 0.29164803
000090 01 8f 0d bb c3 e5 ad 3e 21 0c 69 be 1d 60 cd bd
       -0.002160013 0.33964357 -0.22758533 -0.10028098
0000a0 fd 7a 02 3f 71 61 9d 3e 36 1f df 3e 53 63 ac bd
       0.50968915 0.30738404 0.435785 -0.08417382
0000b0 3a 09 e9 bc 2c 50 ca 3e bf eb ae bc 43 3f d6 3e
       -0.028446782 0.3951429 -0.021352647 0.4184514
0000c0 91 b5 8b be 86 67 80 3e e3 1f 1d be 62 be c1 be
       -0.27286962 0.25078982 -0.15344195 -0.37840563
0000d0 ca 6a d1 be 6a 41 05 3f 28 a5 c8 3d 9b b9 9c 3e
       -0.40901786 0.5205294 0.09797126 0.30610356
0000e0 df 90 fd bc 6c 7e f2 3e ab 23 cd 3d 1d a9 c8 3e
       -0.030952869 0.47362077 0.10016569 0.39191523
0000f0 88 ec 66 3e 30 44 3f bd fd d6 4b 3e 0a b0 76 3f
       0.22551167 -0.046695888 0.1990623 0.96362364
000100 b0 fa 78 3e 31 15 08 3f ac 04 23 3e 18 9e ec 3e
       0.2431438 0.53157336 0.15919751 0.46214366
000110 6a 01 fe be 52 c7 83 3e ac 73 2d be 99 dd a6 be
       -0.49610454 0.25738007 -0.16938657 -0.3259094
000120 55 8e 09 be 03 af b7 bd 3f 4b e2 be 32 2b 0f 3e
       -0.13433202 -0.08968928 -0.44198033 0.13981321
000130 ed 76 46 3e 2d 3e 2c be e2 9f 79 be fb a3 72 3e
       0.19381304 -0.16820593 -0.24377397 0.23695366
000140 66 fe 6c bd 15 21 70 be 9d 30 a3 bd 9e 84 62 be
       -0.0578598 -0.2345012 -0.079682566 -0.22120902
000150 4a bf 92 be bb 50 03 3f b4 0d a7 3e 77 06 f4 3e
       -0.28661567 0.5129506 0.32627642 0.47661182
000160 a9 81 1b be b1 83 c1 3e 9d 2a a4 3d f7 e3 98 3e
       -0.1518618 0.37795785 0.0801594 0.29861423
000170 c5 74 7d 3e 84 3b f8 bd c2 af 94 3e 49 14 8e 3e
       0.24751575 -0.12120727 0.29040343 0.2774985
000180 4c 01 ac 3c c8 ad 97 3e 39 1f 12 bf 05 91 b5 3d
       0.020996712 0.29624772 -0.5707889 0.08865551
000190 59 5d 23 3e 30 7c 70 3e 26 db 95 be ef 25 ea 3e
       0.15953578 0.23484874 -0.2926876 0.45732066
0001a0 94 95 6f 3e 02 c5 4f 3e 95 70 43 3e dd 4a ac 3e
       0.23396903 0.20289996 0.19085915 0.33650866
0001b0 1c 53 62 3d f6 7f e7 3e 01 50 97 3d 00 d0 a5 3e
       0.05525504 0.45214814 0.073883064 0.32385254
0001c0 81 86 b8 3e 10 8f 97 3e ea 35 b0 3d c1 3d b1 3e
       0.36040118 0.29601336 0.08604033 0.34617427
0001d0 b8 70 02 be 69 bb ce 3e 5d 5a b6 be d6 8d a8 3e
       -0.12738311 0.40377358 -0.35615817 0.32920712
0001e0 e4 cb 55 bc 3b 80 d9 3d 42 c0 e2 be 76 8f 71 be
       -0.0130491 0.10620161 -0.44287306 -0.23589882
0001f0 91 4d 84 bd 27 d9 89 3d 82 7b 52 3e a7 c2 9e bd
       -0.06460107 0.06730872 0.20554927 -0.07751971
000200 d3 02 09 bf c3 1d 36 be 77 c4 95 be 76 81 cc bc
       -0.53519934 -0.1778479 -0.29251453 -0.024964076
000210 bd 8e d9 be d6 43 e6 bd d6 69 9a bc ea 10 ad 3d
       -0.42491713 -0.112434074 -0.018849295 0.08450492
000220 17 ec 42 3d bc 23 dc 3e af a4 b3 3d 1d 82 84 3d
       0.047588434 0.42996013 0.08771645 0.0647013
000230 03 44 06 be 76 a8 20 3e ac 81 cc 3c dc 70 35 3e
       -0.13111882 0.15689263 0.024964176 0.17718834
000240 9a 71 86 bc b9 23 08 be b8 e6 18 3c f6 17 a8 3d
       -0.016411591 -0.13294877 0.009332351 0.08207695
000250 16 0e 24 bf 86 e5 2f 3e d3 e7 53 be d8 f6 fd 3d
       -0.64083993 0.171774 -0.20693903 0.12400597
000260 6a 81 ff bd fd 65 e3 be fd 78 ad 39 e8 2e b7 3e
       -0.12475856 -0.44413748 0.00033087275 0.35777974
000270 73 85 ca 3e 53 17 85 3e 2f 04 f0 3e 15 b9 d7 3d
       0.3955494 0.25994357 0.46878192 0.105333485
000280 13 94 37 3d e8 39 bc be 1b 36 0e 3d 5c 0c c2 bd
       0.04481895 -0.3676293 0.034719568 -0.094750136
000290 fe 11 20 3c bb d0 0a bd 52 1e 34 be e8 2e 6f be
       0.009769915 -0.033890467 -0.17589691 -0.23357737
0002a0 6e d9 c5 3e 5c 84 af be 11 f9 0b 3d 23 64 e6 3d
       0.38642448 -0.3428067 0.034173075 0.11249568
0002b0 36 9a c2 3d d2 96 a1 3c 63 4b 06 3e b4 51 c9 3e
       0.0950207 0.019725237 0.13114695 0.39320147
0002c0 70 3c b7 bc bd 74 b8 3e b5 fa d9 3e a8 0c fb 3e
       -0.022367686 0.36026564 0.42574087 0.49033093
0002d0 bc 74 9f be 6e 77 80 3e 80 91 93 bd 51 d3 50 bd
       -0.3114375 0.25091118 -0.07205486 -0.050982777
0002e0 26 84 f7 3d da 15 e7 be 64 a3 cd be 2d b4 a2 be
       0.12085752 -0.4513386 -0.4016372 -0.31778088
0002f0 d8 f5 ec 3d b3 aa c1 bb 07 e6 98 3e 7a 0b 2c 3d
       0.115703285 -0.0059102415 0.29862997 0.042003132
000300 c8 1f bd 3e bb 2c c9 bd bf 23 fb 3e 95 e2 9f be
       0.3693831 -0.09822985 0.4905071 -0.31227556
000310 7c b9 92 3d 4d 8a c3 be bf 00 43 3d 15 b6 15 bd
       0.071642846 -0.38191453 0.047608133 -0.0365506

onnx::LSTM_119 f4 [1, 40, 10]
000000 ff ad 34 bc 17 43 38 3e 28 c0 3f 3e fa 5b b4 3c
       -0.011027812 0.17994343 0.18725646 0.022016514
000010 f1 99 56 bd 2c f9 eb be 7d 68 91 be 56 99 32 3d
       -0.052392904 -0.4608854 -0.2840003 0.043603264
000020 6e f2 63 3e 78 25 fc bd d6 58 ed 3e 90 d3 f4 3d
       0.22260448 -0.12311834 0.4635684 0.11954415
000030 98 0d b9 3d 0a b9 8f be 9e bf 1c be d0 41 1e 3d
       0.09035796 -0.2807086 -0.15307471 0.038636982
000040 3f 17 29 3d b3 48 72 be c9 a7 63 3e f4 0f 71 be
       0.041281935 -0.23660545 0.22231974 -0.23541242
000050 10 bc ae 3e e0 7a 94 bd 75 91 0b be 12 8b f2 3d
       0.34127855 -0.07249999 -0.13629706 0.11842932
000060 47 dc bb bc bd 2d 6e 3e 5b d0 38 3c 3b d0 ee 3d
       -0.022932185 0.23259635 0.011280145 0.116608106
000070 7d 42 41 3e d2 cf 7b 3c 8f d4 9a be 77 8c 81 bd
       0.1887302 0.015369372 -0.30240294 -0.0632562
000080 d2 c3 4d 3e 88 60 d9 bd d2 16 d7 bd 98 18 2b 3e
       0.20094231 -0.10614115 -0.105023995 0.167086
000090 9f 37 d5 3d 44 7e 02 3e e6 44 c4 3e 56 b0 40 be
       0.104109995 0.12743479 0.38333815 -0.18817267
0000a0 36 a7 fe 3d a9 85 e2 be df 04 2d be b4 59 81 3e
       0.12434237 -0.442426 -0.1689639 0.2526375
0000b0 04 4e 94 3e 90 0f c9 3d 6f c3 9a bc e1 6e a5 3e
       0.2896577 0.098174214 -0.018892018 0.32311156
0000c0 e4 11 f1 be df 68 cf 3e e5 bc 0b bf be 99 0f be
       -0.47083962 0.40509698 -0.54585105 -0.14023492
0000d0 fd 4d c8 be 74 bf ae be 3b 10 c1 3e e0 58 79 be
       -0.39122 -0.34130442 0.37707695 -0.2435031
0000e0 3a 7e bd bc 78 6a 82 be 1d ac 15 3d d2 87 ec be
       -0.023131479 -0.25471854 0.036541093 -0.46197373
0000f0 90 d9 29 3e dd ad e4 bd 2e 35 41 3d ab 88 8e bd
       0.165869 -0.11165974 0.047169857 -0.06959661
000100 7f 9d e9 bd 71 ad a9 be 42 c3 9b be b3 04 ee 3e
       -0.11406993 -0.33140138 -0.30422407 0.4648796
000110 ba 33 da bb 93 8f df 3e f3 fa 98 3e e6 be 37 3e
       -0.0066589983 0.43664226 0.2987896 0.17943916
000120 a2 e7 de 3d 93 de 78 3e e9 9c e8 bd 4a e0 2c bc
       0.10884024 0.24303655 -0.11358053 -0.010551522
000130 9e 42 a8 3d 70 45 47 be aa ac b9 bb 12 9d 90 be
       0.08215831 -0.19460082 -0.005666335 -0.28244835
000140 95 d1 63 be 0d 72 8f 3c a6 16 2d 3d 87 86 64 3e
       -0.22247918 0.017510438 0.042257927 0.22316943
000150 78 d9 55 be b2 54 80 be 70 70 91 be 71 23 27 be
       -0.20883739 -0.25064617 -0.28406096 -0.16322114
000160 6e 75 42 3d ce 54 50 be 8c 3c 48 3e 91 8e c5 be
       0.04747527 -0.2034485 0.19554347 -0.38585332
000170 de 5a ae 3e 4f 57 cf 3d b4 3d 53 3e bd 66 6f 3d
       0.340537 0.10124075 0.20629007 0.05844759
000180 a5 0d ce bc d9 c9 84 3e 6a 64 2d 3d 3c 26 db bd
       -0.02515299 0.25935248 0.04233209 -0.10700652
000190 53 3e 4d bd c0 a2 17 3d e6 4b 79 3e d7 bd e7 3d
       -0.050108265 0.037020445 0.24345359 0.11315506
0001a0 4d 4d 5a be 4d 11 67 3e be 61 5f be bd 44 44 3e
       -0.2131855 0.22565193 -0.2181463 0.19166847
0001b0 e4 43 4d 3d 9b af 4e bd bf e7 b4 3e 72 d1 05 3c
       0.050113574 -0.05046044 0.35333058 0.008167611
0001c0 b3 60 d8 bd 2e 1b 86 bd 35 c7 93 3d c4 55 bb 3e
       -0.10565319 -0.06548153 0.0721573 0.3658887
0001d0 7a 6a ba 3d 52 a6 7f bd ec ad 1a 3e 29 2e 14 3e
       0.0910234 -0.062414475 0.15105408 0.14470734
0001e0 25 bf 52 3c 30 33 9c be bb c6 af 3e f6 20 4b be
       0.012862955 -0.30507803 0.34331307 -0.19836792
0001f0 fc 45 55 3e e5 f8 81 3d 29 25 37 3c e4 fc e9 bd
       0.20827478 0.06346301 0.011178293 -0.11425188
000200 3a b4 46 3e 7c 12 b4 3e 0b 18 6b 3d eb f0 8f 3e
       0.19404688 0.35170352 0.057395976 0.28113493
000210 d4 89 2f be 2c eb 58 bd a5 5c 95 bd 16 ab 50 3f
       -0.17142421 -0.052958652 -0.07293061 0.81511056
000220 63 b0 3b be 3b fb d6 bd 5d 5c 8b 3e 88 d7 29 be
       -0.18329005 -0.10497137 0.27218905 -0.16586125
000230 f7 4f ab 3e ac d1 cf be be a2 79 3e a5 60 9f 3c
       0.33459446 -0.40589654 0.24378487 0.019455263
000240 ba 47 95 bd b2 76 77 be 56 88 46 3e f0 d3 61 3e
       -0.072890714 -0.24166372 0.19387946 0.22053504
000250 54 04 04 bd d5 eb b5 bd ab 73 cf be db cd 74 bd
       -0.03223069 -0.08882872 -0.40517935 -0.05976663
000260 78 9b 06 3d 57 df 51 be 59 ec 87 3e 88 1c 64 be
       0.03286311 -0.20495354 0.26547506 -0.22276509
000270 e9 81 ee be 22 51 96 3c cb bc 79 3d 9f 1a 82 be
       -0.4658349 0.018349234 0.060971063 -0.25410935
000280 c1 79 7f be 26 c9 a0 bd 55 e2 4b 3e 34 d1 17 be
       -0.24948789 -0.07850866 0.19910558 -0.14825898
000290 6e ba ba 3e 6d 99 99 be 9f 5a e1 bd cc ff ea 3e
       0.3647036 -0.29999867 -0.11003613 0.45898283
0002a0 00 b6 8a bc 8f 0d 2a be 7f 45 e0 bd 73 eb 59 3e
       -0.016932487 -0.16606735 -0.10950755 0.21281223
0002b0 c9 0d d4 bd 58 e8 82 3e d0 d8 db 3b 06 9b 05 bd
       -0.10354192 0.2556789 0.0067091957 -0.032618545
0002c0 6d ab 35 bd 1f c1 15 bd 0b b6 db 3e e3 ab 6c 3e
       -0.044352937 -0.036561128 0.42912325 0.23112445
0002d0 87 84 99 be 3c eb 72 3e d9 17 a0 be 47 ef 34 3e
       -0.29983923 0.23722547 -0.31268194 0.17669402
0002e0 60 76 df bd fc bc 81 bd 17 db 5a be 9d c3 bc be
       -0.1091125 -0.06334874 -0.21372639 -0.3686799
0002f0 c8 23 ac 3e 97 58 06 3e 67 08 7b be c8 37 8f be
       0.3362105 0.13119732 -0.24514924 -0.27972245
000300 af e5 24 3e 1d 41 32 be 03 b4 33 be 83 64 e0 bc
       0.16103242 -0.17407651 -0.17549138 -0.027391678
000310 5a f3 ba 3d da 61 da bd 85 f1 63 be 81 17 14 bd
       0.09128447 -0.10663195 -0.22260101 -0.036155228
000320 49 67 01 bf 0b eb cd 3e d1 45 53 be 21 72 1d be
       -0.50548226 0.40218386 -0.20632102 -0.15375568
000330 35 ab a4 be 62 40 50 be e8 da e4 be 01 48 9e 3d
       -0.3216187 -0.2033706 -0.44698262 0.077285774
000340 cd c5 27 3e 10 12 cc be 1f 4b d6 3e 09 3d 7c be
       0.16384049 -0.3985753 0.41854188 -0.24632658
000350 7e 56 1f bd 15 c0 a3 3e dd 49 b0 be 52 09 c8 3e
       -0.038900845 0.31982484 -0.34431353 0.3906961
000360 c1 fc 03 3f 26 f8 f9 3d 49 70 02 bd 07 04 cf bd
       0.51557547 0.12205534 -0.031845365 -0.1010819
000370 e9 84 29 3e 4c 45 a7 3d a2 0a 80 3e 20 4b a4 bc
       0.16554607 0.08167514 0.25008112 -0.020055354
000380 ba 7d 44 bd 76 45 7e 3e 2a 8e 3d be 76 b9 72 be
       -0.047971465 0.24831185 -0.18511263 -0.2370356
000390 e6 a3 5b be e0 4e 26 3d 71 a9 1f 3e a6 8b 8c bd
       -0.21449241 0.040602565 0.1559198 -0.06862573
0003a0 0a 6a 5f 3e 8a 22 ee 3d 3d 8c 96 be da 24 7c bd
       0.21817794 0.116276816 -0.29403868 -0.061558582
0003b0 2d 51 ae 3e b9 58 c7 bc fb ba 31 bc 7b 95 6a be
       0.34046307 -0.024334298 -0.010847802 -0.22908585
0003c0 cb 03 44 be 7d 66 e6 be b4 24 ba 3e 93 b4 14 be
       -0.19142072 -0.45000067 0.36356127 -0.14522009
0003d0 71 78 af 3e 49 c1 a6 be 1c d1 8d bd bf c2 a5 3c
       0.34271577 -0.3256934 -0.0692465 0.020234464
0003e0 98 21 d0 3d 3a d2 08 be 79 c8 c3 be 9a 33 74 be
       0.101626575 -0.13361445 -0.38238886 -0.2384781
0003f0 d1 81 8e 3e 0a ae 20 3e e1 39 9c bd 4a 18 d2 be
       0.27833417 0.1569139 -0.07628227 -0.41034156

onnx::LSTM_120 f4 [1, 80]
000000 0a 4f 7b bd 4b 08 98 3d dd 92 f4 3c d6 a1 80 3e
       -0.061354674 0.07423457 0.029855186 0.2512347
000010 31 45 23 3e ec 04 c4 3e 32 4f bb 3b db df 1f bd
       0.15944363 0.38285005 0.005716228 -0.039031845
000020 49 d8 00 3d 58 a0 9a be 01 7a 1e 3e 36 bd be 3e
       0.031456266 -0.30200458 0.15476228 0.3725373
000030 e2 8f 27 be 2d 95 25 3c a5 8b 54 bc 58 47 83 bd
       -0.1636348 0.010106367 -0.012972747 -0.06410092
000040 de e5 b1 be 16 4b ab bd 55 39 ac 3e 66 34 0a bd
       -0.34745687 -0.08363931 0.3363749 -0.033741377
000050 2b da 83 3e 39 d4 8e 3e 81 06 b2 3a f2 15 21 3e
       0.25752386 0.27896288 0.001358226 0.15731028
000060 b4 c7 b9 bc ab 33 d6 bc c3 4d 92 be 36 3d b1 3e
       -0.022678234 -0.026147684 -0.28574952 0.34617013
000070 24 30 9b bd b2 62 e6 3c 05 db e9 be 59 8f 85 3e
       -0.075775415 0.028123233 -0.4567491 0.26085928
000080 ed 6c 57 be 1b 49 69 3e 94 d5 8d bd b6 ce 5a 3b
       -0.21037646 0.22781794 -0.069255024 0.003338737
000090 5a 70 20 be 22 ba 5c be 75 62 5f bd 7e 26 6e be
       -0.15667859 -0.21555379 -0.054537255 -0.23256871
0000a0 b1 d3 9e 3e 03 20 31 3d 35 80 93 be 13 3d e5 bc
       0.31020883 0.04324342 -0.28808752 -0.027983224
0000b0 04 ca ec 3d 56 ad a9 3d df 0f 34 3e 77 44 ad 3e
       0.11561969 0.08285014 0.1758418 0.33841297
0000c0 9b fc 40 3e f5 cb 83 be d6 c1 8b 3e 30 37 2f bd
       0.18846361 -0.25741544 0.27296323 -0.04277724
0000d0 f2 e8 4c be a4 24 8b 3e 9c bd e5 be 4a d1 96 bd
       -0.20010737 0.27176392 -0.44871223 -0.073641375
0000e0 ee 66 3d 3e d0 bb 3f bd f5 a0 f0 3e 64 dc 9c be
       0.18496296 -0.04680997 0.469978 -0.30636895
0000f0 e3 e5 d8 3e cf 31 f1 bb 03 a3 c2 be 3a 6e 26 be
       0.4236289 -0.007360674 -0.38014993 -0.16252986
000100 3a 11 21 be b0 63 a5 3e c5 ea e5 bd 23 4b 74 be
       -0.15729228 0.32302618 -0.11226419 -0.23856787
000110 34 59 4b 3e ec 5a 35 3e e8 01 a3 bd 78 2e 73 3e
       0.19858247 0.17710465 -0.07959348 0.23748195
000120 70 a8 d9 bd 47 03 9b bd 7f f5 42 3e db b9 91 be
       -0.1062783 -0.075689845 0.19038962 -0.2846211
000130 c3 8e 0a bd b9 74 79 be ca 1a cf bd bb 5e 2c 3e
       -0.033827554 -0.24360932 -0.101125315 0.16833012
