models/SYY_model.onnx (onnx, 40199 bytes, 5 tensors)

fc.weight f4 [5, 10]
00000000: 352d b33d 6f3e 2c3c 37ff 8fbe bcb5 cd3e
00000010: 39c7 dc3e 994e 3a3e 1712 ffbc 081a 25be
00000020: b35e b93e c2b7 c63e 7e76 31bd 1a40 abbd
00000030: e161 193e 613c 743e 14bd e53d d5d3 e13e
00000040: 10e0 c2be 58cc a1be d856 613e 56c7 1ebd
00000050: 02e5 a73e 33db 603d fee7 89bc 8859 673e
00000060: 6c65 013f a116 d33c bcdf fcbd 0712 7cbe
00000070: 7728 a43e a576 9bbe b0a8 7dbe 59ec 8dbd
00000080: 0338 87be bf89 b3b9 1b20 babe 8c54 b33e
00000090: 3851 31be 7e52 2fbc c75a d33c 1400 7d3e
000000a0: 77e7 6a3e 6684 8a3e 383d c0bd f813 ce3d
000000b0: ebbf 8c3e cfeb 4f3d cd30 8bbd 9bd0 f2be
000000c0: 8ae2 a73e dc8a 393e
0.08748857 0.010512932 -0.281244 0.40177715 0.43120745 0.18194045 -0.031136556 -0.16123211
0.36205062 0.3881207 -0.043325894 -0.08361836 0.14978744 0.23851158 0.112177044 0.44106928
-0.3806157 -0.31601214 0.22005785 -0.03876432 0.32791907 0.054896545 -0.016834255 0.22592747
0.5054538 0.025767626 -0.123473614 -0.24616252 0.32062122 -0.30363956 -0.2477138 -0.06929845
-0.2640992 -0.0003424417 -0.3635262 0.35025442 -0.17316139 -0.01070082 0.025800122 0.24707061
0.2293986 0.27054137 -0.093866765 0.100624025 0.27490172 0.050761994 -0.067964174 -0.47424778
0.32790023 0.18119377

fc.bias f4 [5]
00000000: 9b96 7fbd fd06 77bd 80a0 0a3e 8f25 0bbe
00000010: d1bc 003e
-0.062399488 -0.0603094 0.13537788 -0.13588546 0.12572028

onnx::LSTM_118 f4 [1, 40, 5]
00000000: 024d 5cbe 8a9a 4cbe 0bc6 a0be 28ac ca3e
00000010: 1464 b33d 8032 c5bc f0a2 32be 7164 eabe
00000020: f344 863e 8d6e 36bd 95bb c5be 0130 97be
00000030: 88c1 f9be 3d47 1ebf bc71 a3be b13f 483e
00000040: b117 e33e 942d 9c3d 6b9b a13e 639d bf3d
00000050: 723c 343e 74ec 813e 5fac 9a3e 7939 ef3e
00000060: ec2a c43e aa6f 0cbe 1a64 be3e cd8f 813e
00000070: 5f90 1d3e 2258 ab3e e94a 47bd 4b85 c93d
00000080: b3d3 5abd d1e1 c33e e834 c13e ff6a 953d
00000090: 27b2 3f3e fd76 783e 12f5 a73e 68be d23e
000000a0: 67d3 8e3e cf69 6a3e 0f5c bf3c 96d5 033e
000000b0: 75a2 babd 24ad 32be 2fa3 883e bd82 7d3e
000000c0: 872c 493f 224d 41be 715b a0bd 3fb5 07bf
000000d0: cd79 21be b780 f33e 531e 053d b487 84be
000000e0: 4225 d2bc a00b ccbb b80a b63d 6e0c dfbe
000000f0: 286f d0be 77f6 afbe 5c34 0cbd 5e94 08bf
00000100: fdc5 16be 4b7c 833d 19ca 743d f980 c93d
00000110: 016d 5b3d 8fc8 413d c203 8f3e 9bb3 af3d
00000120: 6cab 093f da7f f43e d593 903e f016 bc3e
00000130: fb42 693c 3dfe ac3e 8c6b 5f3f 8ecc 943e
00000140: b9b1 09bd 3369 b3bd 8726 223e 0aa9 09bd
00000150: 3a3c ed3e 1265 ca3e 736e e7bc c39c e43d
00000160: 918a 2ebd 4491 213d 6c3a c03e 7c92 fb3e
00000170: 3f63 0fbd fa5b 233e ff8f 8a3e 143c 4bbe
00000180: 83cc 7dbe c5a7 80bd aab7 e03e 3c55 78be
00000190: 3f0a a0be 9bd0 00bd ef19 d2be 9b8d 4f3e
000001a0: b27b f0be 8dd0 8cbd f584 9dbe cff7 edbd
000001b0: 6bd0 0f3d 6ab7 37be 24f3 d43d b30d e9be
000001c0: 0e99 423d 7bd7 59bd 058b ebbd 8d30 a8bd
000001d0: fe22 013e 6de5 4b3e dd0c 61be 9ff7 b43e
000001e0: bcad 5b3e 090d 593d c8ad cebd 40a4 8cbe
000001f0: 4dc4 df3d 2cda 15be adc1 db3e 06b7 d23e
00000200: 2595 a63e e95d b03e 97ec 2c3e d7cd cf3d
00000210: 8fcd b4bd 40e6 c13e 5aa4 3a3e 1249 b73e
00000220: 7747 a73e f068 82be 4afb 40be 4375 913e
00000230: e3e0 7dbd c09d 14bc 10da a23e 90c9 a9bd
00000240: fa42 cb3e 4568 92bd 23a3 df3d 119b 3f3e
00000250: e20f 303e 0be1 173e 5694 233d 537e 893e
00000260: aa89 883e 673f 533d 7199 4a3e c956 0f3b
00000270: e368 8e3c 74a1 e13d dca9 aebd d45d 773e
00000280: e60d b23e bc4a 64be 35b5 623c e32c 993e
00000290: 65ea 123e 1939 c9bd 2f78 493e ec0b 433e
000002a0: 17d5 7e3d 23c9 ee3e 94c9 da3d 1959 973e
000002b0: 38e1 583e ef17 0dbf 04e6 ca3e 41b9 c0bd
000002c0: 9ab5 d63e c7d0 aaba 98e4 023f 9e40 823e
000002d0: 6776 41be 750b e3bd 4e3c bfbe 8fda e7bd
000002e0: 724e 583d 2163 c4be 340f a8be cca5 343e
000002f0: 7efd a1bd d3dd e1be 4193 c23e c23d 873e
00000300: 86c7 b2bd ce91 463e 5b64 d93e e9ec 0f3e
00000310: ceb7 61be e2f7 013e bb50 6e3e 5a70 3a3e
-0.21513751 -0.19980827 -0.31401095 0.3958447 0.08759323 -0.024071932 -0.17444968 -0.45779756
0.2622448 -0.044539023 -0.38619676 -0.29528812 -0.48780465 -0.6182745 -0.3192271 0.19555546
0.44354013 0.07625881 0.31563887 0.09356191 0.17601183 0.25375712 0.30209634 0.46723536
0.38313997 -0.13714471 0.37185746 0.25305024 0.15387104 0.33465677 -0.048655424 0.09839877
-0.05342455 0.38258222 0.37735677 0.072957985 0.18720303 0.2426414 0.3280416 0.41160893
0.27895662 0.22891925 0.023359327 0.12874445 -0.091130175 -0.1744886 0.26687 0.24756904
0.7858357 -0.1887708 -0.07829941 -0.53010935 -0.1576912 0.4755914 0.032499623 -0.25884783
-0.025652532 -0.0062269717 0.08888763 -0.4356417 -0.40709805 -0.34367725 -0.03422962 -0.5335139
-0.14723964 0.064201914 0.059763048 0.09839053 0.05357075 0.04731041 0.27932554 0.08579179
0.53777194 0.47753793 0.28237787 0.3673625 0.014237161 0.33787718 0.8727348 0.29062313
-0.033616755 -0.087602995 0.1583501 -0.033608474 0.46335012 0.39530236 -0.028250908 0.111627124
-0.042612616 0.039445177 0.37544572 0.49135196 -0.035006758 0.15953055 0.27062985 -0.19847137
-0.24785046 -0.062819995 0.43890125 -0.24251264 -0.31257817 -0.03144894 -0.4103541 0.20268862
-0.46969372 -0.068757154 -0.307655 -0.11619531 0.035110872 -0.1794106 0.10397938 -0.45518264
0.047509246 -0.053184014 -0.11501125 -0.08212385 0.12611005 0.19911738 -0.21977563 0.3534517
0.21452993 0.052990947 -0.1009174 -0.27469063 0.10926113 -0.14634007 0.429212 0.4115526
0.32535663 0.34446648 0.16887127 0.10146683 -0.0882827 0.3787098 0.18226758 0.35797936
0.3267171 -0.25470686 -0.18845859 0.28409776 -0.061982047 -0.009070814 0.31806993 -0.08290398
0.39699537 -0.07148794 0.10919788 0.18711497 0.17193559 0.14831941 0.039936386 0.2685419
0.2666753 0.051574137 0.19785096 0.0021871796 0.017383998 0.11017123 -0.08528492 0.24156886
0.3477623 -0.22294134 0.013837148 0.29917058 0.14347227 -0.09825344 0.19674753 0.19047517
0.062214937 0.4663783 0.10682979 0.29560164 0.21179664 -0.55114645 0.39628613 -0.094103344
0.41935426 -0.0013032191 0.51130056 0.25439924 -0.18892823 -0.1108617 -0.37350696 -0.113209836
0.052809186 -0.3835688 -0.328241 0.17641371 -0.07909678 -0.4411455 0.3800297 0.26414305
-0.08729462 0.19391558 0.42459378 0.14055218 -0.22042772 0.12692216 0.23272984 0.18206921

onnx::LSTM_119 f4 [1, 40, 10]
00000000: b63f d8bd ca42 6abe ce13 d43d d0fc 95be
00000010: ed09 12bf aef1 8cbd a280 b9bd 9965 043f
00000020: 6189 07bf d003 313e ea6e a2be d3d0 6e3e
00000030: f59c b4bc 95c6 b1be b458 623d 41a0 f5bd
00000040: 591d 2c3d 36ce ab3e c618 e4bd 90bf 39bd
00000050: 2f9f 813e f9a9 063f bf45 59be c071 73be
00000060: 3d9d 40be 4fc5 09bf 9623 ab3e 0c65 733e
00000070: 5ad8 8bbc cafb ad3b c314 04bd dbad 533e
00000080: d0c2 f63d 690a ab3e 0beb 3b3d 6d4f f5bd
00000090: 2001 833d 798c 76be 9cd8 e43d 77d2 9a3e
000000a0: c58b 50be 077c 403d 90af 3cbe 65d9 cf3d
000000b0: 5d96 16bc b1b7 ebbd 173f 83be 957a 313e
000000c0: bd9e 843d 809a 03be f545 a43d 0ae6 15be
000000d0: bc53 b8be 6bab ee3d 549e 08be 5fa9 243d
000000e0: 54c3 75be dd16 293e ec8e 76bd a9a6 8d3c
000000f0: e823 cb3e 749e 463c a5f0 083e b5d2 53bd
00000100: 8f58 513e c46f 433e 90f0 173e de21 b7bd
00000110: df6b 90be 0f51 e9bd 8e80 963e 18a3 603e
00000120: aa02 8cbe cc91 9f3d a629 dcbd aa82 52be
00000130: 6aa2 b2bc d314 713d 12c0 fbbd 9090 33bd
00000140: d229 853e 997a 94be 632d c2bd e104 b63e
00000150: 821b 203d cb3f 20be 54fc a5bc e812 783e
00000160: 0d9e 4abe aa6f 0e3d 3211 1dbd ec0b 983e
00000170: 4bbb f03c 624a d3bb d97a 443d 414b 923d
00000180: 5540 633c 5530 6a3e c4f2 57be 4b2c 6e3e
00000190: 3f67 c0be c238 173e a4f1 34be a04e bebe
000001a0: 19be 10bf 51b4 15be 9ad5 cd3c 0e1d f33e
000001b0: 04f5 a4bc e85a 94be 1e5d e73d 9223 afbd
000001c0: f0b4 e5be 4b37 eabe 2755 073d cef1 c5be
000001d0: c943 b63e 2521 b6bd 724d cfbd 86dd 8d3d
000001e0: b0c3 a73e 48a2 533e da49 323e a408 fb3c
000001f0: 116f 99be 5219 b1be 7f9c c73e de84 c03e
00000200: 5cc0 013e e40a 09bf ea18 87bd daa9 d13d
00000210: 9dee afbd b95c f0bc 8614 bb3d f529 80bd
00000220: 0e2a d3be 52c8 31be 1c84 bd3e 8fd0 1d3d
00000230: 60b5 d1bd ea80 25be 1047 78bd 2569 463e
00000240: a194 733d b5c8 f83e 567a dbbe f88b 67be
00000250: 0b51 893d d425 8d3e 7e34 aabd c9a3 aa3d
00000260: d634 b1be 3fa9 6f3d a484 aa3e b2c0 a43e
00000270: 5dc2 adbe 9111 a7bd 2feb d33d be95 2fbe
00000280: cbeb 9c3e b1e3 bc3e e43f 70be eef8 053e
00000290: 01f6 89bd 565a a53e 0dcc 0dbd aa7e e7bd
000002a0: 23f2 4b3e af8c 41be c9ef 9a3e 0fcb 02bd
000002b0: a6b6 ebbd 7ea3 dc3e 3c8a 28bd 3af7 dc3e
000002c0: 6348 3ebe b6a4 51be 4264 0d3f 6ea5 a23e
000002d0: 5743 7a3e 81b5 c53d 7914 1c3d caee 503e
000002e0: 65cc 89bb 1730 a73e d208 bbbd d872 8dbe
000002f0: c1e1 b03e 5b1a 763e 1caa 6fbd 44f3 6c3c
00000300: 5694 77bd 90b5 86bd 886b 52be 6493 dc3b
00000310: 096a 153e 301a d7bd 45fa 463e 2bc6 74be
00000320: ae32 003d 1453 7bbe 7fa7 c13d 9536 05be
00000330: bdf2 04bf 7c52 5dbe 9296 db3e bc72 883e
00000340: 5f35 23be 83b8 3fbe 324a 7abe 9c5e b53d
00000350: e418 5bbe 97e7 db3d 8f6d c03b 89e4 9cbe
00000360: b518 9cbd 8893 753e b9fb 09be cee6 82be
00000370: 142d c6bd a983 86bc 9ace d83d e89a 933c
00000380: 3dec 93be dca0 9ebd e16e e23e d0f6 f9bd
00000390: 729e a83d c8d1 6dbc a32f eebd a695 533e
000003a0: 0c1a 0ebe 4421 bc3d 246b 503e bf5f b8bd
000003b0: 5e78 18be 4438 73be 3bc3 dc3d 4631 7bbe
000003c0: c912 f53d 2770 063e 8998 d9be 1d0c 4abe
000003d0: e9f2 f3bd ecea 69bd ad36 31be 1b95 2dbe
000003e0: 279c 833d c01e da3d cabc 123e c347 59be
000003f0: 4c44 1a3e f723 1abe 04d8 cfbd 685e 60be
-0.10559027 -0.2287704 0.1035534 -0.29294443 -0.57046396 -0.06882034 -0.09057738 0.51717526
-0.52944 0.1728661 -0.31725246 0.23321848 -0.0220475 -0.3472182 0.055260375 -0.11993457
0.042020176 0.33555764 -0.11137538 -0.045348704 0.2531676 0.5260311 -0.21218012 -0.23773861
-0.18809982 -0.53816694 0.33425587 0.23769015 -0.017070938 0.0053095566 -0.032246362 0.2067179
0.12048876 0.3340638 0.04587845 -0.1197804 0.06396699 -0.24077024 0.111741275 0.30238697
-0.20365818 0.04699328 -0.18426347 0.101488866 -0.009191123 -0.11509646 -0.2563407 0.17331918
0.064755894 -0.12851906 0.08021156 -0.14638534 -0.36001384 0.11653789 -0.13341647 0.040200587
-0.24000293 0.16512628 -0.060194895 0.017291384 0.39675832 0.012122739 0.13373049 -0.051714618
0.20443939 0.19085604 0.14837861 -0.089420065 -0.282073 -0.11392414 0.29394954 0.21937215
-0.27345783 0.077914804 -0.10750131 -0.20557657 -0.02180596 0.05885775 -0.12292494 -0.043839037
0.2600847 -0.28999785 -0.09481313 0.35550597 0.039088733 -0.15649335 -0.020261921 0.24225962
-0.19786854 0.03477446 -0.038346477 0.29696596 0.029386183 -0.006448076 0.04796872 0.0714326
0.013870318 0.2287 -0.21088701 0.23259084 -0.3757877 0.14767745 -0.17670304 -0.3716936
-0.56540066 -0.14619567 0.025126267 0.47483104 -0.020136364 -0.28975606 0.112970576 -0.085517064
-0.44864607 -0.4574531 0.033040192 -0.38661045 0.3559859 -0.088930406 -0.101221934 0.06927018
0.32766485 0.20667374 0.17410985 0.030643769 -0.2996755 -0.3458963 0.38986585 0.3760137
0.12671036 -0.5353224 -0.06596549 0.10237475 -0.08590434 -0.029341089 0.09134774 -0.06258003
-0.41243023 -0.17361572 0.37014854 0.038528975 -0.10239673 -0.16162458 -0.060614645 0.19376047
0.059467915 0.48590627 -0.42866772 -0.22611988 0.06704911 0.27567923 -0.08310793 0.08332021
-0.34610623 0.058511015 0.33304322 0.32178265 -0.3393735 -0.081576474 0.10347592 -0.17146966
0.30648646 0.36892465 -0.23461872 0.1308324 -0.06736375 0.32295483 -0.034618426 -0.11303456
0.19916587 -0.18901323 0.30261067 -0.031931933 -0.11509447 0.43093485 -0.041147456 0.4315737
-0.18582301 -0.20472988 0.55231106 0.31766838 0.2443975 0.0965376 0.03810546 0.20403591
-0.004205274 0.32653877 -0.09132542 -0.2762668 0.34547237 0.24033491 -0.05851184 0.014462296
-0.0604442 -0.06577599 -0.20548832 0.0067314375 0.1459123 -0.10503042 0.19431408 -0.2390372
0.031298332 -0.2454341 0.094557755 -0.13009103 -0.5193289 -0.21613497 0.42888314 0.26650035
-0.15938328 -0.1872273 -0.24442366 0.08855936 -0.21396214 0.10737532 0.0058724354 -0.30643108
-0.076219 0.2398206 -0.13474931 -0.25566715 -0.09676567 -0.016420202 0.10586281 0.018018201
-0.28891173 -0.07745525 0.4422522 -0.12205279 0.08233346 -0.014515348 -0.1163018 0.20662555
-0.13877124 0.091860324 0.20353371 -0.09002637 -0.14889666 -0.23751932 0.10779425 -0.24530515
0.119664736 0.1312872 -0.42499188 -0.19731183 -0.11911566 -0.057108805 -0.17306013 -0.1695141
0.06426268 0.10650396 0.1432983 -0.21218781 0.15065116 -0.15052782 -0.101486236 -0.21911013

onnx::LSTM_120 f4 [1, 80]
00000000: 2d2c edbc df7a ddbe 55e3 eebe 1c72 5fbe
00000010: eae1 183e 07f8 0cbe ea35 77bb ad22 9d3e
00000020: e6c3 2b3e a016 473e fbc7 2b3e 69a5 b0bd
00000030: e5d3 b0be 7dd1 303e 4b94 6f3e fa51 bb3d
00000040: ab9a 38be b223 ee3e 9da7 a93e 129e ce3d
00000050: 60b3 613e cdb6 27be e7c7 7bbe e777 8dbe
00000060: 9cc1 463e a74f ca3d 0861 3fbd 6ec2 573e
00000070: 25da a03d 1a1b 4d3e 6f0a 1b3e 6059 9cbd
00000080: a1cd 0a3d a8b1 653e b08c acbe 0cbe d63e
00000090: 8ad8 80bd 3397 213e 93ff 643e 1029 403e
000000a0: bfe2 5ebe 0d7a f03d 4d61 89bd 7bd8 94bd
000000b0: 7878 2b3e 4436 0b3e 9557 6d3e 151e 583e
000000c0: b73e 07be 45b5 113d ebd9 373e 7f46 d63d
000000d0: 25fa 0cbf 3e0e 743e 62b2 ec3e 1414 c8bd
000000e0: 2923 453e 6216 8c3e 15f1 443e cad0 08be
000000f0: eb3b 86be 5655 d73d 211e 4a3d 21e3 7ebe
00000100: dbb3 8a3d eaad e4bd 189f 3e3d cb5e 413d
00000110: 3312 98be e964 2e3d 6023 6bbe 026a 9ebd
00000120: 92dd 12be d156 8e3e 3a03 cb3d 53dd 94bd
00000130: 1336 1cbe 7deb 9f3c d6ff 1bbe db07 ff3d
-0.028951729 -0.43257806 -0.46657816 -0.21820873 0.1492993 -0.1376649 -0.0037721344 0.30690518
0.16773948 0.19442225 0.16775505 -0.086252995 -0.34536663 0.17267413 0.23396413 0.09146495
-0.18027751 0.46511608 0.3313569 0.10088743 0.22041082 -0.16378327 -0.24587975 -0.2763054
0.19409794 0.09878474 -0.046723396 0.21070263 0.07854108 0.2002987 0.15140699 -0.076342344
0.03388751 0.22431052 -0.33701086 0.4194187 -0.062913015 0.15780334 0.22363119 0.18765664
-0.21766184 0.11742029 -0.06708012 -0.07267853 0.16745174 0.1359492 0.23177941 0.21105225
-0.13207518 0.035573263 0.17954223 0.10462665 -0.5506919 0.23833558 0.46229845 -0.097694546
0.19251694 0.27360827 0.1923259 -0.13360897 -0.2621759 0.105143234 0.04934514 -0.2489133
0.06772586 -0.11165984 0.046538442 0.047209542 -0.29701385 0.042576704 -0.22962713 -0.07735063
-0.14342335 0.2780061 0.09912725 -0.07268777 -0.15255003 0.01952147 -0.15234312 0.1245267
