models/TSCO_model.onnx (onnx, 40199 bytes, 5 tensors)

fc.weight f4 [5, 10]
00000000: 6410 32be 3c61 1d3e b9bb e2be 5075 07bd
00000010: 0c0f c7bd e6ff 6bbd 06da df3e 1d2e b33e
00000020: b790 b33e fd9a 8e3e 5b20 07be 9ed4 873e
00000030: f9ee c0be 1889 5fbe b5f0 c33d e00b 063c
00000040: d9d7 033f 008a 8d3d 00cd 07be f264 ad3e
00000050: cf1c 373e c239 543e aa81 f2bd b708 d0be
00000060: 0545 bd3e 9d10 ae3d da50 c93e c1c2 d53d
00000070: 9de2 853e 0d30 713e 593b 203d 3a4d 753e
00000080: e92f 723e 8dfe 1e3e 1112 12be 6764 b43d
00000090: 0d9a 96bc 97d3 153e 7edd 01be 8cba fb3d
000000a0: a777 b13e d025 ec3e 9ebd 293d fecc 05bf
000000b0: a7a0 933d 8eb4 223e 66b3 9abd baee 423e
000000c0: 9e6d 663e 2ede dc3e
-0.17389065 0.15369123 -0.44283846 -0.033070862 -0.09719667 -0.05761709 0.43721026 0.3499612
0.35071346 0.27852622 -0.13195936 0.26529402 -0.37682322 -0.21829641 0.095673956 0.008181542
0.5150123 0.06911087 -0.13261795 0.33866078 0.17882083 0.20725158 -0.11841138 -0.4063165
0.3696672 0.084992625 0.39319497 0.10437537 0.26149455 0.23553486 0.0391191 0.23955241
0.23651089 0.15526791 -0.14264704 0.08808213 -0.018384004 0.14631496 -0.12682149 0.1229144
0.346616 0.461226 0.0414406 -0.5226592 0.072083764 0.15889189 -0.07553749 0.1903638
0.22502753 0.4313826

fc.bias f4 [5]
00000000: 88c3 d73d 0f83 fbbc 7b93 583e 11c5 98bd
00000010: aa75 673e
0.105353415 -0.030702142 0.2115001 -0.074594624 0.22603479

onnx::LSTM_118 f4 [1, 40, 5]
00000000: 5702 84be 96d0 0cbe f672 b6be 906a ba3d
00000010: 51d5 a2be 513c 033e 0aa4 99bd 5a4e bf3d
00000020: a89f 593e 28e4 ce3e 27ec 8b3e 5612 b73e
00000030: 08b6 a03d 7ff4 bdbe 2983 803e 42d6 9e3e
00000040: f493 ae3e 2f25 f1bd 2534 033e 8b1f b63e
00000050: 5cda b9be d7f0 8ebe cce3 e8be 6716 953d
00000060: a533 e1be bb0a bcbe 603d 8abe 1ee1 cabe
00000070: 7b5d c6be c0cc 8bbd 1408 8cbd 1e3c dcbd
00000080: d868 f23d bf2e 503e f699 2a3d a27d 90bd
00000090: 299c 1cbb f58a 513e 71f3 a23d 5c36 df3d
000000a0: 78dd cb3d c884 913a 3b97 94bd dd85 e03e
000000b0: ec15 84bd 0545 b33e d2fa 983e 8edf 073e
000000c0: e382 90bd 07d6 c03e de28 eabc ca16 b2be
000000d0: 8b48 d2be 4615 703d c38f 29be 2fa8 783c
000000e0: 17dd af3e fd63 b53e d03e 613e e4e4 4d3e
000000f0: 1cef 873e 2208 d43e c56a 6e3e 6895 eabe
00000100: 847e f43e 82ca 15bc fde6 18bd 8fb9 063f
00000110: 94a2 64be 0ee6 943e cb3c 06be 5d60 23ba
00000120: c977 6fbe 394a cf3e 840d 0fbf a942 94be
00000130: 8d5c 233e ad6b 2a3e 68ef 93be 61b1 50be
00000140: 600f 003e 0c18 4ebd 9091 073f 4c7f 433e
00000150: 1e90 073f df87 39be be2c ca3e f135 513e
00000160: 9fbc a63d f028 413e 8add ddbd 82bf e5be
00000170: 9492 6bbe 93ce a43e d225 c6be 6c98 bcbc
00000180: 954e 043f e32b 153d 24ff 4a3e 5d6e df3e
00000190: 90f7 953d f55c a6bd 84de 24be a3ee 64be
000001a0: 90f2 b6be eecc 05be a70c c93e eba8 8d3e
000001b0: 81d2 db3d 1a75 fd3d 2242 223d 7545 c4bd
000001c0: 18e1 dbbc 705b 2dbf d5f0 c13c 7004 77bd
000001d0: f458 e63d dfca 3fbd cffc 64be 12f9 3abb
000001e0: e9a7 94be ceb3 e3be e2b5 c1bd 0377 8bbe
000001f0: a66a a0be 6cf0 f8bd 84e2 8abe 17f9 103e
00000200: 0bb9 a2be 3040 4bbe 2b54 c03e 9132 9c3e
00000210: be17 883e be48 9fbe 7549 003e 32aa 3d3e
00000220: 92e1 eebd 505f 0cbe 2c15 84be b65f 043d
00000230: ed67 433e b62a afbd ec12 493c 2513 0b3f
00000240: 828b 38be 6c33 2c3e d2cb 883d 4b63 babd
00000250: 80d3 83be 0f73 323d 792b b23d c03a 16be
00000260: ef81 87bb ef7c f0be 761b 64bc 028d 633d
00000270: 54bd ba3d 7579 0a3e cb0c ba3d 1f73 c13e
00000280: 2f21 e6be 56d2 03be 48b2 3abe acc9 82be
00000290: 36e3 73be acb0 51be e943 ebbe b90e cebe
000002a0: 7294 463e f590 a0bc 1a56 e5be 4068 443d
000002b0: 2d8b 293c a982 85be 0289 88bc ae7e bdbb
000002c0: 6a4a e0b9 b4bf 4a3d 9480 55be 5c13 233d
000002d0: 6b8a e83e c4e9 6e3e e768 a03e 7d1a 27be
000002e0: 0580 96ba 02e9 e5bd 8b29 cc3e ddfb 513e
000002f0: e767 8b3c 93e9 503d b607 71be bdf1 233d
00000300: 9c6f edbc 28e5 a0be 8b65 1d3e 4a92 d53c
00000310: e364 563e b4ab cf3e 76fa 343e 7012 7a3e
-0.25783035 -0.13751444 -0.35634583 0.091023564 -0.31803373 0.12815978 -0.07501991 0.09341116
0.2125231 0.40408444 0.27328607 0.35756177 0.0784722 -0.37100598 0.25100067 0.3102284
0.34097254 -0.1177467 0.1281286 0.3557094 -0.36299407 -0.2791812 -0.45486295 0.072796635
-0.43984714 -0.36726937 -0.2699995 -0.39624876 -0.38743195 -0.06826162 -0.06837478 -0.10753654
0.118364036 0.20330332 0.041650735 -0.070552126 -0.002389679 0.20463164 0.07956589 0.1089904
0.09954351 0.0011102194 -0.072554074 0.4385213 -0.06449494 0.35013595 0.2987886 0.13268873
-0.07056215 0.3766329 -0.02858394 -0.34783012 -0.4107097 0.058614038 -0.16558747 0.015176817
0.34348366 0.35427848 0.21996617 0.20106846 0.26549613 0.41412455 0.23282917 -0.45817113
0.47752774 -0.00914252 -0.037329663 0.5262689 -0.22327644 0.29081768 -0.13109128 -0.0006232316
-0.23385538 0.40486315 -0.5588 -0.28957108 0.15953274 0.16642638 -0.2889359 -0.20380165
0.12505865 -0.0503159 0.52956486 0.19091529 0.5295428 -0.18118237 0.3948726 0.20430733
0.08141445 0.18863273 -0.10833271 -0.4487267 -0.23005134 0.32188854 -0.3870073 -0.0230219
0.51682407 0.036418807 0.19823891 0.43638888 0.073226094 -0.08123199 -0.16100508 -0.22356658
-0.35731936 -0.13066456 0.39267465 0.27667937 0.1073351 0.12375851 0.03961385 -0.095835604
-0.026840732 -0.6771765 0.023674408 -0.060306966 0.11247435 -0.046824332 -0.22362064 -0.0028529805
-0.29034355 -0.44473118 -0.094585195 -0.27239236 -0.31331366 -0.12155232 -0.27125943 0.1415752
-0.31781802 -0.19848704 0.37564215 0.3050733 0.26580614 -0.31110185 0.12528022 0.18521956
-0.11664118 -0.13708234 -0.25797403 0.03231784 0.19082613 -0.08553068 0.012272578 0.5432609
-0.18021968 0.16816491 0.06679501 -0.0910097 -0.257473 0.04356676 0.08699698 -0.14670849
-0.0041353623 -0.46970317 -0.013922563 0.055554397 0.09118143 0.13522895 0.09084471 0.37783143
-0.44947192 -0.12873206 -0.18232071 -0.25544488 -0.23817143 -0.20477551 -0.4595025 -0.40245607
0.19392565 -0.01960037 -0.44792253 0.047950983 0.0103481235 -0.26076248 -0.016666893 -0.0057829237
-0.00042780052 0.04949923 -0.2084983 0.039813384 0.45418105 0.23331362 0.31330034 -0.16318698
-0.0011482245 -0.11226083 0.39875445 0.20506234 0.017017318 0.051004004 -0.23538098 0.04002546
-0.028983884 -0.31424832 0.15370767 0.026070733 0.20936923 0.40560687 0.17673668 0.24421096

onnx::LSTM_119 f4 [1, 40, 10]
00000000: ae08 28be 5e32 5bbd a557 1b3d 3bef 0b3f
00000010: 5977 88be 9f29 dbbd ea4b b9be 57d7 97be
00000020: 1297 763e 90ed 04be f5d3 a23c 6f16 983e
00000030: 127a 303d 0db5 723e 9d96 85bc 28ad debd
00000040: ec43 04bd 5665 c83d 2a3a 68be da0e 80bd
00000050: 8e5e 3fbe 8753 29be 1f53 cdbd 48b9 75be
00000060: 49ed 17bd fcc2 eb3e 809a 713b 9440 2bbe
00000070: 35d8 ac3e e2c8 4ebe be1a 83be 1925 723d
00000080: 4986 fdbd 5f42 b83d df8a 6f3e 08d9 973e
00000090: be3b 87bd 4bc7 8cbe 9be7 6bbd 6680 323e
000000a0: 9429 fc3c dd9e c73d a447 86be a9f2 ee3c
000000b0: c467 64be d915 023e 2bcf 7abc eab0 413d
000000c0: 7c06 ed3d a205 4e3e 185b 0b3d 14b8 0fbe
000000d0: 56fa c73d 2d02 f03d daf2 2dbe bff3 88be
000000e0: b2ee 533e 5519 11be fd0b 443e 911d 9a3e
000000f0: 5594 c13e db21 4abd 4e33 453d 9b72 733d
00000100: d319 b5bd b5d3 e73d b5af 793e 0bb2 bb3d
00000110: af7e 84be 8f1d 20bd c8cb 163e 289c 433b
00000120: fae0 623e f195 0fbd 0315 a73e 24a5 303e
00000130: c6b3 05be fa6b 463d ef3f ecbd 91c8 65bd
00000140: cc04 9b3d bc16 f2bd 763e cebe 2c30 89be
00000150: 460f cdbe 6a1d 99be b8c8 b93e 43ad 34be
00000160: cacc 123c e107 04bd d30e 4dbe 8fe6 93be
00000170: 7859 33be 4779 1bbe 32fa cb3d 2290 323d
00000180: 8cc9 05be 1f28 403e 75b8 553e d79a 913d
00000190: 10c3 24be 5b8d 61be af3d fe3e 841a 023f
000001a0: d7f7 4ebc dec3 8fbe 8cba 3ebe d38f f0be
000001b0: 5d85 253e aa23 1c3e 20a2 c1bd 3b2e bf3d
000001c0: 5311 6abe 0c54 b8bd 7560 b5bd 25bc 193e
000001d0: 470b c53e 055f a13d 289b b9bc a353 063d
000001e0: 0906 6b3e 569b 573c 8ece 80be 0aeb ef3d
000001f0: 99f1 863e 43cd 053f 9f6c 84be 24eb a63d
00000200: f032 f43e c525 7d3e a9d7 383e d70c 10bc
00000210: 510f 9cbe 14a5 563d 6c52 d239 e781 6a3d
00000220: 9988 2d3e 821c 733e ddae d73d 440c 3f3e
00000230: 9c2a b9bd 5030 c2be 916d 883e 0a25 213d
00000240: 572e 6bbc 77e0 5bbd 71cd f1be b1a2 dabe
00000250: bd73 4fb9 2e4f 923e 061b ccbe cbd7 8e3e
00000260: 336a 3a3e 223b efbe 0a08 aabc 9339 443e
00000270: 5796 f13d 566a 7ebe 3a99 ac3e 7bc4 123f
00000280: 3d83 2bbe 3c0d a23e f771 c9bd d923 4a3e
00000290: 36cb bf3d 599e 383e 4455 29be d7bc 023e
000002a0: b32b 29be 70f5 60be 34e8 a0bd 4530 81be
000002b0: d117 333e ba06 8abe c4bd cd3d 8339 af3e
000002c0: 7442 8e3e 9a9b 7d3e bcab 60bd 9aa7 16be
000002d0: ddf9 afbd 710b 8ebe 5cbf 6fbd f92c 893c
000002e0: 06ee b03b 0a47 f8be de95 a2be 7e5c fa3c
000002f0: 6584 923e a532 e7bd c428 b1bc d9f5 4a3e
00000300: ab3a e8be 18e3 553c 30d5 c8be 4d7b a13e
00000310: 4ed0 3b3e 0b5f e2bd c10f 3fbd fdd9 d5bd
00000320: 8951 b6bd baf6 8cbe 5fd3 f83d 978a d43e
00000330: 6029 01bd bcb6 a0be 6b56 0bbe 9778 4bbe
00000340: a8b5 06be 3e92 99be 328d 853d f49f 64bc
00000350: 8a7a b53d ba41 89be ed2e ba3e b470 553d
00000360: 9c02 35be fe36 03be 1e97 8bbc 16f2 8abd
00000370: a9a0 40be 7dcc 76be 19ff 29be 2459 87be
00000380: 8df8 14be faa4 1c3f c055 433d ed91 38bd
00000390: 7461 0a3e 4a09 0fbd 398a 4cbe cbc0 60be
000003a0: 88c3 bdbd 4c81 f0bd d559 cdbd ecad af3e
000003b0: a06a 5fbe a054 8cbe 84ad 4cbe 242c 4c3c
000003c0: 5730 573e b740 04be 743c de3d fc0e c3bd
000003d0: 6ff3 98be e912 b5be 5779 f0be 4778 4bbe
000003e0: 51ec c03e 5604 983d 53ec c6be 7f2a 93be
000003f0: 35f7 173e 9ea9 523e 8f71 303e ac52 3a3e
-0.16409561 -0.05351483 0.03792538 0.5466191 -0.26653555 -0.10701298 -0.3619073 -0.2965648
0.24081066 -0.12981248 0.01987646 0.29704615 0.043085165 0.23701878 -0.01630717 -0.10872871
-0.032291338 0.09784953 -0.22678438 -0.06252833 -0.18688414 -0.1653577 -0.1002562 -0.2399646
-0.037091527 0.460472 0.003686577 -0.16723853 0.33758703 -0.20193818 -0.2560634 0.05911741
-0.123791285 0.08997034 0.23392819 0.2965777 -0.06603192 -0.27495798 -0.057593923 0.17431793
0.030781545 0.09747098 -0.26226532 0.029168444 -0.22305208 0.12703647 -0.015308182 0.04728786
0.115735024 0.20119336 0.03402242 -0.14035064 0.09764545 0.11719165 -0.16987172 -0.26748464
0.20696524 -0.1416982 0.19145198 0.30100682 0.3780848 -0.049348693 0.04814463 0.05943547
-0.08842816 0.11319677 0.24383433 0.091648184 -0.25877902 -0.03909069 0.14726174 0.0029847715
0.22156134 -0.035055105 0.32633218 0.17250496 -0.1305686 0.04844282 -0.11535632 -0.05609948
0.07569274 -0.118207425 -0.4028203 -0.26794565 -0.40050715 -0.29905254 0.3628595 -0.17644219
0.008959958 -0.032234076 -0.20025186 -0.2888684 -0.17514598 -0.15182982 0.0995983 0.043594487
-0.13065165 0.18765305 0.20871146 0.071096115 -0.16090035 -0.22026579 0.49656436 0.5082171
-0.012632332 -0.28079122 -0.1862585 -0.4698473 0.16164155 0.1524798 -0.09454751 0.0933499
-0.22858171 -0.09000406 -0.08856288 0.15013178 0.38485166 0.07879452 -0.022656992 0.032794606
0.22951521 0.013159594 -0.2515759 0.11714752 0.263562 0.5226633 -0.2586412 0.08150318
0.47695112 0.24721439 0.18051018 -0.008792124 -0.30480435 0.052403525 0.0004011573 0.05725279
0.16946639 0.23741344 0.105313994 0.18657023 -0.0904133 -0.37927485 0.26646093 0.039341964
-0.01435431 -0.053680863 -0.47227052 -0.4270225 -0.00019784174 0.28576034 -0.39864367 0.27899012
0.18204574 -0.46724802 -0.020755786 0.19162588 0.11796253 -0.24845251 0.33710653 0.57331055
-0.16749282 0.31650722 -0.0983619 0.19740237 0.09364931 0.18029155 -0.16536433 0.12767349
-0.16520576 -0.21968627 -0.07856789 -0.2523214 0.17489554 -0.26958257 0.100459605 0.34223565
0.27785075 0.24766389 -0.05485128 -0.14712372 -0.085925795 -0.27743104 -0.058532104 0.016745077
0.0053994684 -0.48491699 -0.31754965 0.030561682 0.28616634 -0.112889566 -0.021625884 0.19820346
-0.4535726 0.013054632 -0.3922515 0.31539384 0.1834118 -0.11053284 -0.046645883 -0.104419686
-0.0890227 -0.27531987 0.12149691 0.41511986 -0.0315336 -0.31389415 -0.13607185 -0.1987022
-0.13155234 -0.29994386 0.065210715 -0.013954151 0.08861263 -0.26807958 0.36363927 0.052109435
-0.17676777 -0.12813947 -0.017039832 -0.067844555 -0.18811287 -0.24101444 -0.16601218 -0.26435196
-0.1454794 0.61189234 0.0476892 -0.04506104 0.13513738 -0.034920968 -0.19974603 -0.21948545
-0.0926581 -0.117434114 -0.100269 0.3431238 -0.21818018 -0.27408314 -0.19988066 0.012461696
0.21014534 -0.12915312 0.10851374 -0.095243424 -0.29873225 -0.3536599 -0.46967575 -0.19870101
0.37680295 0.07422702 -0.38852176 -0.2874336 0.14840396 0.20572516 0.17230819 0.181956

onnx::LSTM_120 f4 [1, 80]
00000000: ef3f e9be eff2 543e ca2e a73e 8758 b43e
00000010: 7ca4 dabc cfe8 5c3d d106 29be 8781 6dbe
00000020: 92d3 853e 688a 0ebe 9055 cdbe 424c bb3d
00000030: 2bb0 fdbd 4a83 cc3e 73bc 0b3e 14e6 383e
00000040: eff9 02be 27d0 6c3e 57b3 8fbd af24 33be
00000050: 4657 5fbe 5b41 02be 86b9 f1bd 0f93 91be
00000060: acd9 ff3c 88c5 bebe d59b 233e 047c b33d
00000070: 8a47 cd3e 7b21 db3d c37a db3c 8bb9 74bd
00000080: f64e d9bc 03a6 773e e75b 6dbe 2913 d1be
00000090: eee7 9a3e a4b4 22be 8281 f9be 71e8 283e
000000a0: 8d79 833c 4458 103e 09a9 4ebd df24 f2bd
000000b0: b765 77be b295 aa3c 3f89 aabd 0d83 dc3d
000000c0: fa0b f53e f6be 98bc 667c d4be bca7 71bb
000000d0: e7d9 3abe 5d40 f83e b75f 4abe 2e02 acbe
000000e0: baaf a7bd 61dc 933e b01a 1ebe 6462 5b3a
000000f0: 7326 90be 77d5 ccbd 3ecd 8ebe 0c72 853e
00000100: 2878 db3d 51df d0bd f0d2 983d d36d 4f3e
00000110: 1a09 a93e 598a 25be dcd3 aebc b8ef a63e
00000120: 02f9 193d 8e25 c8bb 34d1 28bd 9612 353e
00000130: a770 3dbe 9fd6 713e 1123 11be e85d c6bd
-0.4555659 0.20795797 0.32652885 0.3522379 -0.02668976 0.05393296 -0.16506507 -0.23193942
0.26137978 -0.13919985 -0.40104342 0.091454044 -0.12387117 0.39943916 0.13646106 0.18056518
-0.12790655 0.23126279 -0.07016628 -0.17494462 -0.21810636 -0.12720244 -0.11802964 -0.2843251
0.031231724 -0.3726008 0.15977414 0.087638885 0.40093642 0.10699745 0.026791936 -0.05974726
-0.02652691 0.24184422 -0.23179589 -0.4083493 0.30255073 -0.15889221 -0.4873162 0.1649492
0.01604917 0.1409617 -0.050454173 -0.11823439 -0.24159895 0.020823333 -0.08326959 0.107671835
0.478607 -0.018645745 -0.41501158 -0.003687366 -0.18247186 0.48486605 -0.19763075 -0.33595413
-0.08187814 0.28879073 -0.15439868 0.00083688484 -0.28154334 -0.10001653 -0.27890962 0.26063573
0.10716277 -0.10198844 0.07462108 0.20256738 0.33014756 -0.16166057 -0.021341257 0.32604766
0.037590988 -0.0061079925 -0.041215137 0.17682871 -0.18500005 0.23617028 -0.14173533 -0.0968588
