models/UNM_model.onnx (onnx, 40199 bytes, 5 tensors)

fc.weight f4 [5, 10]
0	0xbecb192b	-0.3966764
1	0xbe351406	-0.1768342
2	0xbe861154	-0.26185095
3	0xbd26b464	-0.040699378
4	0xbe8c276e	-0.27373832
5	0x3edff622	0.43742472
6	0x3cd4df8d	0.025985504
7	0xbdd3c3d7	-0.10340088
8	0x3e3642f1	0.17798974
9	0xbe53886b	-0.20657508
10	0xbe1c4722	-0.1526151
11	0xbe376d8c	-0.17912883
12	0xbec5c831	-0.38629296
13	0x3b1e3985	0.002414317
14	0xbddcaa49	-0.10774667
15	0x3e29ac5d	0.16569658
16	0xbe41559c	-0.18880314
17	0xbe88e371	-0.26736024
18	0xbda7f7b7	-0.08201545
19	0xbecccf1d	-0.40001765
20	0xbe0c812e	-0.13721153
21	0xbe9fc4e6	-0.3120491
22	0xbe9d1a98	-0.30684352
23	0x3e00cac5	0.1257735
24	0xbe5d1459	-0.21589793
25	0x3ef6674e	0.4812569
26	0x3dfa4f0e	0.1222211
27	0xbd486ed7	-0.04893383
28	0x3eaa7a48	0.33296418
29	0xbe96e01a	-0.2946785
30	0x3c058551	0.008149461
31	0xbeb9ae04	-0.36265576
32	0x3f1d298b	0.61391515
33	0x3c6edbff	0.014578818
34	0xbd6169ff	-0.055032726
35	0x3d136533	0.035985183
36	0x3ed5317f	0.41639325
37	0xbe92ffd0	-0.28710794
38	0xbe844bcc	-0.25839078
39	0xbe1bea4e	-0.15226099
40	0x3e2adf05	0.16686638
41	0xbe4f13be	-0.20222375
42	0xbe9b3092	-0.30310494
43	0xbe3c1a46	-0.18369398
44	0xbe9ea47a	-0.3098486
45	0x3ec248c4	0.3794614
46	0xbd9ec972	-0.077532664
47	0xbea2f040	-0.3182392
48	0x3e00c9f7	0.12577043
49	0xbe2a0f91	-0.166075

fc.bias f4 [5]
0	0xbd826da5	-0.06368569
1	0xbd904b3e	-0.07045601
2	0xbc072a7b	-0.008249874
3	0xbce6b8c0	-0.028164268
4	0x3e50cfe5	0.20391805

onnx::LSTM_118 f4 [1, 40, 5]
0	0x3d4e5de1	0.0503825
1	0xbe4adc94	-0.19810706
2	0xbd57293c	-0.05252956
3	0x3e193f97	0.14965664
4	0x3eadabc8	0.3392012
5	0x3e56d9bc	0.20981497
6	0x3d80f526	0.06296758
7	0x3e83120e	0.25599712
8	0x3eed43ac	0.46340692
9	0x3eccb1a8	0.3997929
10	0x3f006574	0.50154805
11	0x3f0bf12a	0.5466486
12	0xba96acbd	-0.0011495572
13	0x3f2684bc	0.65046287
14	0x3e95610d	0.29175606
15	0xbd6e02c9	-0.058108125
16	0xbeb41d7a	-0.3517874
17	0xbe5cabac	-0.21549863
18	0xbeb663a8	-0.35622907
19	0xbee4defc	-0.44701374
20	0x3eb3e0e0	0.35132504
21	0xbd63d8e9	-0.055626784
22	0x3ddd05d3	0.107921265
23	0x3c2a11ee	0.010380251
24	0xbe3b4be1	-0.18290664
25	0x3eb23d29	0.34812286
26	0x3d596d25	0.053082604
27	0x3d8c443a	0.06848951
28	0x3de81c7d	0.11333559
29	0x3e89902f	0.26867816
30	0x3d37af4e	0.044844918
31	0x3e6895b4	0.22713357
32	0xbd7834a8	-0.060597092
33	0xbd7806fc	-0.060553536
34	0x3de72cb4	0.11287823
35	0x3da533ca	0.080665186
36	0x3d464b39	0.04841158
37	0x3e781916	0.2422832
38	0x3ede241e	0.4338693
39	0x3e172ea3	0.14763884
40	0xbe28ae89	-0.1647283
41	0xbf070fd2	-0.52758515
42	0xbd4bff06	-0.049803756
43	0x3eaec6b7	0.34135982
44	0xbd312f4c	-0.043257996
45	0x3e6a701b	0.22894327
46	0xbdb391cc	-0.08768043
47	0x3d9646df	0.07337736
48	0x3c5b7a36	0.013395837
49	0x3ec7c8a6	0.3902027
50	0xbe49cc63	-0.19706874
51	0x3ecee201	0.40406802
52	0x3e91f2cc	0.28505552
53	0x3e400d9c	0.18755192
54	0x3e48212c	0.19543904
55	0x3ef12ad2	0.47102982
56	0x3edd571e	0.43230528
57	0xbdb61acf	-0.08891832
58	0x3f2d006d	0.67578775
59	0x3ebe23c3	0.3713666
60	0x3d5051e8	0.050859362
61	0x3ef3a618	0.47587657
62	0xbca235c7	-0.019801034
63	0xbc6aa6a9	-0.014321961
64	0x3e3f3b32	0.18674925
65	0xbe912a2e	-0.28352493
66	0x3e19ebee	0.15031406
67	0x3ded45ef	0.115856044
68	0xbe5c5a16	-0.2151874
69	0x3de93986	0.11387925
70	0x3ebc939d	0.3683137
71	0xbe5ce8a0	-0.21573114
72	0x3df3c9c8	0.11903721
73	0x3d062fdb	0.032760482
74	0x3deb396b	0.11485561
75	0x3e8ef4ed	0.2792124
76	0x3b56d929	0.0032783246
77	0x3f107310	0.5642557
78	0x3daa667a	0.08320327
79	0x3f03cf1e	0.5148791
80	0xbe3cc683	-0.18435101
81	0xbe1cb614	-0.15303832
82	0xbdfdbf9a	-0.12390061
83	0xbeec5638	-0.4615953
84	0x3df178f4	0.11790648
85	0x3e7a93b1	0.24470402
86	0x3dd3345a	0.1031272
87	0x3e3fb23b	0.18720333
88	0x3da953c9	0.08267934
89	0x3e8e72f8	0.2782209
90	0xbe8b5612	-0.27214104
91	0xbe088784	-0.13332945
92	0xbb8b2908	-0.0042468347
93	0x3dabb853	0.083847664
94	0xbef23177	-0.47303364
95	0xb98bdc1b	-0.00026676137
96	0x3f0c2641	0.5474587
97	0x3dff5e9c	0.12469217
98	0x3b9dbb5c	0.0048135947
99	0x3f0741d5	0.52834827
100	0x3ebbc7ec	0.36675966
101	0x3ea0b71e	0.31389707
102	0x3d434d93	0.047681402
103	0x3aeaa121	0.0017900803
104	0x3b00df6c	0.001966442
105	0x3eb478f0	0.35248518
106	0x3e687ca1	0.22703792
107	0x3d69829d	0.05700933
108	0x3ed186c6	0.40923136
109	0xbd37e2db	-0.04489408
110	0xbe816bc7	-0.2527754
111	0xbd6d559a	-0.057942964
112	0x3d0a0a4a	0.03370122
113	0xbecf2eef	-0.40465495
114	0x3e0938b2	0.13400534
115	0x3de091e0	0.109653234
116	0x3dcf1cf8	0.10112947
117	0xbda491aa	-0.08035596
118	0xbe6180d1	-0.22021796
119	0x3dd9a900	0.10627937
120	0xbea32333	-0.31862792
121	0x3e85fcda	0.26169473
122	0xbe49ad50	-0.1969502
123	0xbdc55542	-0.09635402
124	0xbd5ac75b	-0.053412776
125	0x3ec7b17f	0.39002606
126	0x3e96fa91	0.29488042
127	0x3dab4e9b	0.08364602
128	0x3e352111	0.17688395
129	0x3efe3fa1	0.4965792
130	0x3c8714a1	0.016489329
131	0x3e455dcf	0.19274066
132	0x3ea128f5	0.3147656
133	0xbf2885fd	-0.6582945
134	0xbe38a752	-0.18032578
135	0x3b747be2	0.0037305285
136	0x3d629ca4	0.055325165
137	0xbd72ab2c	-0.059245273
138	0x3eebef77	0.46081135
139	0x3ecdd386	0.40200442
140	0xbe962dba	-0.29331762
141	0xbee579be	-0.44819444
142	0xbd5112b6	-0.051043235
143	0xbd9074b3	-0.070535086
144	0xbe7d90a3	-0.24762206
145	0x3ed05455	0.4068934
146	0xbdbf6c65	-0.093468465
147	0x3e23aca9	0.15983833
148	0x3ec5c897	0.386296
149	0xbd5a70d7	-0.05333027
150	0xbeb01d5d	-0.34397402
151	0xbe77278b	-0.24136178
152	0xbe932188	-0.2873652
153	0xbe6a3ddc	-0.2287516
154	0xbd67410b	-0.056458514
155	0xbeb2c573	-0.34916267
156	0xbe64c421	-0.22340442
157	0xbe031fc5	-0.12805088
158	0xbe9648af	-0.29352328
159	0xbde49245	-0.11160711
160	0xbee96b81	-0.4558983
161	0xbea15d50	-0.31516504
162	0xbe9a5051	-0.30139402
163	0x3ef85026	0.48498648
164	0xbf19cff2	-0.60082924
165	0x3d1f7bef	0.03893655
166	0xbe0882e3	-0.1333118
167	0xbc92daa8	-0.017926529
168	0x3e054b49	0.13017
169	0x3ddaf60d	0.10691462
170	0x3dde42b7	0.108525686
171	0xbd0ad5e0	-0.033895373
172	0xbe98be4e	-0.2983269
173	0x3d9a9db7	0.07549613
174	0xbebf954e	-0.37418598
175	0x3e028d3b	0.12749188
176	0xbda128ff	-0.078691475
177	0x3ef56c6e	0.47934288
178	0xbe1675fc	-0.14693445
179	0x3ed8b3a8	0.42324567
180	0xbc4d4a3f	-0.012529909
181	0xbe4a7512	-0.19771221
182	0x3c160325	0.009156023
183	0x3f413228	0.7546716
184	0xbe6fd86e	-0.23422405
185	0xbda94bd2	-0.08266415
186	0xbe9f6121	-0.3112879
187	0xbe8c6ee6	-0.2742836
188	0xbf0e9ee3	-0.5571119
189	0xbde33a5c	-0.110951155
190	0xbd738b8c	-0.059459254
191	0xbcd2ba98	-0.02572374
192	0xbe7bd33f	-0.24592303
193	0xbdc21c32	-0.09478034
194	0xbc45528f	-0.012043609
195	0xbd9e5745	-0.07731489
196	0xbc8ec393	-0.017427241
197	0xbefa4f28	-0.48888516
198	0xbcd64f6e	-0.026160922
199	0xbe52633b	-0.20545666

onnx::LSTM_119 f4 [1, 40, 10]
0	0x3de21d8c	0.11040792
1	0x3d0c8084	0.03430225
2	0x3e4a46ec	0.19753617
3	0xbe355cbb	-0.17711155
4	0x3e155e59	0.14586772
5	0xbe5363aa	-0.20643488
6	0xbe945a53	-0.28975162
7	0xbe866e4f	-0.26256034
8	0x3dd0751d	0.101785876
9	0xbdbf2c51	-0.093346246
10	0x3e7874d8	0.24263322
11	0xbeada6e3	-0.33916387
12	0x3cfbabcf	0.030721573
13	0xbc31a0ab	-0.010841529
14	0x3eafb2d1	0.34316114
15	0xbe4a5381	-0.19758417
16	0x3df3bacd	0.11900864
17	0xbd5ce2c1	-0.053927187
18	0x3dd5281f	0.10408043
19	0x3e5df4c8	0.21675408
20	0xbf3afdfd	-0.73043805
21	0xbeb9d9b1	-0.36298898
22	0x3e50a3a6	0.20374927
23	0xbd4ffd6f	-0.050778802
24	0xbece2ed7	-0.4027011
25	0xbdb9209e	-0.09039424
26	0xbe2c9aa0	-0.1685586
27	0xbe29c973	-0.16580753
28	0xbe2fd503	-0.17171101
29	0xbe9b5d9c	-0.30344856
30	0xbd253ee7	-0.04034319
31	0xbdff1631	-0.124554045
32	0x3dcdd824	0.10050991
33	0x3e960b1e	0.29305357
34	0xbd26edbc	-0.040754065
35	0x3bf4d5ea	0.0074717896
36	0xbeae6380	-0.34060287
37	0x3ec485f6	0.38383454
38	0xbe8bfd5f	-0.27341744
39	0xbdffccdc	-0.12490246
40	0x3b51320f	0.0031920706
41	0x3e758198	0.23975217
42	0xbe3823af	-0.17982362
43	0xbd56ba87	-0.05242398
44	0x3d3d6c5b	0.046245914
45	0xbd9e229a	-0.077214435
46	0x3dd3ec77	0.103478365
47	0x3dd8a21b	0.10577794
48	0x3e0a15ce	0.1348488
49	0xbe52d442	-0.20588782
50	0x3e10acdd	0.14128442
51	0xbecb3ea7	-0.39696237
52	0xbd8a6620	-0.0675776
53	0xbebc4579	-0.36771753
54	0x3db4896b	0.08815273
55	0xbe0e2de5	-0.13884695
56	0x3e928b1f	0.28621766
57	0xbe845f43	-0.2585393
58	0x3e2b7393	0.16743307
59	0x3df858d3	0.12126317
60	0x3e4483a3	0.1919084
61	0x3da8b724	0.08238056
62	0xbe190540	-0.14943409
63	0xbe567b74	-0.20945531
64	0xbdee3431	-0.116310485
65	0x3ca0b7c2	0.019618873
66	0x3e180c43	0.14848427
67	0xbea9e612	-0.33183342
68	0x3e864bdb	0.26229748
69	0x3c602656	0.013681015
70	0x3e0b16c3	0.13582902
71	0x3d04d6d4	0.03243144
72	0xbd10c4bb	-0.035343867
73	0xbed04cfe	-0.4068374
74	0xbe439122	-0.19098333
75	0x3e75095c	0.23929352
76	0xbdc7d10d	-0.0975667
77	0xbdd41947	-0.10356384
78	0x3e793536	0.24336705
79	0xbe131b33	-0.14365844
80	0x3eb6d6d5	0.3571078
81	0x3d5fe716	0.05466374
82	0x3eba6260	0.3640318
83	0x3f19bd1f	0.600542
84	0x3ea996cf	0.3312287
85	0x3d556fb4	0.05210848
86	0x3ea1cc99	0.31601408
87	0xbe0ba2d3	-0.13636331
88	0xbea0a5d3	-0.31376514
89	0x3e996e01	0.2996674
90	0xbeb3908c	-0.35071218
91	0xbecce181	-0.40015796
92	0x3e12aee6	0.14324531
93	0xbc0f2dad	-0.008738917
94	0xbe38fb65	-0.1806465
95	0xbe412695	-0.18862374
96	0x3d36883a	0.04456351
97	0xbdf15714	-0.11784187
98	0x3ea851f9	0.3287504
99	0xbdf7a7be	-0.12092541
100	0xbe88b865	-0.26703182
101	0xbe80b19c	-0.25135505
102	0x3e019953	0.12656145
103	0xbe0e994e	-0.13925669
104	0x3e0102df	0.12598751
105	0x3e1e4cfd	0.15459056
106	0x3dca8564	0.098887235
107	0x3ca81426	0.02051742
108	0x3c8c2422	0.017107073
109	0x3e1f89c6	0.155799
110	0x3d62ea76	0.05539938
111	0xbd37c7ff	-0.044868466
112	0x3df146b1	0.117810614
113	0xbecd337c	-0.40078342
114	0xbb2fa36d	-0.002680029
115	0x3d3de30a	0.0463591
116	0x3d522b4d	0.051310826
117	0xbe729f12	-0.23693493
118	0xbd0a33dd	-0.033740867
119	0xbdbecec7	-0.093167834
120	0xbeac4767	-0.33648226
121	0xbdb451c6	-0.088046595
122	0x3e4e4560	0.20143652
123	0x3dc9c855	0.098526634
124	0x3b1ba01e	0.002374656
125	0x3cbb2105	0.022842893
126	0x3e83e344	0.25759327
127	0xbe367de3	-0.1782146
128	0xbe8bdac4	-0.27315342
129	0xbc66d92e	-0.014089866
130	0x3ec99a1a	0.39375383
131	0xbdf6d6cc	-0.12052688
132	0xbe6460cb	-0.22302549
133	0xbe1b2a5c	-0.15152878
134	0xbdcccc00	-0.099998474
135	0xbd1c6a03	-0.03818704
136	0xbe6bbb95	-0.23020776
137	0xbe339521	-0.17537357
138	0xbec04639	-0.37553576
139	0x3e0d4a1a	0.13797799
140	0x3cf73020	0.030174315
141	0xbe8e5ce1	-0.27805236
142	0xbdf2e6d9	-0.11860437
143	0xbe25808a	-0.16162315
144	0xbd99c240	-0.07507753
145	0x3e4c8d28	0.19975722
146	0x3dec8ccb	0.11550292
147	0x3ea5e586	0.32401675
148	0xbd0f7f07	-0.035033252
149	0xbea3dc72	-0.32004124
150	0xbe4d27a9	-0.2003466
151	0xbeb0a082	-0.34497458
152	0xbee0a94a	-0.43879157
153	0xbc8609d6	-0.016362112
154	0xbe072c18	-0.13200414
155	0xbd97083d	-0.07374618
156	0xbdf04f4e	-0.11733876
157	0xbec69a9f	-0.38789842
158	0x3e733249	0.23749651
159	0x3d7212fe	0.059100144
160	0xbdfad3ce	-0.1224743
161	0x3e06e7aa	0.1317431
162	0x3cbb0282	0.022828344
163	0x3e262c28	0.16227782
164	0xbe8c8059	-0.27441671
165	0x3e8038e3	0.250434
166	0xbe07fbbb	-0.13279621
167	0xbe95d8d1	-0.2926698
168	0x3e631b1d	0.22178312
169	0xbd69cf14	-0.05708225
170	0x3d4f43d7	0.050601806
171	0x3e0f20b6	0.13977322
172	0xbd460839	-0.048347685
173	0x3e1a70fa	0.1508216
174	0xbeaf83a5	-0.34280124
175	0x3e280ffd	0.16412349
176	0x3c253331	0.010083006
177	0xbc1d35a2	-0.009595307
178	0x3e0e1bfe	0.13877866
179	0xbd8ca921	-0.06868196
180	0x3dc29646	0.09501319
181	0x3ee45ee0	0.44603634
182	0x3e5cfc3d	0.21580596
183	0x3d78fb58	0.060786575
184	0x3e3588c2	0.1772795
185	0xbef4b9ec	-0.47798097
186	0x3eb2d490	0.34927797
187	0x3e4469e1	0.19181015
188	0x3da6805a	0.0812995
189	0x3ec73dab	0.38914236
190	0xbe900b44	-0.28133595
191	0xbdedb452	-0.11606659
192	0x3e01d64d	0.12679406
193	0xbe447825	-0.19186457
194	0x3e49b6a6	0.19698581
195	0x3c6e101f	0.014530211
196	0x3e56030c	0.208996
197	0x3e26a74d	0.16274758
198	0x3ea8441b	0.3286446
199	0x3d969677	0.07352918
200	0x3e6422f1	0.22278954
201	0x3be6799f	0.0070335413
202	0xbe58aac6	-0.21158895
203	0x3e4edde6	0.20201835
204	0xbed1e6b1	-0.40996316
205	0x3dc3c48a	0.09558971
206	0x3ca4757a	0.020075548
207	0x3bb36bd2	0.0054754997
208	0x3dc4accf	0.09603273
209	0xbdb538ec	-0.088487476
210	0xbe4a5ad2	-0.19761208
211	0xbd0c9714	-0.034323767
212	0xbdba58e3	-0.09098985
213	0xbe8ea135	-0.27857366
214	0x3dd7b119	0.105318256
215	0xbe112d82	-0.14177516
216	0x3e944c52	0.28964478
217	0x3e95e2df	0.2927465
218	0xbe412ae6	-0.1886402
219	0xbd11e263	-0.03561629
220	0x3e9af3b7	0.30264065
221	0x3eaba131	0.33521417
222	0x3eefd9c7	0.46845838
223	0xbc263840	-0.010145247
224	0x3e953557	0.29142258
225	0xbe2d5e23	-0.16930442
226	0x3e31371e	0.17306182
227	0x3eb19152	0.34681183
228	0x3dc1f70d	0.09470949
229	0xbd450407	-0.048099544
230	0xbd619e52	-0.055082627
231	0x3e1d456c	0.15358514
232	0x3e32c39f	0.17457436
233	0x3e917ca7	0.28415415
234	0xbe6af9c4	-0.2294684
235	0x3e24a19c	0.16077274
236	0x3d913efb	0.07092091
237	0xbd9dabfd	-0.0769882
238	0xbe86db4a	-0.2633918
239	0x3de8e2c5	0.11371378
240	0xbdb13d38	-0.08654255
241	0xbe596127	-0.21228467
242	0xbea55430	-0.32290792
243	0xbd9db37a	-0.07700248
244	0xbe38afcb	-0.1803581
245	0xbe4ceced	-0.20012255
246	0x3ea312af	0.31850192
247	0x3e955133	0.29163513
248	0x3cb62514	0.022234477
249	0x3d0de34a	0.034640588
250	0xbdb478c6	-0.08812098
251	0x3dc05166	0.093905255
252	0xbd82720e	-0.063694105
253	0xbdd12e1f	-0.10213875
254	0x3f0924d5	0.53571826
255	0xbe88cd3e	-0.26719087

onnx::LSTM_120 f4 [1, 80]
0	0x3e97762f	0.29582354
1	0x3d2010c0	0.039078474
2	0x3ed9a022	0.42504984
3	0xbca11f85	-0.01966835
4	0x3e1106ad	0.14162703
5	0xbdec4bc2	-0.11537887
6	0xbe794f85	-0.2434674
7	0xbd1925aa	-0.037389435
8	0x3e8de39c	0.27712715
9	0xbe0382b9	-0.12842835
10	0xbe323b0b	-0.17405336
11	0xbe312336	-0.17298588
12	0xbc408deb	-0.011752586
13	0x3d7089a1	0.058725003
14	0x3e918be5	0.28427044
15	0x3e470747	0.1943637
16	0xbd48624a	-0.04892186
17	0xbda490db	-0.080354415
18	0x3d2678fb	0.04064272
19	0x3e035cc7	0.1282836
20	0xbd4da130	-0.05020255
21	0xbe1eae05	-0.1549607
22	0x3cf0d352	0.02939764
23	0xbec4656a	-0.38358623
24	0xbea5a6e3	-0.32353887
25	0x3c859323	0.016305512
26	0xbd8254b4	-0.06363812
27	0xbe44d6ce	-0.19222566
28	0x3d214cf3	0.039380025
29	0xbe5bf667	-0.21480714
30	0xbe8b6333	-0.2722412
31	0xbec5d849	-0.38641575
32	0xbca12433	-0.019670581
33	0x3eac43c8	0.33645463
34	0xbd8eb334	-0.06967774
35	0x3c7117eb	0.014715175
36	0xbcd65dcd	-0.026167775
37	0x3d9b6d0f	0.07589161
38	0xbdcb4fba	-0.09927316
39	0xbe501aca	-0.20322719
40	0xbd7442a5	-0.05963387
41	0xbd7faabb	-0.06241868
42	0x3ea01fdf	0.31274316
43	0x3d429440	0.047504663
44	0xbdac5d02	-0.08416177
45	0x3ef09826	0.4699108
46	0x3dd3f6d2	0.103498116
47	0x3e60c0cc	0.21948546
48	0xbe5ed9da	-0.21762791
49	0xbe3f9b39	-0.18711556
50	0x3e82236f	0.2541766
51	0x3e1c2853	0.15249757
52	0x3d944713	0.07240119
53	0xbe60790f	-0.2192118
54	0x3da97882	0.08274938
55	0x3ecb57b2	0.39715344
56	0x3d6b5edf	0.057463523
57	0x3e87cdf3	0.26524314
58	0xbe4942f1	-0.19654442
59	0x3e94f10a	0.29090148
60	0x3eb36a45	0.35042015
61	0xbe3d9f5f	-0.18517826
62	0x3e958546	0.29203242
63	0x3d17a2ed	0.037020613
64	0x3dcd3343	0.10019543
65	0xbe2f743b	-0.17134182
66	0xbd680007	-0.05664065
67	0x3e566685	0.20937546
68	0xbe949b3b	-0.2902468
69	0xbe6bd37f	-0.23029898
70	0xbeb47064	-0.35241997
71	0xbe97e856	-0.29669446
72	0x3e6034f8	0.21895206
73	0x3daf3d92	0.085566655
74	0x3c9eb579	0.019373642
75	0x3e5facc5	0.2184325
76	0xbe1d265a	-0.15346661
77	0xbe16a5f2	-0.1471174
78	0xbe2c2c73	-0.16813831
79	0xbe709f24	-0.23498207
