models/WBA_model.onnx (onnx, 40199 bytes, 5 tensors)

fc.weight f4 [5, 10]
000000 52 43 03 3c ae c8 be be 4d 37 da be 67 66 62 3e
       0.008011656 -0.3726248 -0.42620316 0.22109376
000010 7c c1 9e 3c 7a b3 bd 3e 47 c1 a5 bd 7f 70 52 3e
       0.01937937 0.37050992 -0.08093505 0.20550726
000020 a1 0a 5e be 8e 01 c3 bd fe 52 8f bd 72 f2 10 be
       -0.21683742 -0.09521781 -0.069982514 -0.14154986
000030 45 a4 aa be 6b 6f 14 3e af 6b b7 be 01 16 1a 3e
       -0.33328453 0.14495628 -0.35824344 0.15047456
000040 c6 51 a3 be 28 7b bf 3d 86 1d 0b 3e c1 31 a7 be
       -0.31898326 0.09349662 0.13585481 -0.32655147
000050 91 ce b8 be 2e e4 8c bd d5 71 aa be b8 2f df 3c
       -0.36095098 -0.06879459 -0.33289972 0.027244434
000060 51 cf 1f be 62 12 4f 3e 93 22 44 be 0b 79 65 3e
       -0.15606429 0.20221856 -0.19153814 0.22409455
000070 69 8e 05 3e 73 b9 83 3e 98 7d 14 be f5 63 95 be
       0.13042606 0.25727424 -0.14501035 -0.29177824
000080 88 10 89 3e 94 c6 3e 3e 0e f6 79 3e 7d 90 71 be
       0.26770425 0.18630439 0.24410269 -0.23590274
000090 2d a9 a3 3e 49 13 a9 3e 2c 9f 10 bf 90 f2 72 3e
       0.31965008 0.33022526 -0.56492877 0.23725343
0000a0 57 5b 46 be 77 ff 9a be 3e b7 c3 3d 3e 94 a4 3e
       -0.19370781 -0.3027303 0.09556435 0.3214435
0000b0 4c b2 80 be 2f 11 a5 3d ef 03 d1 be 13 9d 34 3e
       -0.2513603 0.08059918 -0.40823314 0.17638044
0000c0 60 39 70 be 89 22 20 be
       -0.23459387 -0.15638174

fc.bias f4 [5]
000000 f7 17 b6 3d c2 23 15 3e fb 4d de bd dd 5d 06 bc
       0.0889129 0.14564422 -0.10854717 -0.00820109
000010 99 9b bd 3d
       0.092581935

onnx::LSTM_118 f4 [1, 40, 5]
000000 d7 c2 c9 3e 49 2b 30 be f5 7b b0 3e 3c ae 01 3d
       0.39406464 -0.17204012 0.34469572 0.031660303
000010 a1 37 92 3e c4 ad 21 3e 50 7e 18 3d cd 54 71 3e
       0.28558066 0.15788943 0.037229836 0.23567505
000020 9f 06 d5 3d ae b7 95 3e 5d f2 43 bd 97 22 ef 3e
       0.104016535 0.292417 -0.047838558 0.46706077
000030 1c af ec 3c a1 d9 8c be b8 9c 58 3d 21 6f b0 3d
       0.028892092 -0.27509788 0.052883834 0.08614946
000040 f0 91 6d be db f3 09 3e 64 9f a2 3e 97 14 3e be
       -0.23200202 0.1347193 0.3176223 -0.18562542
000050 27 a6 6a 3b 3a d9 ff 3e 33 52 28 bd 1e c9 24 bf
       0.00358046 0.49970418 -0.041094016 -0.6436938
000060 9a 6e df 3e 16 fa 55 3e a3 a4 03 3e b4 f5 9f bc
       0.4363907 0.20896181 0.12855773 -0.01952634
000070 35 07 bc bd a5 d8 20 3e 2d bc 33 3d 67 5e cd bc
       -0.09181062 0.15707643 0.04388063 -0.025069429
000080 97 f8 eb 3e 2c dc c6 be 4f 9a 8f bc 38 21 d0 3e
       0.46088096 -0.38839853 -0.017529635 0.40650344
000090 eb f8 dc 3e b0 46 62 3e d7 d4 95 be 41 8e c9 bd
       0.4315866 0.22097278 -0.29263946 -0.09841586
0000a0 f0 2a 61 be 35 15 75 3d b0 2e b2 be 7d 89 a8 be
       -0.21989036 0.059834678 -0.34801245 -0.32917395
0000b0 45 33 5d be 7e 31 9a 3d f7 2f 95 3e 9b 5c c7 3c
       -0.21601589 0.07528971 0.29138157 0.02433615
0000c0 09 bc c5 3d 67 35 76 be 57 4f 74 3d 14 9f a1 3e
       0.096550055 -0.24043809 0.059645977 0.3156668
0000d0 a7 cf 5b 3e f2 5d 25 3e f9 05 c0 3d 54 bd 9f 3e
       0.21465932 0.16149119 0.09376139 0.31199133
0000e0 c0 dd 8c 3e 43 cf e0 bc 4e 9f 40 3e e7 01 10 3f
       0.27512932 -0.02744258 0.1881077 0.562529
0000f0 60 17 a4 3e ce b3 45 3e 7c c1 af 3e da 19 f5 be
       0.32049084 0.19306871 0.34327304 -0.47871286
000100 81 16 41 3d ba c7 89 3e be f8 bf 3e b9 80 c8 3d
       0.047140602 0.26910192 0.37494463 0.09790177
000110 17 b5 98 3e 2d 74 53 3c c0 a2 ab 3e 68 b3 69 3e
       0.2982566 0.012906116 0.33522606 0.22822344
000120 1f 4c 0d 3f 9a 49 36 bf d8 76 1c 3f eb ca 9c 3e
       0.55194277 -0.7120606 0.6111884 0.30623564
000130 e5 1c b5 3e 68 12 b6 3e 39 bf 70 be 86 f0 76 3e
       0.35373607 0.35560918 -0.23510446 0.2411519
000140 7e 60 bb 3e 49 30 be 3d da d3 2b 3d 9b 0c 28 bf
       0.36597055 0.092865534 0.041950084 -0.65644234
000150 60 fb 25 3e a9 47 c7 3e 3f 4d 6e 3e f7 87 aa 3e
       0.16209173 0.3892186 0.23271655 0.33306858
000160 17 6e 23 3e e3 91 03 3e 43 7a f6 bd 2c 50 9f bd
       0.15959965 0.1284862 -0.12035038 -0.077789634
000170 02 16 c4 be a7 b4 82 bf 73 b9 92 be 03 4c d1 bd
       -0.3829804 -1.0211381 -0.28657112 -0.10219576
000180 c0 14 80 be e8 93 27 3d f9 e2 04 3f 24 13 fd bd
       -0.2501583 0.04091254 0.5190883 -0.123571664
000190 9f 20 cb 3e 84 8f 41 be e2 79 3e 3d 4f 88 3e be
       0.39673325 -0.18902403 0.046502955 -0.18606685
0001a0 b5 c6 ba 3e 89 1a 89 bd 8b 16 57 3e 9c 71 73 3e
       0.36479726 -0.06694514 0.21004693 0.23773807
0001b0 dc a9 03 3f fe ff 48 3e ea b6 aa 3e e6 47 a7 3e
       0.5143106 0.19628903 0.33342677 0.32672042
0001c0 25 3f 21 3d a0 ac 9c bd 63 50 dc 3e 18 50 a2 be
       0.03936686 -0.07650113 0.4303008 -0.31701732
0001d0 2f 52 81 be ce 03 8c be c4 6c b6 3d 12 08 64 3e
       -0.25258014 -0.27346653 0.08907464 0.22268704
0001e0 da 04 06 3e c9 c2 d6 3e ca c8 bf 3c a6 c1 81 be
       0.13087788 0.41945484 0.023411173 -0.25343055
0001f0 79 fe 9f 3e 45 0f 23 3b 91 0c ea 3c a5 b8 6e 3e
       0.31248835 0.0024880928 0.028570445 0.23312624
000200 8b a7 9b be f2 5c d2 bd 8b a7 cf bd f0 e3 e5 3e
       -0.30401263 -0.10271634 -0.10139378 0.44900465
000210 75 da 11 3e ba 46 f4 be 4f be 72 3e 41 be 1a 3e
       0.14243491 -0.4771021 0.2370541 0.15111639
000220 68 a7 91 3c 2b b5 84 bd f8 77 22 3e d0 29 ea 3d
       0.01778002 -0.064798675 0.15866077 0.11433756
000230 94 45 44 be cd 7f 96 3d ba b5 ba 3c e0 37 90 be
       -0.19167167 0.07348595 0.022791732 -0.2816763
000240 5e b6 37 3c 84 31 aa bd bc fc 5a bd 5f 80 89 be
       0.011212913 -0.083102256 -0.053463683 -0.26855752
000250 8e 7c 6b 3a 0c a2 4a 3e 62 fb 0a 3e 27 57 c9 be
       0.00089830987 0.19788378 0.13572457 -0.39324304
000260 45 e7 f2 be db 87 ac be f1 7f 5a 3c 79 61 9e be
       -0.4744207 -0.336974 0.013336168 -0.3093374
000270 61 4d ed be e0 08 94 be d8 3e e5 be 28 b4 e6 3d
       -0.46348098 -0.2891302 -0.44774508 0.11264831
000280 7e 73 c4 bd 68 39 e0 be 3c 38 9f bd d4 1e 7f 3e
       -0.09592341 -0.43793797 -0.07774398 0.24914104
000290 36 77 16 be 44 68 8e 3e 78 94 70 3e 58 66 9e 3e
       -0.14693913 0.27813923 0.23494136 0.30937457
0002a0 69 59 84 3e f1 e0 d9 3d bb 05 2b be 71 f3 59 be
       0.25849465 0.10638607 -0.16701405 -0.21284272
0002b0 f5 4a 80 bd e6 a0 b1 bd 66 4e 05 be dd 7a 40 3d
       -0.06264297 -0.08673267 -0.13018188 0.04699217
0002c0 4b 2e d7 3e 37 40 eb bd 2b e0 30 bf 9d 50 d8 3e
       0.42027506 -0.114868574 -0.69092053 0.42249003
0002d0 f7 f9 d0 be 01 c1 b1 be 80 17 91 be a9 87 d5 3d
       -0.40815708 -0.34717563 -0.28338242 0.10426266
0002e0 9e ee d9 3d 17 b1 d5 3d 49 03 e4 3e 6a e6 9c 3e
       0.10641216 0.10434168 0.44533756 0.30644542
0002f0 fd 0b bc 3e 41 d8 3a 3e 5c 56 90 3e e9 67 ac 3e
       0.36727896 0.18246557 0.28190887 0.33673027
000300 d2 75 ea 3c f8 49 e3 3c 13 28 91 bd d2 39 8f bd
       0.028620634 0.027745232 -0.07087722 -0.0699345
000310 e6 d7 3f bd 27 1b 69 3e 85 eb 0a be e6 95 9e bd
       -0.046836756 0.22764264 -0.13566406 -0.077434346

onnx::LSTM_119 f4 [1, 40, 10]
000000 f1 c5 a0 3d 07 bc 48 be f7 71 a5 be bb 9a 95 3e
       0.07850254 -0.19602977 -0.3231351 0.29219612
000010 b7 8e ba bd ce a8 89 3d b0 a5 1e bd 6b aa e6 3d
       -0.09109252 0.0672165 -0.03873223 0.112629734
000020 fc 0b c0 3d 67 b6 f4 bd 74 c3 89 3e 56 a4 0d be
       0.09377286 -0.11948853 0.2690693 -0.1383222
000030 c6 fb 2e be cc 2a 47 3e d4 af 26 bd 58 01 a8 3e
       -0.17088231 0.1944992 -0.040695027 0.32813525
000040 28 30 da 3c c2 bf bf bb 68 cb ef 3d 9b 88 ab 3d
       0.02663429 -0.0058517167 0.117087185 0.08375665
000050 c4 dd 72 be dd d8 c6 3c ac b4 9e 3e 26 47 84 3d
       -0.2371741 0.02427333 0.30997217 0.06458883
000060 18 09 f2 3d 4e fb 19 3e a4 e2 fc bd 7c d0 cb 3d
       0.11818141 0.15037271 -0.12347916 0.099518746
000070 7f 39 b1 be cc 97 46 be 2a a2 cc be 90 c5 87 3e
       -0.3461418 -0.19393843 -0.3996747 0.26517916
000080 c2 fe 46 be 2e 4b e5 bd 1a 11 a7 be a3 94 a8 3e
       -0.1943312 -0.1119598 -0.32630235 0.329259
000090 0c 9a 08 be 04 b2 df bd 46 21 bb 3c 91 3e ee bc
       -0.13340014 -0.10922626 0.022843014 -0.029082568
0000a0 b3 45 85 3c 8e c5 4e 3e 90 8a 30 3e 91 86 c4 bc
       0.016268587 0.20192549 0.17240357 -0.023989948
0000b0 20 4c 29 3d eb 54 a9 bb 1d 1a 44 3d 0f 8a 85 3e
       0.041332364 -0.0051675937 0.047876466 0.26081893
0000c0 b7 4c 6b 3e 01 a1 d0 bd 44 d1 e3 bd 48 e4 02 3e
       0.22978483 -0.10186959 -0.111238986 0.12782395
0000d0 1c 49 98 3d ab 33 78 3e 8a eb 06 be f3 83 46 be
       0.074358195 0.2423846 -0.13175789 -0.19386272
0000e0 46 d1 55 3e 5b dc 93 3e 44 4e 2d 3e 11 99 0f 3e
       0.20880613 0.28879055 0.16924387 0.14023234
0000f0 20 98 82 bc c1 70 49 3e 4a d2 0c bd b9 91 a0 3e
       -0.01594168 0.19671918 -0.034380235 0.31361178
000100 89 9b 3c be d4 82 7a be 01 96 69 3d 5d dd 3c 3e
       -0.18418707 -0.2446397 0.05702782 0.18443818
000110 93 30 a7 be e7 9f fe 3d 9a d3 ef bd 01 11 a7 3d
       -0.32654247 0.12432843 -0.11710282 0.0815754
000120 dc e7 43 be fe 56 79 3e 14 95 3d be a0 91 7d be
       -0.19131416 0.24349591 -0.185139 -0.24762583
000130 5d c4 8a be 0c a2 dd bd 55 a9 8c be 55 94 b1 be
       -0.27102938 -0.108219236 -0.2747294 -0.3468348
000140 ec 32 48 be f3 1c d2 3e 3d c9 be 3e 3e bc 58 3e
       -0.19550675 0.41037712 0.37262908 0.21165559
000150 be 90 62 3e b0 54 0c bb 59 cb aa 3e 09 f1 c6 be
       0.22125527 -0.0021412782 0.33358267 -0.3885577
000160 50 96 32 bd 2e ed b8 be e4 9b eb bd c4 3c 97 bc
       -0.04360038 -0.36118454 -0.11504343 -0.018461592
000170 db 06 9b 3d e6 72 12 be df a0 52 bc 80 77 4c 3e
       0.07569667 -0.14301643 -0.0128557375 0.1996746
000180 81 c4 80 3d 17 57 e7 bd 98 22 c5 bd 34 f4 ab 3e
       0.0628748 -0.11295908 -0.09625739 0.3358475
000190 ff ae 8a bd 5d 87 91 be 7f 94 da bd c6 95 e8 3e
       -0.06771659 -0.28423586 -0.10672855 0.45426768
0001a0 18 3c 0a 3d 8d 73 3e 3e 6f 3f 8a 3d cb 75 b3 bc
       0.033748716 0.18598767 0.0675038 -0.021906754
0001b0 b1 a1 86 3e 90 79 5b be fe 32 b9 3d d5 cd e6 3d
       0.26295236 -0.21433091 0.09042929 0.11269728
0001c0 9b 40 28 be 29 10 8e 3e 21 02 9c be 77 ec 97 bd
       -0.16430895 0.27746704 -0.30470374 -0.07418149
0001d0 fe 44 94 3d 58 9e 01 3e 19 f6 37 be 1e 4c bc 3d
       0.07239722 0.1265806 -0.17964973 0.09194206
0001e0 d7 87 68 3d de 9a 00 bd 2e ce 14 3e 2b 27 f0 3e
       0.056770172 -0.031397693 0.14531776 0.46904883
0001f0 a3 b2 09 be 52 82 2e 3d 9c 25 a9 bd 86 2a 4b be
       -0.13447051 0.042604752 -0.082591265 -0.1984044
000200 20 75 2e 3e 9a 6c 5b be eb fa a1 be 55 6c 85 be
       0.17036867 -0.21428147 -0.31636748 -0.26059213
000210 e0 be 15 3e 76 94 94 bd ea 98 b5 bd bb 43 f5 ba
       0.14623594 -0.07254879 -0.08867057 -0.0018712202
000220 fe 81 06 3d 5c d8 c6 bc 47 86 ed 3c d1 69 00 be
       0.032838814 -0.02427309 0.028994692 -0.12540366
000230 67 2a b2 3d 82 eb e1 3d 94 0c 51 3e 98 e7 ab 3e
       0.08699494 0.11031248 0.20414954 0.3357513
000240 cc 84 f6 bc e3 d2 7f be 8b b1 39 bc cf ad b1 3c
       -0.03009262 -0.2498279 -0.011333833 0.021689324
000250 a7 f8 bf bd 48 ed b3 be 9f 85 2f bd 7e 84 5a bb
       -0.093735985 -0.3514197 -0.04285204 -0.0033343132
000260 9f 2f ba bd d8 83 09 3c 62 90 a6 be 0e 4a 80 be
       -0.09091114 0.00839325 -0.3253203 -0.250565
000270 77 ff 0d 3e b5 36 f7 bd 6b 05 bf 3d 63 1e 2a 3e
       0.13866983 -0.120709814 0.09327205 0.16613154
000280 47 64 1b be 69 5f 71 3d dc c7 74 3d 49 a2 cd bd
       -0.15174972 0.05892888 0.059760913 -0.10040719
000290 06 23 90 38 b3 d3 26 3e ec 2e 58 be 35 70 9e 3e
       6.872979e-05 0.16291694 -0.2111165 0.30944982
0002a0 f5 62 67 be 7c 49 05 be cb 21 8e 3d 94 4f 48 3e
       -0.22596343 -0.13016313 0.06940039 0.19561607
0002b0 89 33 76 be 15 28 7e 3e 72 a0 1e 3e 3a 67 68 3e
       -0.24043097 0.24819978 0.15490893 0.22695628
0002c0 65 e3 8e 3b 2f 4c bf 3e 05 a2 7e bd 07 dd 4a 3e
       0.0043606036 0.3736281 -0.062166233 0.19810878
0002d0 a7 85 f8 3a 4d 94 03 3e 88 db c2 3e 55 b5 c5 3e
       0.001896073 0.12849541 0.38058114 0.38614908
0002e0 f7 2d 91 3c 8b 33 81 be d7 ba be bd 83 ee 01 3d
       0.017722113 -0.25234637 -0.093129806 0.031721603
0002f0 a9 c2 6e be 5c a0 ac bd 08 62 1b bd 56 60 80 3d
       -0.23316444 -0.084290236 -0.037935287 0.062683746
000300 d1 de f6 bd 26 3a 79 bd 58 9e 92 be a3 61 6c 3e
       -0.120542176 -0.06084647 -0.28636432 0.2308412
000310 0e 08 22 be 20 79 5d bd db b3 da bd d5 62 94 3d
       -0.15823385 -0.054070592 -0.10678836 0.07245413
000320 f8 95 70 be 97 f9 38 3e 29 81 1d be fa b9 a1 3d
       -0.23494709 0.18063961 -0.15381302 0.078968
000330 50 35 3d 3e ea ab 91 be 55 43 11 be 57 f9 5b 3e
       0.18477368 -0.28451473 -0.14185841 0.21481834
000340 9c 82 4d 3e ba 4a ec be 34 79 69 bd 33 1d 8b 3e
       0.20069355 -0.46150762 -0.057000354 0.27170715
000350 61 64 08 3e 95 a4 9f be 25 c3 48 be c0 f7 5f 3e
       0.13319542 -0.31180254 -0.19605692 0.21871853
000360 36 ad a7 3d 73 f8 9f 3d 16 70 40 bd 71 33 6e be
       0.08187334 0.0781106 -0.046981893 -0.23261811
000370 84 41 e0 3d 84 3a 8f be b7 66 a4 3e c6 1c ae 3b
       0.10949996 -0.2797433 0.32109615 0.0053134887
000380 01 42 b2 3e 83 ce ee bd c2 38 11 3e f7 f9 9c 3d
       0.34815982 -0.11660483 0.14181808 0.076648645
000390 29 ff de 3c 00 c8 07 be fe ce 4a be 47 0b cd 3e
       0.02722128 -0.13259888 -0.19805524 0.40047666
0003a0 83 29 bf bd 5d 26 ad be ba d8 32 3e 08 ff a8 3e
       -0.093340896 -0.3381833 0.17465487 0.33007073
0003b0 09 d2 81 be 2f 9d bd bc f1 11 f5 3d cb 5b bb 3d
       -0.25355557 -0.02314624 0.11966313 0.091483675
0003c0 86 ae 3a 3c af aa 9b bd e2 f2 3f 3e e9 0e dd bc
       0.011394149 -0.07600915 0.18744996 -0.026984649
0003d0 56 4f 5c be c1 9f 3a 3e 39 75 94 3e 7b 9c 8b bc
       -0.2151464 0.18225004 0.28995684 -0.01704239
0003e0 40 9a 57 3e 50 55 f5 bd 62 77 76 3e fd 78 70 be
       0.21054935 -0.11979163 0.24068978 -0.23483653
0003f0 81 8c 67 be eb 5b c4 3e 21 ac 8a be ce 27 8d 3d
       -0.22612192 0.38351378 -0.2708445 0.06892358

onnx::LSTM_120 f4 [1, 80]
000000 31 f3 9c 3d 85 b6 87 3e 10 da 16 be ee 60 f1 3d
       0.076635726 0.2650644 -0.14731622 0.11786066
000010 90 55 5a 3e 53 fc 4e 3e ec 3e 53 3e 08 12 72 3e
       0.21321702 0.20213442 0.20629472 0.23639691
000020 ac bb 0a be 8d f9 e8 3d c2 0d 4a 3e 4f fb 9c 3e
       -0.13548154 0.11375723 0.1973181 0.30660483
000030 2d e3 18 3e 96 d0 b3 bd b7 e9 ee 3d a6 72 41 3c
       0.1493041 -0.08780019 0.11665671 0.0118071195
000040 d9 55 45 3d cb 4a 31 3e 8c b8 7c be 64 39 18 bd
       0.048177574 0.17313688 -0.24679774 -0.037164107
000050 d0 07 80 bc 91 0f 99 3d 0b 27 5c 3e a9 24 52 3e
       -0.015628725 0.07473672 0.21499269 0.20521797
000060 19 86 cf bd 7c f4 bb 3c d2 25 a3 3e af 1e 80 3e
       -0.10132999 0.022943728 0.31864792 0.2502341
000070 44 19 a3 be a3 8c 88 3e 8c 0e 05 bd 06 cd 85 bc
       -0.31855214 0.26669797 -0.032484576 -0.016333114
000080 35 1b 56 bd 21 82 3a be 73 89 7b be 76 95 50 3d
       -0.05227204 -0.18213703 -0.24564151 0.050923787
000090 08 ca 98 be 5c 1b 73 3d 4e 2c 5c bd 66 8d 8f 3e
       -0.29841638 0.059352264 -0.05375319 0.28037566
0000a0 73 09 11 3e 2b 1b 9a 3e ee e7 bb bd 1c 2f 4f 3e
       0.14163761 0.30098853 -0.091750965 0.20232815
0000b0 29 e6 36 be 63 33 ca 3e c3 a4 47 be 74 9e 98 3e
       -0.17861237 0.3949233 -0.19496445 0.2980839
0000c0 67 82 ea bc 68 bb c1 3e 92 1f 17 3e 82 5a c8 bd
       -0.028626634 0.37838292 0.14758137 -0.09782888
0000d0 e8 9b d3 3d 95 f1 80 3d 65 d8 02 3e a0 77 2c be
       0.10332471 0.06296078 0.1277786 -0.16842508
0000e0 00 5e c4 3d 11 19 3c 3d 5f b2 23 be 5c 4b 7d 3e
       0.095882416 0.045922343 -0.15986012 0.24735779
0000f0 58 22 f6 3d a6 93 9a 3e e7 bb 49 bd b5 b9 1a bd
       0.12018269 0.30190772 -0.049251463 -0.03777476
000100 0e d5 8a bd 7f 68 4b be 48 5d 95 3e 6d b5 31 be
       -0.06778918 -0.19864081 0.2917273 -0.17354365
000110 8d 6b 32 bd 7b 97 17 3e b1 ef 11 3d 6e 57 85 be
       -0.0435596 0.14803879 0.03562898 -0.26043266
000120 ac d1 b6 bd e0 a8 06 bc 28 c0 50 be 09 f5 65 bd
       -0.089267105 -0.008218974 -0.20385802 -0.056141887
000130 23 8b 84 3e 96 2c 43 be bc c8 6f 3b b7 99 75 3e
       0.25887403 -0.19059977 0.0036588153 0.23984419
