models/XEC_model.onnx (onnx, 40199 bytes, 5 tensors)

fc.weight f4 [5, 10]
-0.16893414 0.24815398 0.39656487 -0.30890033 0.23503959 0.1562167 -0.38171998 -0.15649542
0.26153067 -0.040395997 -0.022119641 0.070653394 0.082914405 -0.39372084 0.09642592 0.50840765
-0.25325996 -0.13661902 0.27202964 0.38370827 0.00442832 0.25457323 0.2825962 -0.072756775
0.023732862 0.323463 0.09200503 -0.44440007 0.29196015 -0.10184719 0.17182602 -0.13855079
-0.13021027 -0.08809734 0.046461463 -0.012503956 -0.23073852 -0.30246297 -0.15361515 -0.12868169
-0.14477994 0.20731129 0.28641132 0.11006331 0.43965212 0.34532124 -0.10693029 0.0058412664
0.2075252 0.08551879
00000000: 12fd 2cbe 141c 7e3e 8d0a cb3e 2f28 9ebe
00000010: 38ae 703e 45f7 1f3e cd70 c3be 5640 20be
00000020: 59e7 853e 4676 25bd 4034 b5bc bab2 903d
00000030: 07cf a93d c795 c9be f47a c53d 0127 023f
00000040: 4aab 81be dbe5 0bbe 7847 8b3e 6975 c43e
00000050: 711b 913b 6c57 823e 73b0 903e 8101 95bd
00000060: 6b6b c23c f19c a53e 226d bc3d 6888 e3be
00000070: cd7b 953e 4295 d0bd 29f3 2f3e 42e0 0dbe
00000080: d755 05be 616c b4bd 604e 3e3d 65dd 4cbc
00000090: b846 6cbe 6ddc 9abe 4a4d 1dbe 22c5 03be
000000a0: 3141 14be 6949 543e 81a4 923e df68 e13d
000000b0: 151a e13e f2cd b03e 45fe dabd 1868 bf3b
000000c0: 7c81 543e 7a24 af3d

fc.bias f4 [5]
-0.10800806 0.10556721 -0.09863636 -0.004000539 -0.060488638
00000000: 5433 ddbd 9f33 d83d dc01 cabd f416 83bb
00000010: efc2 77bd

onnx::LSTM_118 f4 [1, 40, 5]
0.20142522 -0.27410948 0.10476194 -0.06494641 -0.23307867 -0.13575919 0.020843543 0.303355
0.052225303 0.4124189 0.3298065 0.22188014 0.042747483 -0.0845722 0.24459872 0.07663541
-0.19170782 0.094653554 -0.34299028 0.13255493 0.31714767 0.33551595 0.3163238 -0.14185227
0.46397054 -0.09837095 0.038423304 0.051412597 0.03935484 -0.06852265 0.108851574 0.10221264
0.1599232 0.44748017 0.36575088 0.40005118 0.059129898 0.4099435 0.5328058 0.42481583
0.35150912 0.07257155 0.2570043 0.30637094 0.5681538 -0.36223 -0.14467013 0.053601008
-0.43784115 0.13294518 0.059541892 0.11604895 0.07231686 -0.43641844 -0.054837648 0.5057752
0.18770763 0.6170684 -0.5263503 0.75483316 0.15974757 0.19645976 0.10886166 -0.18169515
0.102728195 0.20270161 -0.1480675 -0.19129615 -0.11827917 -0.1830839 0.22750637 0.2150042
0.20727524 0.4988524 0.44444048 0.42170894 0.53444403 0.10835564 -0.048883628 0.5158374
-0.06723303 -0.024846856 -0.08344615 0.4463486 0.4524621 0.12754571 -0.006513311 0.03984548
0.47609484 0.37329245 0.29207364 0.41397265 0.037800547 0.1087879 0.14047019 -0.39480838
-0.22729519 -0.33573833 -0.23952837 -0.26950896 -0.078761555 0.12738496 -0.03648663 -0.45301244
-0.35831243 0.07501756 0.41114143 0.09858136 -0.14966285 0.25984913 0.051889833 0.03917216
-0.18160398 -0.2985695 0.36391994 -0.30586973 0.12804711 -0.0286247 0.16232443 -0.075425565
0.07848777 0.08155659 0.090691835 0.42398465 0.4276749 0.23458269 -0.054676205 0.37572238
-0.041943256 0.19649951 0.16206308 -0.26576123 0.041454155 0.32601118 -0.19909342 0.226706
0.27963284 0.33825374 0.13645223 0.34968072 -0.11180859 0.49251914 0.1925943 -0.26392287
0.33273304 -0.34110364 -0.097856246 -0.024034368 -0.018412033 -0.010442393 0.05400558 0.16756202
-0.14266315 0.035444524 -0.3223081 -0.12232178 0.10197918 -0.037528705 0.11994483 0.44362482
0.22194155 0.06621846 0.21906923 0.3043435 0.392238 -0.24902414 -0.30178392 -0.33348566
-0.21826434 -0.26978123 -0.10019727 0.44664305 -0.14088069 -0.011241333 0.18673138 0.16767222
0.4599785 0.33032772 -0.0013428387 0.060361568 -0.2820011 -0.43535355 -0.08561604 -0.65745175
-0.36825916 0.13014594 -0.22340104 0.13425967 -0.45174795 -0.43624818 0.2596828 0.458233
0.5752562 -0.26569465 0.54409873 -0.1429687 0.15621632 0.1668151 -0.07475978 0.0553433
00000000: 6a42 4e3e 1458 8cbe 6e8d d63d a002 85bd
00000010: 2dac 6ebe 7504 0bbe 14c0 aa3c 5951 9b3e
00000020: 33ea 553d 9228 d33e 66dc a83e 8c34 633e
00000030: fc17 2f3d 3134 adbd 1678 7a3e 07f3 9c3d
00000040: 0e4f 44be b9d9 c13d 6c9c afbe 7bbc 073e
00000050: 2e61 a23e bfc8 ab3e 31f5 a13e b941 11be
00000060: 8c8d ed3e b576 c9bd c161 1d3d 0496 523d
00000070: 8a32 213d 9a55 8cbd 93ed de3d dc54 d13d
00000080: e8c2 233e 1f1c e53e b343 bb3e 82d3 cc3e
00000090: 3132 723d 1de4 d13e f665 083f 7681 d93e
000000a0: 01f9 b33e 65a0 943d 1196 833e a7dc 9c3e
000000b0: 8772 113f 3676 b9be 6824 14be bb8c 5b3d
000000c0: b72c e0be c822 083e 33e2 733d 12ab ed3d
000000d0: dd1a 943d 3d72 dfbe 719d 60bd 7c7a 013f
000000e0: 6e36 403e 32f8 1d3f e5be 06bf bf3c 413f
000000f0: de94 233e bf2c 493e ddf2 de3d 4b0e 3abe
00000100: 2963 d23d 0391 4f3e 029f 17be 23e3 43be
00000110: 593c f2bd 597a 3bbe 6ef7 683e 102a 5c3e
00000120: f63f 543e 9569 ff3e b48d e33e 3cea d73e
00000130: 53d1 083f 90e9 dd3d 333a 48bd eb0d 043f
00000140: 79b1 89bd a28b cbbc d1e5 aabd ce87 e43e
00000150: 1da9 e73e 589b 023e 9d6d d5bb 0435 233d
00000160: b4c2 f33e 3020 bf3e ad8a 953e 39f4 d33e
00000170: bfd4 1a3d 31cc de3d 6bd7 0f3e 5324 cabe
00000180: 12c0 68be e5e5 abbe ed46 75be 14fd 89be
00000190: bd4d a1bd 3471 023e 0173 15bd 3ff1 e7be
000001a0: ba74 b7be cea2 993d 2181 d23e 06e5 c93d
000001b0: 3841 19be f20a 853e 6f8a 543d fd72 203d
000001c0: 65f6 39be 1ade 98be b753 ba3e f59a 9cbe
000001d0: c81e 033e 597e eabc 6038 263e b878 9abd
000001e0: 32be a03d 2407 a73d a4bc b93d 8414 d93e
000001f0: 34f8 da3e 7236 703e 28f4 5fbd af5e c03e
00000200: b1cc 2bbd 2b37 493e ddf3 253e db11 88be
00000210: d5cb 293d f0ea a63e 25df 4bbe 9e25 683e
00000220: 092c 8f3e 982f ad3e 22ba 0b3e 5a09 b33e
00000230: e7fb e4bd 782b fc3e 7137 453e e620 87be
00000240: fc5b aa3e 23a5 aebe db68 c8bd b9e3 c4bc
00000250: d5d4 96bc 9216 2bbc f434 5d3d 6195 2b3e
00000260: 4a16 12be 472e 113d 9105 a5be d783 fabd
00000270: 76da d03d b3b7 19bd a3a5 f53d cb22 e33e
00000280: a544 633e 8b9d 873d af53 603e e9d2 9b3e
00000290: 6bd3 c83e 2f00 7fbe 6c83 9abe a2be aabe
000002a0: b080 5fbe c420 8abe 3a34 cdbd 66ae e43e
000002b0: 0743 10be 912d 38bc 8336 3f3e 44b2 2b3e
000002c0: 4d82 eb3e b720 a93e 3102 b0ba b13d 773d
000002d0: 7362 90be a9e6 debe 7657 afbd c24e 28bf
000002e0: 778c bcbe fa44 053e 3ec3 64be 5e7b 093e
000002f0: 824b e7be ec5b dfbe 25f5 843e 849d ea3e
00000300: fe43 133f 2109 88be 0e4a 0b3f 6366 12be
00000310: 2cf7 1f3e 94d1 2a3e a81b 99bd a8af 623d

onnx::LSTM_119 f4 [1, 40, 10]
-0.13676462 -0.30019876 -0.38746506 0.018203778 -0.2712722 -0.17365275 0.3258813 0.14702111
-0.18663691 0.0036184099 0.34517837 0.07272118 0.29735884 0.13454454 0.20775558 0.017760742
0.037919596 0.07816905 -0.16528544 0.35156178 0.13105515 -0.25874016 -0.324473 0.08869682
-0.058879666 -0.19655077 -0.28363368 0.2513746 -0.11393649 0.34240195 -0.02616628 -0.35587764
-0.34281325 0.40974572 -0.28370425 0.13685445 -0.17188363 0.2644111 0.121663965 0.09087625
0.39189824 -0.0808221 0.051550027 -0.04327538 0.16224688 -0.30093768 -0.11722758 0.36400074
0.068136945 0.14751583 -0.07264577 0.18050614 0.109740466 -0.28034714 0.35264865 0.33510825
-0.17499621 -0.29792038 0.1097819 0.07618516 -0.11789984 -0.17377912 0.06673275 0.17244948
-0.21039534 -0.18854174 -0.048403107 -0.23304494 0.18123594 0.09161205 0.059450034 -0.27345508
-0.14786187 -0.2520189 0.24773298 0.12585403 0.14731662 0.12970963 0.220865 -0.056559958
-0.18729222 0.42408267 0.23322362 0.06314366 0.037975803 0.3041096 0.0037260267 -0.021767775
0.25326297 0.20698474 -0.041068077 0.20026994 -0.33338413 -0.21808766 -0.059928298 -0.14081796
0.13751844 0.25197205 -0.39191857 0.17772457 0.15751196 0.21657294 -0.10022865 -0.16960885
0.110260494 -0.1164091 0.41455436 -0.036432184 -0.37084624 -0.36375389 0.3499251 -0.1772338
0.26409787 -0.16334149 -0.04880799 -0.22544986 -0.07977258 -0.15987734 -0.14649336 0.06227081
-0.038029555 0.033227913 0.12773442 -0.26784092 0.31554732 0.01427865 -0.13552272 -0.095910214
0.10813674 0.23847446 0.03174146 -0.1500737 0.1704919 0.004511633 -0.08791511 -0.23656183
0.35816023 0.27523315 -0.32844397 0.19526415 0.20679136 0.14804247 0.10148112 -0.24793257
-0.14460953 0.121543266 -0.2934284 -0.21056244 0.31185326 0.11867199 0.20041588 0.15374038
0.16704448 0.065022655 0.11701315 -0.20066431 0.00071748404 -0.15997441 0.3383544 0.39379674
0.24163093 0.10672665 0.29365835 -0.0904153 -0.20685475 0.14593361 -0.21846515 -0.13601187
-0.24080008 0.20245136 0.28894213 -0.16235599 0.41197848 0.13800074 0.07722029 0.34236136
-0.25522304 -0.12658483 0.28791615 0.078057565 -0.12924491 0.2798452 0.11248574 -0.29651064
0.2464231 -0.12471025 -0.1259263 -0.28413928 0.05998279 0.32051066 0.08588049 -0.08499121
-0.33241954 0.18695675 -0.2828947 0.03406762 0.03054127 0.028949369 0.15346055 -0.029141394
-0.051379044 -0.10707199 0.14615254 -0.1644236 0.065100685 -0.24624915 0.24730057 -0.17841798
0.046200547 -0.014870914 0.25739753 0.21765783 -0.23430176 0.015710559 0.21901482 -0.11551677
0.36251995 -0.22802831 0.14107218 0.005704143 -0.03205838 -0.29110327 0.14845683 0.23822057
-0.32231352 0.034476873 0.09790582 -0.14344062 0.027560553 0.30367026 0.030088967 -0.3463705
-0.11651017 0.095669 -0.1588521 -0.19979253 0.39412886 0.3891399 -0.19595568 0.029339863
0.37121657 -0.3431114 -0.123303905 -0.19495913 0.13768771 0.035192553 0.029542714 0.32268873
-0.005422235 0.577825 0.31015345 -0.19388981 0.11417466 -0.14324698 -0.21969335 -0.17550106
00000000: 060c 0cbe a7b3 99be d261 c6be 1720 953c
00000010: 31e4 8abe 07d2 31be ead9 a63e b48c 163e
00000020: bf1d 3fbe d822 6d3b 38bb b03e d8ee 943d
00000030: 6b3f 983e 0bc6 093e e1bd 543e fa7e 913c
00000040: 9451 1b3d 1817 a03d 9640 29be e8ff b33e
00000050: 5233 063e 9779 84be 5321 a6be aea6 b53d
00000060: ce2b 71bd 9b44 49be 6f38 91be 2cb4 803e
00000070: 8957 e9bd 4f4f af3e ab5a d6bc 9835 b6be
00000080: 3885 afbe 31ca d13e af41 91be 9323 0c3e
00000090: 4302 30be e460 873e f52a f93d 541d ba3d
000000a0: e3a6 c83e 0f86 a5bd 1f26 533d 8641 31bd
000000b0: 0c24 263e 8114 9abe 0315 f0bd 4e5e ba3e
000000c0: 628b 8b3d 640e 173e 4ec7 94bd 9ad6 383e
000000d0: 9cbf e03d a989 8fbe 5d8e b43e 4f93 ab3e
000000e0: 3532 33be 0589 98be 55d5 e03d f706 9c3d
000000f0: 7975 f1bd 27f3 31be 2eab 883d 9996 303e
00000100: e071 57be 1611 41be 5642 46bd 55a3 6ebe
00000110: ea95 393e 199f bb3d e181 733d 4e02 8cbe
00000120: 1a69 17be 9f08 81be b7ad 7d3e e1df 003e
00000130: 2bda 163e 9ad2 043e 6f2a 623e 6aab 67bd
00000140: 88c9 3fbe 5d21 d93e 2cd2 6e3e 7751 813d
00000150: 848c 1b3d 41b4 9b3e 5b30 743b 5552 b2bc
00000160: afab 813e cff3 533e 0037 28bd 9013 4d3e
00000170: 53b1 aabe 5f52 5fbe 6077 75bd 9532 10be
00000180: a2d1 0c3e 7b02 813e 8da9 c8be 6efd 353e
00000190: d14a 213e 4cc5 5d3e ae44 cdbd f1ad 2dbe
000001a0: 41d0 e13d e567 eebd 7840 d43e ea39 15bd
000001b0: 8fdf bdbe f33d babe 6229 b33e c77c 35be
000001c0: d637 873e fe42 27be e3ea 47bd 54dc 66be
000001d0: ce5f a3bd e3b6 23be 5b02 16be ad0f 7f3d
000001e0: e1c4 1bbd fe19 083d d0cc 023e 7222 89be
000001f0: 6b8f a13e 00f1 693c 78c6 0abe 936c c4bd
00000200: cc76 dd3d a632 743e 5503 023d ecac 19be
00000210: 6e95 2e3e 52d6 933b d60c b4bd 443d 72be
00000220: c760 b73e 5ceb 8c3e cf29 a8be 53f3 473e
00000230: 1dc1 533e 7298 173e 55d5 cf3d 09e2 7dbe
00000240: 8514 14be adeb f83d 3f3c 96be ae9d 57be
00000250: 3bab 9f3e 4d0a f33d d239 4d3e 1e6e 1d3e
00000260: b50d 2b3e 992a 853d 97a4 ef3d f27a 4dbe
00000270: 8a15 3c3a 55d0 23be ca3c ad3e ba9f c93e
00000280: 196e 773e 8093 da3d 635a 963e a82b b9bd
00000290: bbd1 53be 9f6f 153e 54b5 5fbe b246 0bbe
000002a0: 4c94 76be 694f 4f3e 39f0 933e a640 26be
000002b0: d8ee d23e 1150 0d3e ac25 9e3d fd49 af3e
000002c0: 98ac 82be 749f 01be bf69 933e a5dc 9f3d
000002d0: c758 04be df47 8f3e ec5e e63d 3ed0 97be
000002e0: 5656 7c3e 1668 ffbd d3f2 00be b47a 91be
000002f0: 84b0 753d f919 a43e 1ce2 af3d df0f aebd
00000300: e532 aabe 9771 3f3e 93d7 90be 7d8a 0b3d
00000310: af31 fa3c 3a27 ed3c c324 1d3e efb9 eebc
00000320: d572 52bd 8f48 dbbd 03a9 153e a95e 28be
00000330: 8253 853d bd28 7cbe 5c3c 7d3e 34b3 36be
00000340: c93c 3d3d 22a5 73bc 9cc9 833e b2e1 5e3e
00000350: cdec 6fbe 6eb3 803c 6c45 603e 0e94 ecbd
00000360: 379c b93e 4180 69be 3a75 103e d2e9 ba3b
00000370: a64f 03bd 7d0b 95be 1105 183e 18f0 733e
00000380: 4706 a5be 9f37 0d3d d982 c83d 19e2 12be
00000390: abc6 e13c ab7a 9b3e 237d f63c 7957 b1be
000003a0: e29c eebd 1cee c33d 20aa 22be 6a96 4cbe
000003b0: 42cb c93e 583d c73e 9ba8 48be 275a f03c
000003c0: 1910 be3e 4cac afbe c286 fcbd 5ea3 47be
000003d0: 02fe 0c3e 1126 103d 9003 f23c 7537 a53e
000003e0: 01ad b1bb 57ec 133f 6fcc 9e3e 0d8b 46be
000003f0: 67d4 e93d 56af 12be 4bf7 60be 8db6 33be

onnx::LSTM_120 f4 [1, 80]
0.12979984 0.03254854 0.13793318 0.1200549 -0.19198807 0.15656798 -0.21038808 -0.20278475
0.4525793 0.13295093 0.013186501 -0.06468643 -0.12073405 -0.025079207 0.3412071 0.36112356
0.21383205 0.17853504 0.18568344 0.06205931 0.06018481 0.079670474 -0.11342363 -0.325872
0.08606901 0.29478097 -0.23657519 -0.17577982 0.013874947 -0.23977771 0.086982325 0.44423142
0.111468725 0.107706785 0.25739765 -0.00046562607 -0.066343814 -0.09403928 -0.036369745 -0.31241414
-0.1462371 -0.24035877 0.019412225 0.11475477 -0.12800063 0.09011026 0.264404 -0.13211778
0.4530954 -0.20508443 -0.10345791 -0.21104372 0.27518144 -0.32073125 -0.12685558 0.09333524
0.011055484 0.2882092 -0.12943734 -0.07885571 -0.40221152 0.27178589 0.18253069 -0.13041398
0.09632335 -0.04902721 0.20866928 -0.10147723 0.17621213 -0.3276556 0.015717873 -0.13224554
0.22430222 -0.09150355 0.31536824 -0.008353696 0.10875232 -0.2924615 0.054593485 -0.04502907
00000000: 40ea 043e 9e51 053d 5b3e 0d3e 58df f53d
00000010: 8598 44be 5b53 203e f96f 57be cea6 4fbe
00000020: 79b8 e73e 4a24 083e 320c 583c 527a 84bd
00000030: 6a43 f7bd e972 cdbc b2b2 ae3e 30e5 b83e
00000040: caf6 5a3e e4d1 363e cd23 3e3e e731 7e3d
00000050: 5984 763d 462a a33d a64a e8bd b2d8 a6be
00000060: f344 b03d 88ed 963e c440 72be a0ff 33be
00000070: bf53 633c 4a88 75be ca23 b23d 4d72 e33e
00000080: b749 e43d 6095 dc3d a0c9 833e 461f f4b9
00000090: 44df 87bd ab97 c0bd 71f8 14bd bff4 9fbe
000000a0: 2ebf 15be 9c20 76be 6306 9f3c 8d04 eb3d
000000b0: 9912 03be ba8b b83d f65f 873e e249 07be
000000c0: 1ffc e73e a701 52be bee1 d3bd d81b 58be
000000d0: 95e4 8c3e e336 a4be 6ee6 01be 8c26 bf3d
000000e0: 1022 353c 2890 933e 398b 04be 1a7f a1bd
000000f0: abee cdbe 8527 8b3e 53e9 3a3e 3e8b 05be
00000100: 2d45 c53d c1d0 48bd 66ad 553e 4bd3 cfbd
00000110: f470 343e 7ac2 a7be c5c2 803c 606b 07be
00000120: 7baf 653e 3766 bbbd f277 a13e f1dd 08bc
00000130: 89b9 de3d 84bd 95be 6b9d 5f3d 6770 38bd
