models/XLNX_model.onnx (onnx, 40199 bytes, 5 tensors)

fc.weight f4 [5, 10]
000000 d6 e4 2d 3e 52 33 6b 3e 85 e2 d7 3e d0 98 a0 be
       0.16981825 0.22968796 0.42165008 -0.31366587
000010 e4 d9 82 be 99 91 d4 3c d2 74 48 3e 4b d5 9c be
       -0.25556862 0.025948333 0.19575813 -0.3063148
000020 bb 17 57 3e b8 e7 4c 3d 53 e7 91 bc a4 b6 d9 bc
       0.21005146 0.05002567 -0.0178105 -0.026576348
000030 53 ef b2 3e 36 50 ca bd 6d 91 c3 be f9 fc a9 3e
       0.34948215 -0.0987858 -0.3819689 0.33200815
000040 ef c2 91 3e 7c 37 e9 be 75 8b c0 3d 8b d7 42 bb
       0.28469035 -0.45550144 0.09401599 -0.0029730524
000050 d6 4a c0 bd 99 6e 1e 3f 90 eb 26 3d be 90 0a be
       -0.09389274 0.6188751 0.040751994 -0.13531777
000060 d8 8a ca be 48 d4 53 bd a5 1b 27 bc 9d 81 19 be
       -0.39559054 -0.05171612 -0.010199462 -0.1499085
000070 22 00 80 be 23 72 66 be de ed 8e be f9 03 20 3e
       -0.250001 -0.22504477 -0.27915853 0.15626515
000080 de f8 86 3d 79 f5 b8 be fb 14 17 3f cb 07 06 3e
       0.065904364 -0.3612478 0.5901639 0.1308891
000090 1b 19 df 3e 56 ea 2b 3d e7 18 04 3e 80 c8 71 3e
       0.4357384 0.041971527 0.12900124 0.23611641
0000a0 07 55 85 bd 91 17 b5 3e 0a 1c d4 3d 6e 2e 4b 3d
       -0.06510358 0.35369542 0.103569105 0.049604826
0000b0 38 6a e0 be 09 3e 3c 3b 57 04 4a 3e 8e 94 65 be
       -0.43831038 0.00287235 0.19728218 -0.2241995
0000c0 c0 12 8f 3b 6f 20 1b be
       0.004366249 -0.15149091

fc.bias f4 [5]
000000 88 e6 19 be 1d 85 a4 bc 7d 25 89 3e 66 e4 1a be
       -0.15029347 -0.020083005 0.26786414 -0.1512619
000010 35 3c 32 3e
       0.1740578

onnx::LSTM_118 f4 [1, 40, 5]
000000 de e5 d9 be fc 3c 66 be 1e 6a 5b bd 32 28 2f be
       -0.42558187 -0.22484201 -0.053567998 -0.17105177
000010 fc c5 36 3e aa 55 2f 3e c8 7e c3 3e 8d e6 cb 3e
       0.17848963 0.17122522 0.38182664 0.39824334
000020 47 60 97 3e 3b 9c 04 3f d5 50 07 be 0d a8 e8 3d
       0.2956564 0.5180089 -0.13214429 0.11360178
000030 8c d3 be 3e 17 68 0d bc 25 79 c4 3e 70 70 b9 3e
       0.37270772 -0.008630774 0.38373676 0.36218596
000040 bf bc c0 3e 8d 6e 98 ba 78 c9 37 3e aa 1d f3 3e
       0.37644002 -0.0011629626 0.17947948 0.4748357
000050 6f 36 0d 3d 21 2e e9 3e ee 41 d4 3e 2c 8f f9 3d
       0.03447574 0.45543006 0.4145655 0.12185511
000060 ac 75 18 3d 16 8d bf 3d d3 bd b8 3c c1 c6 8c 3e
       0.037221596 0.09353082 0.022551453 0.27495387
000070 fa ca 99 be 3e 74 bc 3d 6b f1 d8 3d f5 85 05 3f
       -0.3003767 0.09201859 0.10592922 0.5215753
000080 04 04 96 3e 0c e0 05 3e c0 4b dc 3e a9 9e 95 3e
       0.2929994 0.13073748 0.43026543 0.2922261
000090 21 32 80 3c e2 1d 5d 3e d7 50 fe bb 9b f8 6d 3d
       0.015648903 0.2159343 -0.0077611017 0.058098417
0000a0 a0 2c 0a 3c 9c 1b b5 3e 4e 31 e8 bd d8 c5 5a be
       0.008433491 0.35372627 -0.11337529 -0.21364534
0000b0 71 e2 68 bb c5 a0 26 be a8 b6 5d be 69 c5 38 3d
       -0.003553536 -0.16272266 -0.21651709 0.04511014
0000c0 b8 97 0f be 11 67 dc be 17 64 26 be 52 26 04 3c
       -0.1402272 -0.43047383 -0.16249119 0.008065777
0000d0 b5 59 87 be f7 e5 ab bd 1f 57 2f 3e 54 5f d7 3e
       -0.2643563 -0.08393472 0.17123078 0.42064917
0000e0 6e 9e 05 3f 21 e4 fa 3e 43 9d 07 be d7 a4 e5 3e
       0.5219487 0.49002174 -0.13243584 0.44852325
0000f0 0f f2 7f 3e a4 9d e4 3d 7c d2 9b 3e 97 48 cc bd
       0.24994682 0.1116288 0.30434024 -0.09974783
000100 2c b5 0f 3f 8b af f5 3d 7e c5 93 3e b9 10 79 3e
       0.5613582 0.11996373 0.28861612 0.24322785
000110 21 60 06 3f ee 05 a3 3d 17 c4 a5 3d 9e f8 4c 3e
       0.5249043 0.079601154 0.08094042 0.20016715
000120 e2 51 8c 3d cc 3f bd 3d dd 71 37 3f 16 6a 03 be
       0.068515554 0.09240684 0.71658117 -0.12833437
000130 43 70 51 be 73 03 14 3e 55 7d bf 3c 7a c7 a7 3e
       -0.2045298 0.14454441 0.023375193 0.32769376
000140 58 92 e4 3e 20 6c bd 3e 3f 7c c9 3e a0 fc 0c 3f
       0.446429 0.36996555 0.39352605 0.55072975
000150 23 81 f4 3e 5f 61 f0 3d e9 7d 16 3f e2 21 00 3f
       0.47754773 0.11737322 0.58785874 0.500517
000160 64 05 90 3e 8d 56 8d 3e 04 01 8c bd 53 92 39 3e
       0.28129113 0.27605096 -0.06836131 0.18122225
000170 c1 15 ae 3e d5 1a 9e 3e ff 7e 91 bd 15 b2 55 3d
       0.34000972 0.30879846 -0.07104301 0.052171785
000180 95 f0 0b be 21 45 66 be f1 71 8e 3e 42 5d 2d be
       -0.13665994 -0.22487308 0.27821305 -0.16930106
000190 31 2e 3f 3c ab 54 bf be 6c 41 a7 bc 44 3c aa be
       0.011668728 -0.37369284 -0.020416938 -0.33249104
0001a0 97 1e 1d be 9b 53 77 3e 24 cb a5 3d b8 b6 c3 bd
       -0.153437 0.24152987 0.080953866 -0.09556335
0001b0 c6 fe 8c be 92 b1 79 3e d5 43 04 3e 61 38 cf bd
       -0.27538127 0.24384144 0.12916501 -0.10118175
0001c0 00 d2 87 3d 00 94 36 be cf 86 8b 3e c1 90 26 be
       0.06631851 -0.17829895 0.27251288 -0.16266157
0001d0 8a e8 3f 3e 2d 43 cf 3e d7 d6 1e 3e 04 53 04 3f
       0.1874105 0.4048094 0.15511642 0.5168917
0001e0 b9 93 c8 bd b4 bf f3 3d 9b 2f b4 3e d6 80 5f bf
       -0.09793801 0.11901799 0.3519257 -0.87305963
0001f0 69 90 94 3d 87 3b 8a be cf 03 8c 3e 41 89 47 3e
       0.072541066 -0.2699854 0.27346656 0.19485952
000200 49 36 a4 be cf a6 24 3d db ae f4 bd e9 26 c4 bd
       -0.32072666 0.040198144 -0.119474135 -0.09577734
000210 69 2b 88 3e 2c b8 1b 3f e8 15 b0 3d 45 71 a6 3e
       0.2659562 0.608279 0.08597928 0.32508293
000220 d6 0d c1 3e 9d e5 ab bd 1d e8 b4 be c3 61 72 3e
       0.37705868 -0.08393405 -0.35333338 0.23670106
000230 b3 24 40 3e 68 6a 2e bc 62 55 59 be f5 43 78 3e
       0.18764 -0.010645486 -0.21223977 0.24244674
000240 5c 6f c4 3e 38 f2 b6 bd 64 cb 95 3d 39 c8 8a be
       0.3836621 -0.08932918 0.07314184 -0.27105883
000250 84 3b 84 3e 82 44 36 3e bb 54 7d 3d 99 54 5a 3e
       0.25826657 0.17799571 0.061848383 0.21321334
000260 ea a2 ef bd 34 35 07 3e 5e a4 57 3d 79 3a 31 3e
       -0.11700995 0.13203889 0.052646987 0.17307462
000270 ed 8e d3 3e e4 e4 a3 3e 77 6f 85 3e a4 9b 41 3f
       0.4131998 0.32010567 0.26061603 0.75628114
000280 a8 88 74 3e 9d c2 ff bd c6 6f c8 3e 4a 0b c1 3e
       0.23880255 -0.124882914 0.39147776 0.37703925
000290 45 8b ae 3e 20 07 98 be ba e2 9e be 86 16 1d be
       0.3409063 -0.29692936 -0.31032354 -0.15340623
0002a0 f9 75 30 be 1b 49 fd 3c f8 0b b1 bd 4b d5 55 be
       -0.17232503 0.030918648 -0.08644861 -0.20882146
0002b0 00 a3 fb be d5 ad fe 3d a0 cc a8 be a6 ae 1f bc
       -0.49147797 0.124354996 -0.32968616 -0.009746229
0002c0 4f e6 60 3e 0b ac 98 3e 3c f0 3f 3e cd 16 ad 3e
       0.21962856 0.29818758 0.18743986 0.33806458
0002d0 30 7b ed 3e 33 e8 93 3d 70 c1 71 3e e0 10 5c 3e
       0.46383047 0.07222023 0.23608947 0.21490812
0002e0 12 ee 67 bd 83 d8 7d bc 3a c5 6e be b8 13 cf be
       -0.056623526 -0.015493515 -0.23317423 -0.40444732
0002f0 33 c3 e0 3d 30 6d f2 be 65 d6 9a 3e 54 87 89 bd
       0.10974731 -0.47348928 0.30241695 -0.06715265
000300 9d 50 0d bd d8 7f f9 3e e9 f8 29 3d ad c8 25 be
       -0.034500707 0.4873035 0.041497145 -0.16189833
000310 9d 29 fe bd 2c b4 2f 3e 65 44 3b 3e 30 67 6d 3e
       -0.12410281 0.17158574 0.18287809 0.23183894

onnx::LSTM_119 f4 [1, 40, 10]
000000 44 17 36 3d 7f ad d1 be 96 66 93 be e8 1f cd 3d
       0.04445578 -0.4095268 -0.28789204 0.10015851
000010 98 7f 7a be 78 af 8b 3d 84 e6 d3 be 14 27 c6 3e
       -0.24462736 0.068205774 -0.41386807 0.3870169
000020 f5 01 52 be da d4 2a be 79 b1 27 3f 9b ed 8b be
       -0.20508559 -0.16682759 0.65505177 -0.27329716
000030 77 7b 08 3e 61 7d c2 be 43 9d 6f 3e 46 66 43 3e
       0.13328348 -0.37986282 0.23399834 0.19081983
000040 eb e8 3c 3d e6 dc 93 be 48 93 9e 3e 18 97 95 3e
       0.046120565 -0.2887947 0.30971742 0.29216838
000050 48 73 09 be 45 da 5c bd 89 61 22 3e d7 51 a3 3d
       -0.13422883 -0.053919096 0.15857519 0.07974594
000060 ad f7 26 3f 38 a6 52 3e ab ad 22 3e 87 1e 1d be
       0.65221673 0.2057122 0.15886562 -0.15343677
000070 47 7c e8 bc 65 ff df be 3c a4 b5 be dd 7b 4a 3e
       -0.028379573 -0.43749538 -0.35476863 0.19773813
000080 14 ad 3e be e6 f9 08 3e 3a 62 b5 3e 32 89 84 be
       -0.18620712 0.13376579 0.35426503 -0.25885922
000090 73 4f d0 be 66 f3 15 3e b8 96 40 be 6b ea 5b 3d
       -0.40685615 0.1464363 -0.18807495 0.053690355
0000a0 33 25 a8 3d a1 cb 80 3e 8a cb a9 3e 91 fc de be
       0.0821022 0.25155357 0.331631 -0.43552068
0000b0 1c cc f0 be 75 e8 20 be 44 91 31 3f 84 8c 1d be
       -0.47030723 -0.15713675 0.6936228 -0.15385634
0000c0 6d 41 9d 3f 59 70 38 3f 77 fc 9f bd 66 32 58 3e
       1.2285591 0.7204643 -0.07811826 0.21112975
0000d0 01 de 28 be 84 1a 66 3d 8b 02 d5 bd c7 f6 58 3e
       -0.16490938 0.05617763 -0.10400876 0.21187888
0000e0 2e 9b 8c 3e 0d 34 eb bc 6b aa 35 3e 96 c2 1d be
       0.27462143 -0.028711343 0.1774079 -0.1540626
0000f0 c6 76 3c be 67 83 94 3e 41 55 ba 3d ba 9e 41 bd
       -0.18404683 0.29006502 0.09098292 -0.047270514
000100 b7 82 22 be bf f2 06 be 1f 22 b2 bd e2 19 ad be
       -0.15870176 -0.13178538 -0.08697914 -0.3380881
000110 c6 d8 5a 3e ab e9 34 3d a7 0f e3 3c 7f f8 c0 3d
       0.21371755 0.044168156 0.027717425 0.09422397
000120 1e 65 98 3e 49 d8 d2 3c 39 f6 d5 bd 83 89 2b 3d
       0.29764646 0.025737898 -0.10447354 0.04187919
000130 fe 57 8d 3e 2e b1 22 be 71 c6 58 be 97 b2 1f 3e
       0.27606195 -0.15887901 -0.2116945 0.1559547
000140 79 a5 77 bd 18 7c 30 3d c6 21 7c be 09 69 ab bd
       -0.06046054 0.043087095 -0.24622259 -0.08369643
000150 5a e4 b7 3d e0 98 54 3e 97 d6 84 be 7a f6 f8 bd
       0.089791015 0.20761442 -0.2594497 -0.12156387
000160 95 99 01 be 74 ee 8b be d8 32 eb 3c 1c 55 d7 be
       -0.12656243 -0.27330363 0.028710768 -0.4205712
000170 cf 4d a3 3d 2c af ca 3e 07 6b 03 bd 69 9f 2f 3e
       0.07973825 0.3958677 -0.03208449 0.17150654
000180 0a 07 ea be 3a bd 93 bd 17 6f df bd 19 d2 1d 3d
       -0.45708495 -0.072138265 -0.109098606 0.038530443
000190 02 1d 04 3e 5c 1a 8a be 77 37 5a be 7c e7 66 3d
       0.1290169 -0.26973236 -0.2131022 0.056373104
0001a0 9d 93 1e 3d de b2 86 bd 2b 6b a9 be 1a fa 0b be
       0.038714994 -0.06577085 -0.33089575 -0.13669625
0001b0 fb 53 bd be 0d 56 c7 3e fd 29 e5 3e f4 34 b6 bd
       -0.36978135 0.3893284 0.44758597 -0.08896819
0001c0 fe 51 e9 3d 9d c5 81 be 68 62 96 3d 45 07 17 be
       0.11392592 -0.2534608 0.07342988 -0.14748867
0001d0 66 f8 0c be 92 60 95 be 36 8a 98 3e e8 61 29 3d
       -0.13766631 -0.2917524 0.29792947 0.041353136
0001e0 1d 38 43 be b7 03 a1 3e dc df 44 3e 62 e6 34 3e
       -0.19064374 0.31448147 0.1922602 0.17666009
0001f0 19 41 c3 3e 7e 97 09 3e ab e5 69 3e 09 73 1b bd
       0.38135603 0.13436696 0.22841518 -0.037951503
000200 43 a4 9a bd 0b 15 8b 3d 36 95 33 be fd ba e1 bd
       -0.07550862 0.06791123 -0.17537388 -0.11021993
000210 a8 d6 0c be 3e 4b ae bc 82 fb 1b 3e b5 7a 9f 3e
       -0.1375376 -0.021276113 0.15232661 0.31148306
000220 8c 28 18 be e5 b2 6e 3e 2e da 7d 3e 4f 15 4d be
       -0.14859217 0.2331043 0.2479026 -0.2002766
000230 60 22 09 3f 2a d4 f1 3d 75 d9 99 3e bf b7 a0 be
       0.5356808 0.11808045 0.3004872 -0.31390187
000240 da 59 d8 be c0 c9 dd bd cb bb 83 3e 14 3d e6 be
       -0.4225605 -0.108294964 0.25729212 -0.44968474
000250 7f 65 af 3f 9d f5 b2 3e 68 8a 1b be ec 0f 55 bd
       1.3702849 0.34953013 -0.15189517 -0.052017137
000260 4d 21 bb be 43 bb 18 3d 7b e6 9f 3e b1 4f 31 3d
       -0.36548844 0.03728796 0.3123053 0.04328889
000270 df 0b 1d 3e 02 64 35 be bb 50 e1 3d 7c 92 ed bd
       0.1533656 -0.17713931 0.11001726 -0.11600205
000280 82 b3 e6 bd d7 72 fe bd 2a 5a c7 bd fd 65 dc bc
       -0.11264707 -0.12424248 -0.09733994 -0.0269041
000290 81 33 57 3e 76 d9 6a bc c9 d1 5c 3c d6 ae c0 be
       0.21015741 -0.014334073 0.013477751 -0.3763339
0002a0 82 d2 af be 55 0e 1a be f8 6e ba be 38 a3 65 3e
       -0.34340292 -0.1504453 -0.36412787 0.22425544
0002b0 4e aa e2 3e 8d 6d 4a be 2f 86 28 3e 38 dc ce 3d
       0.44270557 -0.19768353 0.16457437 0.10100597
0002c0 8d cf 19 3d 7f d8 e2 3c ee 5e 1d 3e 19 ab 14 bd
       0.03755145 0.027691124 0.15368244 -0.036295984
0002d0 a8 4f b2 be e0 95 22 be 2c 2f 17 3e 9e 49 e9 bd
       -0.34826398 -0.15877485 0.14764088 -0.113909945
0002e0 5a e8 6e 3e 81 03 90 3d c7 c9 99 be 5b 32 91 3e
       0.23330823 0.07031918 -0.30036756 0.2835873
0002f0 f8 d6 e1 3c ff 9c 7a 3e 79 e9 92 3e 5f da 79 3c
       0.027568325 0.24473952 0.2869375 0.015249818
000300 a5 20 22 be 63 dc cf 3e 71 bb 37 be 4a 69 22 3e
       -0.15832765 0.4059783 -0.17942597 0.15860477
000310 7a 3f 74 be 4e ba 9a 3e 1f d4 ad 3d 54 d7 96 3d
       -0.2385234 0.30220264 0.084877245 0.07365289
000320 4b 58 b0 3d 09 8f d0 3c 05 13 9b bd 88 1f 03 be
       0.086105905 0.02545883 -0.07571987 -0.12804997
000330 bf 8a 96 bd c9 29 24 3e 57 1b 68 bd 6c 1d 39 be
       -0.073506825 0.16031565 -0.0566667 -0.1807763
000340 83 41 98 be f1 93 68 3e e0 a9 1c 3e 1e 81 64 be
       -0.2973748 0.22712685 0.15299177 -0.2231488
000350 8e 16 f5 3d d4 c2 6c 3e 37 f6 31 3f e9 ed 49 be
       0.119671926 0.23121196 0.6951632 -0.19719662
000360 f6 f9 5b be dc ba 85 bd 3b 23 2b 3d d8 8f e1 bc
       -0.21482071 -0.06529781 0.041781645 -0.02753441
000370 20 34 6d bd 7a 6d 36 3c ad f8 c7 bd 99 bc 07 be
       -0.05791104 0.0111345 -0.09764228 -0.13255538
000380 63 85 e8 3d 10 f3 1d 3e 23 74 3c be 32 87 63 be
       0.113535665 0.15424752 -0.18403678 -0.22219542
000390 61 1a e2 bd e9 31 6f be 37 e7 e4 bd c1 3f 28 3e
       -0.110401876 -0.23358883 -0.11176913 0.1643057
0003a0 c9 c1 f4 3d 6d 7f 12 3e a6 57 10 3f 05 d4 87 3e
       0.11951024 0.14306422 0.5638374 0.26528946
0003b0 97 48 83 be c9 8d 1d bd ae a2 1f be 7d 6f 93 be
       -0.2564132 -0.038465295 -0.15589401 -0.28795996
0003c0 f5 f5 77 bd 62 9a 14 3c db 4c 08 be 56 82 02 3e
       -0.060537297 0.009070011 -0.13310568 0.12745032
0003d0 9b 9a 11 3f 2e d4 59 be 36 52 d3 be 03 c7 53 3e
       0.56876534 -0.21272346 -0.4127366 0.20681386
0003e0 18 73 c2 3e 08 74 c9 bc 7d 3a c2 be 3b 89 6f be
       0.37978435 -0.02459146 -0.37935248 -0.23392193
0003f0 33 81 8f be 97 30 96 3e b3 01 ae 3d 1b c3 b3 be
       -0.2802826 0.29333946 0.08496418 -0.3510979

onnx::LSTM_120 f4 [1, 80]
000000 23 50 17 bd 71 0d a6 3e 78 68 eb bd f2 a1 25 3e
       -0.03694166 0.3243213 -0.11494535 0.16175058
000010 f5 24 e2 3e e2 a0 75 3e 25 c2 e4 3d 12 b1 9b 3e
       0.4416882 0.23987153 0.11169843 0.3040853
000020 4a d6 54 be 7c 6b 82 be 40 8f 9f be 73 eb 39 3e
       -0.2078487 -0.2547263 -0.3116398 0.18156223
000030 0e c3 93 3e b1 21 70 3e ad 76 c7 3e 8b e4 4d be
       0.28859752 0.23450352 0.3895773 -0.20106713
000040 5a 61 70 be fe 28 b1 3d e4 6b 8a be 48 79 5c be
       -0.23474637 0.08650397 -0.2703544 -0.2153064
000050 59 27 cb be 86 40 4b 3e a8 3d 89 3d 1c 5c 9c be
       -0.39678457 0.19848832 0.06701213 -0.30539024
000060 5e 77 d6 bc 96 7b 28 3e 67 fd cb bc 8b c4 ce bd
       -0.026179966 0.16453394 -0.024901105 -0.10096081
000070 84 c3 84 3e 22 44 4b 3d f9 07 5b 3e 95 af 19 bc
       0.25930417 0.049625523 0.2138976 -0.009380241
000080 45 af 8c 3e f1 30 3f be a9 b8 4e 3e c3 23 90 bd
       0.2747747 -0.18671013 0.2018763 -0.07038071
000090 70 a4 fe bd e2 03 90 be 18 05 a1 3e ad d5 ed 3c
       -0.12433708 -0.28127962 0.314492 0.029032553
0000a0 e2 72 45 bd 13 58 3b 3d df 7f 99 3e 0c 8b 6d 3c
       -0.048205264 0.04573829 0.2998037 0.014498483
0000b0 df 3a f1 3e fc b9 63 3e 14 b6 88 be b5 cd 29 bd
       0.47115228 0.22238916 -0.26701415 -0.041455943
0000c0 89 68 26 3e ba ef db 3c f4 ba 92 bc 9d 1e 48 3e
       0.16250814 0.026847709 -0.017911412 0.19542928
0000d0 0c 08 2b be 49 31 e8 bd 94 08 b4 3d 1d 3c 16 be
       -0.16702288 -0.113375254 0.08790699 -0.14671369
0000e0 e0 6e 0d 3e 32 88 29 be 23 14 7b be 77 54 cd be
       0.13811827 -0.1655586 -0.245194 -0.40103504
0000f0 55 fa 09 bd 9e 96 5d be 12 4f 76 3e ad 22 3c 3b
       -0.033686 -0.21639487 0.240536 0.0028707192
000100 59 24 8f 3e 8b 2a 3f 3d 75 61 2c 3e 70 ef fc 3d
       0.2795742 0.04667143 0.16834052 0.123503566
000110 88 ec 69 3e d7 6f 1d be b9 5b 11 bd c3 03 20 be
       0.22844136 -0.15374695 -0.035487864 -0.15626435
000120 3e 3e 15 3d 71 ac 90 be 48 df 26 be a9 0e 37 3d
       0.036436312 -0.28256562 -0.16296113 0.044691715
000130 0d 23 93 3e 50 fe 87 3e ca 75 fe 3d 60 68 7f 3e
       0.2873768 0.26561213 0.1242481 0.2494216
